1.DQN/ckpt/CartPole-v1_episode_107_reward_478.pth (torch, 72726 bytes, 6 tensors)

fc.0.weight f4 [128, 4]
-0.13851985 -0.39159125 0.26659942 -0.15777291 0.54073167 0.18742783 0.1265417 0.45640048
-0.03363361 0.39616907 0.14402458 0.5059814 0.44010288 0.16149186 -0.19481306 -0.041262563
0.42424774 0.17412297 0.21858905 -0.13223419 -0.05044603 -0.5333118 -0.48619905 -0.38197738
-0.20670182 0.29073465 0.46403944 0.26397577 -0.042300418 -0.20126994 -0.43451405 -0.30211365
-0.25200653 0.1809993 0.22465 -0.22588941 0.2714893 -0.36162204 -0.79871696 -0.46366066
-9.3876675e-05 -0.30070087 -0.25443745 0.15100196 -0.15947627 0.0933248 -0.5868796 -0.40618387
-0.5507449 0.4484819 0.74742776 0.46212554 0.40523693 -0.20959935 -0.5570095 -0.35795918
-0.34049037 -0.43072787 -0.76835775 -0.3248006 0.06120169 0.5251912 0.011784115 0.37450904
-0.4984809 0.32025734 0.54081476 0.15326704 -0.15920094 -0.152478 -0.3243262 0.38937262
0.10352917 -0.38816917 0.14784648 -0.4983086 -0.13669457 0.16723302 0.52452356 0.100293525
-0.060862977 -0.069183424 -0.44510615 -0.19706097 -0.05076433 -0.3538014 0.5808375 0.19170584
0.06657452 0.09810502 -0.30679575 0.21251258 0.10134922 -0.21454543 0.26701707 0.35499325
-0.057916444 0.33819115 -0.53753465 -0.20384152 -0.20161046 -0.0455475 0.40721458 -0.10583318
0.018948345 0.20032504 0.7138632 0.39106774 0.091699995 -0.297747 0.57722706 0.3391315
0.125809 -0.006065236 -0.26466268 -0.39724332 -0.09142295 0.057304896 -0.36145827 0.046192773
0.3053848 0.3434633 0.079824366 0.12496165 0.20089374 -0.18256325 0.5488071 0.1769014
0.17676981 -0.16700998 0.51420236 0.22024836 0.24798818 0.1896082 0.54742 -0.2642431
0.17495067 0.15946668 0.62294614 0.08385746 0.27333346 -0.12505956 0.16415338 -0.26010332
0.19660549 0.25451702 -0.3785583 -0.41673857 0.22030374 0.0020496214 0.5639259 -0.24077536
-0.0316229 0.19139741 0.4151273 0.44810587 -0.41366366 0.037649397 -0.3699808 -0.31825492
0.29817843 0.11109583 -0.2996772 -0.24801452 0.29139805 0.10331491 0.27134508 -0.03724026
-0.24124399 -0.07203941 -0.08139279 -0.40328664 -0.031043157 0.1416045 0.61316204 0.41513196
0.49775884 -0.21041861 -0.069709145 -0.41266963 0.27133018 0.33198154 -0.53793544 -0.5756737
-0.10532789 0.21696694 -0.2926858 -0.3057969 0.36244306 0.35834524 0.11412227 0.48431203
0.2660011 0.020130634 0.53563684 0.36068606 -0.20203447 0.36992997 -0.04173592 0.2662981
0.47594866 0.12734447 0.3082296 0.15117545 -0.31944957 0.3022691 0.6610511 -0.062179126
0.5793996 -0.56646353 -0.44882512 -0.47573832 0.5175485 -0.34014174 -0.32211125 -0.38560945
0.28116924 0.4892622 -0.10833262 0.3100033 0.11293977 0.10449825 0.31301975 0.19016425
-0.33432257 -0.1259951 0.51183885 0.3778585 -0.52853227 -0.32524702 0.2274095 -0.19983162
0.29620412 -0.29166323 -0.41532648 -0.031036012 -0.2767487 -0.19925377 0.085491434 -0.2685242
-0.33003616 0.2007991 0.28535056 -0.38089347 0.018745095 0.1125381 -0.27017012 -0.09946305
0.021614037 -0.29824135 0.35122344 -0.08479897 0.26929575 0.49466527 -0.1717413 0.45484343
00000000: 26d8 0dbe a67e c8be b87f 883e 398f 21be
00000010: 646d 0a3f 15ed 3f3e 2694 013e 53ad e93e
00000020: 65c3 09bd acd6 ca3e 2e7b 133e ff87 013f
00000030: 2a55 e13e 1f5e 253e 137d 47be ef02 29bd
00000040: 0037 d93e 4b4d 323e cfd5 5f3e 6668 07be
00000050: 7fa0 4ebd 1f87 08bf 15ef f8be 8a92 c3be
00000060: a4a9 53be 2cdb 943e 9496 ed3e d527 873e
00000070: 3443 2dbd b519 4ebe a078 debe a4ae 9abe
00000080: 0007 81be e157 393e a60a 663e 8e4f 67be
00000090: a500 8b3e 8626 b9be b778 4cbf ee64 edbe
000000a0: a8df c4b8 77f5 99be a045 82be 42a0 1a3e
000000b0: bf4d 23be 1321 bf3d be3d 16bf 55f7 cfbe
000000c0: 9efd 0cbf 6b9f e53e 6d57 3f3f b89b ec3e
000000d0: 377b cf3e 36a1 56be 2d98 0ebf 6d46 b7be
000000e0: c154 aebe 5d88 dcbe 18b3 44bf 444c a6be
000000f0: a0ae 7a3d ee72 063f 2912 413c a6bf bf3e
00000100: e338 ffbe c5f8 a33e d672 0a3f 09f2 1c3e
00000110: 9205 23be 3123 1cbe 150e a6be d95b c73e
00000120: 1a07 d43d 1cbe c6be 1165 173e 4e22 ffbe
00000130: a9f9 0bbe 223f 2b3e 2d47 063f b166 cd3d
00000140: 754b 79bd 0ab0 8dbd f4e4 e3be 5aca 49be
00000150: 42ee 4fbd 7525 b5be c4b1 143f 894e 443e
00000160: 3958 883d 49eb c83d 5514 9dbe e69c 593e
00000170: 2e90 cf3d ccb1 5bbe 76b6 883e adc1 b53e
00000180: cb39 6dbd 6427 ad3e df9b 09bf d5bb 50be
00000190: f972 4ebe 0490 3abd 6e7e d03e 11bf d8bd
000001a0: 8f39 9b3c 0222 4d3e bdbf 363f 083a c83e
000001b0: 35cd bb3d 4b72 98be 27c5 133f a5a2 ad3e
000001c0: 13d4 003e e3be c6bb de81 87be 7a63 cbbe
000001d0: f53b bbbd 8ab8 6a3d 0f11 b9be a234 3d3d
000001e0: 665b 9c3e 6cda af3e f57a a33d e5eb ff3d
000001f0: 17b7 4d3e dcf1 3abe 9f7e 0c3f a425 353e
00000200: 2503 353e aa04 2bbe c4a2 033f c988 613e
00000210: 9df0 7d3e a728 423e b823 0c3f df4a 87be
00000220: 4526 333e 3c4b 233e 6679 1f3f 76bd ab3d
00000230: 5df2 8b3e 9d0f 00be d317 283e 432c 85be
00000240: f352 493e 0e50 823e 65d2 c1be c25e d5be
00000250: 4e97 613e f152 063b 735d 103f d18d 76be
00000260: 0487 01bd affd 433e 918b d43e 226e e53e
00000270: b9cb d3be 4136 1a3d 206e bdbe 4ff2 a2be
00000280: d8aa 983e 3686 e33d 4a6f 99be 85f7 7dbe
00000290: 2032 953e c496 d33d beed 8a3e 3e89 18bd
000002a0: aa08 77be 6689 93bd 43b1 a6bd 967b cebe
000002b0: 384e febc c500 113e 30f8 1c3f 2d8c d43e
000002c0: 3fda fe3e fa77 57be abc3 8ebd 6f49 d3be
000002d0: caeb 8a3e 7cf9 a93e 23b6 09bf 5a5f 13bf
000002e0: 26b6 d7bd 952c 5e3e eada 95be 6991 9cbe
000002f0: 2392 b93e 0779 b73e f0b8 e93d bff7 f73e
00000300: 4c31 883e 00e9 a43c 7f1f 093f d8ab b83e
00000310: 20e2 4ebe 7667 bd3e 49f3 2abd 3958 883e
00000320: 8baf f33e 9766 023e 45d0 9d3e bdcd 1a3e
00000330: e58e a3be 04c3 9a3e a53a 293f 8aaf 7ebd
00000340: 8853 143f c103 11bf 68cc e5be f993 f3be
00000350: 0f7e 043f 0f27 aebe c4eb a4be 9a6e c5be
00000360: 6af5 8f3e 9380 fa3e 7edd ddbd c1b8 9e3e
00000370: f74c e73d 2e03 d63d 2044 a03e 6bba 423e
00000380: 542c abbe dc04 01be df07 033f ab76 c13e
00000390: e44d 07bf c786 a6be 09de 683e a9a0 4cbe
000003a0: 11a8 973e e254 95be aca5 d4be 3c3f febc
000003b0: 01b2 8dbe 2e09 4cbe 2216 af3d 017c 89be
000003c0: 80fa a8be 479e 4d3e 7819 923e 7804 c3be
000003d0: 508f 993c 607a e63d bd53 8abe 49b3 cbbd
000003e0: ec0f b13c 17b3 98be 8fd3 b33e 15ab adbd
000003f0: 22e1 893e c444 fd3e f4dc 2fbe 3de1 e83e

fc.0.bias f4 [128]
0.31669647 -0.42062607 0.56757677 -0.45266405 -0.56500185 -0.3009057 0.44970128 -0.4912573
0.19234927 -0.45725027 0.6248471 0.6361625 0.28277266 -0.46250957 0.03828642 0.28234622
0.3915492 0.419726 0.6303021 0.45586312 -0.625247 0.21348125 -0.39952475 0.54340416
-0.43944693 0.5134576 0.18329184 0.5894171 -0.3462476 -0.21712705 -0.31046614 0.3643178
0.5575699 0.6515316 0.25172058 0.58921254 -0.18158513 0.3179362 0.65348387 0.5164716
-0.34171537 0.68674856 -0.5524853 -0.65489274 -0.19861045 0.043343224 0.19668163 0.57794464
-0.38639754 0.23211248 -0.45636582 0.5496996 -0.17769212 -0.24812554 0.62158304 -0.4866187
-0.10544581 0.43472594 -0.36795673 0.6077316 0.3298273 0.39166746 0.491678 0.5868473
-0.41188234 -0.19397391 -0.61468786 -0.551726 0.3920952 0.36591488 -0.26079193 0.472041
0.47982666 -0.60664755 -0.2472552 0.00378322 0.5767832 -0.49952278 -0.21063724 -0.22891113
-0.22556892 0.32734844 -0.24226388 0.61449754 0.6233028 0.59027237 0.29555947 -0.44911554
0.6724165 0.25064644 0.47557685 0.5726633 0.4389659 0.2439031 -0.30960655 0.61364394
0.20277523 -0.18157007 -0.267095 -0.37271592 -0.1392908 0.22732776 -0.23161419 0.6923861
-0.42492935 -0.21806064 0.6556517 0.54473895 -0.58689314 0.4915043 0.57930785 0.1491052
-0.26280108 -0.30924407 -0.3971231 0.62133116 0.40134683 0.3887017 -0.08893835 0.3427668
0.31391522 -0.6520787 0.38227823 -0.38518488 0.357322 -0.39296043 -0.41364762 0.63908195
00000000: 0a26 a23e 4d5c d7be b64c 113f 95c3 e7be
00000010: f6a3 10bf 5010 9abe 3f3f e63e 1486 fbbe
00000020: 35f7 443e b51c eabe fbf5 1f3f 8cdb 223f
00000030: 94c7 903e 0ece ecbe 39d2 1c3d af8f 903e
00000040: 2379 c83e 54e6 d63e 7a5b 213f e466 e93e
00000050: 3010 20bf d49a 5a3e 828e ccbe 891c 0b3f
00000060: 30ff e0be f571 033f dbb0 3b3e 0ae4 163f
00000070: 5e47 b1be 8e56 5ebe 6bf5 9ebe dd87 ba3e
00000080: e7bc 0e3f c6ca 263f 85e1 803e a2d6 163f
00000090: 74f1 39be 89c8 a23e b84a 273f 7c37 043f
000000a0: 51f5 aebe c1ce 2f3f ad6f 0dbf 0da7 27bf
000000b0: 8a60 4bbe aa88 313d e966 493e 2ef4 133f
000000c0: e6d5 c5be e5ae 6d3e c8a8 e9be 1db9 0c3f
000000d0: ecf4 35be 9f14 7ebe 1120 1f3f 1626 f9be
000000e0: f9f3 d7bd 6694 de3e d364 bcbe 4c94 1b3f
000000f0: 20df a83e a388 c83e 38bd fb3e a03b 163f
00000100: 3ee2 d2be 19a1 46be 2f5c 1dbf ea3d 0dbf
00000110: b4c0 c83e 3259 bb3e 8586 85be 5caf f13e
00000120: d7ab f53e 414d 1bbf 7830 7dbe e6ef 773b
00000130: 10a8 133f 73c1 ffbe 4ab1 57be ae67 6abe
00000140: 8afb 66be 379a a73e 0614 78be b64f 1d3f
00000150: c690 1f3f 171c 173f 9253 973e 79f2 e5be
00000160: 7d23 2c3f bb54 803e cf7e f33e 109a 123f
00000170: 23c0 e03e bcc1 793e c084 9ebe c517 1d3f
00000180: 4fa4 4f3e 81ed 39be adc0 88be 9fd4 bebe
00000190: 3fa2 0ebe 9cc8 683e 452c 6dbe 3740 313f
000001a0: 5790 d9be 4a4b 5fbe cad8 273f 0374 0b3f
000001b0: a13e 16bf 74a6 fb3e 854d 143f 09af 183e
000001c0: dd8d 86be 3d55 9ebe b853 cbbe 8f0f 1f3f
000001d0: 557d cd3e e903 c73e 4f25 b6bd 217f af3e
000001e0: 7fb9 a03e a1ee 26bf f9b9 c33e f436 c5be
000001f0: e9f2 b63e 1c32 c9be 9fc9 d3be e09a 233f

fc.2.weight f4 [128, 128]
-0.1596391 0.13203737 -0.14301158 0.114211135 0.17751841 0.19147938 -0.32769772 0.23364551
-0.14828815 0.29769072 -0.06345637 -0.12239545 -0.12769687 0.17959534 4.500238e-05 -0.08765594
-0.21165507 -0.12187931 -0.103985764 -0.25846517 0.26231933 -0.08971481 0.063789345 -0.0907925
0.047650382 -0.17744265 -0.108244136 -0.10258414 0.1036127 0.268454 0.08684675 -0.16603729
-0.19565766 -0.17036298 -0.14641453 -0.1176101 0.054657612 -0.21716587 -0.2894831 -0.11559493
0.11000892 -0.093998134 0.24585025 0.10763107 -0.035246577 0.058839172 -0.040036533 -0.2041377
0.08884419 -0.07303713 0.085064985 -0.18476577 0.109413505 0.1516148 -0.1479478 0.05474415
0.06439104 -0.14894812 0.2177793 -0.20023663 -0.01522933 -0.06634188 -0.047008175 -0.13751736
0.029822405 0.05254098 0.10644418 0.12059886 -0.070947334 -0.22231717 -0.044411946 -0.1267694
-0.16865943 0.12204681 0.028999232 -0.027391065 0.0055490774 0.1787244 0.05951494 0.24504146
0.079618245 0.019783994 0.044422165 -0.090241015 -0.22977753 -0.19200593 -0.1490651 0.16807221
-0.15939797 -0.00022600222 -0.11295527 -0.098112196 -0.22087187 -0.031350497 0.17095768 -0.17509675
0.0011897262 0.025033545 0.06685533 0.031636488 0.08236035 -0.09505997 0.011876025 -0.10070756
0.115700714 0.020858487 -0.08526989 -0.15299933 0.19086121 -0.18223809 -0.12513888 -0.024445465
0.03623784 0.06704664 0.036337305 -0.052864593 -0.15932302 -0.046513434 0.0844232 -0.09011909
-0.09015804 0.20576105 -0.06815611 0.11301437 -0.004107329 0.15554136 0.18608528 -0.20289588
-0.018037638 -0.045033243 0.42522213 -0.052391972 -0.054576293 -0.2394991 0.24159683 -0.37574536
0.032023862 -0.4418196 -0.013666352 0.016323997 0.18387283 -0.26598573 -0.093325146 0.15708515
0.14497635 0.027157879 0.119165584 0.09191735 -0.19011529 0.06212475 -0.14360872 0.0630343
-0.027964968 0.1281536 0.22821054 0.09444854 -0.11195796 -0.1128406 -0.0574251 0.20866604
0.11123405 0.10084365 0.24192198 0.0073293643 -0.091286995 0.023689657 0.3654505 0.0928645
-0.101246096 0.10528769 -0.19764484 -0.026115447 -0.0799264 -0.070832476 -0.008810121 0.23481643
0.047001295 0.28289324 -0.121011205 0.12208294 -0.27585116 -0.17490213 0.15777063 -0.059224162
0.0012210859 0.12514414 -0.035446063 0.14149545 -0.012855656 0.076318786 0.015906056 0.0630421
-0.069846965 -0.10366887 -0.029129628 -0.25760412 -0.06202124 0.38444522 -0.048210472 0.048729204
0.040087346 -0.04698125 -0.1391617 0.07213868 -0.008124895 -0.07074957 0.06959024 -0.22162451
-0.030931462 -0.0877519 0.0032632411 0.053782504 0.13311844 0.06087803 -0.074360736 -0.11494991
0.18721119 0.094751015 0.12956478 -0.026371717 0.18598266 -0.02326964 -0.02107104 0.0051079635
0.08684796 0.09353785 -0.0868841 -0.008474222 0.03668522 0.093438685 0.060497258 0.13715245
-0.3683696 -0.11879196 0.14880292 -0.00091939606 0.01524497 0.17070436 0.19550046 0.033277955
0.045606885 -0.099574335 -0.090127066 -0.04105074 0.0045612846 0.047686066 0.024045054 -0.08308061
0.14743161 -0.24019678 0.14220275 -0.26793474 0.18111701 -0.12881806 -0.083341934 0.19378982
00000000: 6f78 23be ce34 073e a171 12be 87e7 e93d
00000010: 63c7 353e 2c13 443e ffc7 a7be c540 6f3e
00000020: d9d8 17be eb6a 983e 6af5 81bd 77aa fabd
00000030: f8c2 02be d7e7 373e f0c0 3c38 f584 b3bd
00000040: 1bbc 58be dc9b f9bd 7df6 d4bd 8c55 84be
00000050: b84e 863e 66bc b7bd fda3 823d 6bf1 b9bd
00000060: 0c2d 433d 87b3 35be 1aaf ddbd a217 d2bd
00000070: e532 d43d cd72 893e b5dc b13d ae05 2abe
00000080: 7b5a 48be a273 2ebe b1ed 15be 90dd f0bd
00000090: a9e0 5f3d bb60 5ebe 2137 94be 09bd ecbd
000000a0: 5b4c e13d 1882 c0bd 2bc0 7b3e ae6d dc3d
000000b0: b75e 10bd 5801 713d 59fd 23bd 7909 51be
000000c0: f1f3 b53d 7e94 95bd 8d36 ae3d 3d33 3dbe
000000d0: 3014 e03d e940 1b3e a17f 17be 673b 603d
000000e0: 73df 833d db85 18be 8901 5f3e d50a 4dbe
000000f0: 7184 79bc 40de 87bd a58b 40bd 5ad1 0cbe
00000100: 1e4e f43c 3635 573d 68ff d93d 89fc f63d
00000110: d64c 91bd 1da7 63be 4de9 35bd d6cf 01be
00000120: 0fb5 2cbe aef3 f93d cc8f ed3c 3a63 e0bc
00000130: 09d5 b53b 8703 373e f0c5 733d 26ec 7a3e
00000140: e40e a33d 0b12 a23c 04f4 353d 48d0 b8bd
00000150: cd4a 6bbe 349d 44be 86a4 18be 1f1b 2c3e
00000160: 3939 23be 02fb 6cb9 1855 e7bd 0cef c8bd
00000170: 3c2c 62be 6169 00bd 880f 2f3e 904c 33be
00000180: 96f0 9b3a 2613 cd3c 72eb 883d 4395 013d
00000190: 8bac a83d cdae c2bd a993 423c c43f cebd
000001a0: 7ff4 ec3d 6bdf aa3c fba1 aebd dbab 1cbe
000001b0: 1f71 433e 9f9c 3abe 6824 00be db41 c8bc
000001c0: 216e 143d c04f 893d 6dd6 143d 8b88 58bd
000001d0: 9325 23be df84 3ebd 12e6 ac3d 5c90 b8bd
000001e0: c7a4 b8bd 06b3 523e 6e95 8bbd 1474 e73d
000001f0: c696 86bb 3c46 1f3e 248d 3e3e f0c3 4fbe
00000200: abc3 93bc c774 38bd b7b6 d93e f798 56bd
00000210: 648b 5fbd 413f 75be 2965 773e b261 c0be
00000220: 742b 033d 2e36 e2be d6e8 5fbc e7b9 853c
00000230: 2949 3c3e 482f 88be 4121 bfbd eeda 203e
00000240: ae74 143e 337a de3c 160d f43d 2a3f bc3d
00000250: 95ad 42be 8676 7e3d 2a0e 13be 2118 813d
00000260: ca16 e5bc b33a 033e 06b0 693e 3c6e c13d
00000270: 374a e5bd f918 e7bd 9536 6bbd 8dac 553e
00000280: adce e33d 1e87 ce3d 65ba 773e 2a2b f03b
00000290: adf4 babd d010 c23c 541c bb3e be2f be3d
000002a0: 1d5a cfbd 13a1 d73d 6963 4abe 10f0 d5bc
000002b0: 74b0 a3bd 9e10 91bd 5358 10bc b873 703e
000002c0: 6e84 403d 62d7 903e b9d4 f7bd 9f06 fa3d
000002d0: 5d3c 8dbe 8b19 33be a08e 213e 0995 72bd
000002e0: d80c a03a c925 003e e42f 11bd 2fe4 103e
000002f0: 88a0 52bc 064d 9c3d 6b4d 823c 371c 813d
00000300: ed0b 8fbd 5850 d4bd 42a1 eebc b0e4 83be
00000310: fc09 7ebd 01d6 c43e 5878 45bd 4698 473d
00000320: a132 243d 696f 40bd 6880 0ebe 72bd 933d
00000330: 481e 05bc 27e5 90bd 5485 8e3d 89f1 62be
00000340: fa63 fdbc 45b7 b3bd 1adc 553b 0b4b 5c3d
00000350: 3350 083e 3e5b 793d 714a 98bd dc6a ebbd
00000360: 4ab4 3f3e d20c c23d a1ac 043e 8009 d8bc
00000370: 3d72 3e3e f99f bebc 2c9d acbc b460 a73b
00000380: 58dd b13d c690 bf3d 4bf0 b1bd 77d7 0abc
00000390: 3e43 163d c85c bf3d f9cb 773d b171 0c3e
000003a0: f19a bcbe 3349 f3bd cb5f 183e a003 71ba
000003b0: 0ac6 793c 20cd 2e3e 4631 483e 774e 083d
000003c0: 49ce 3a3d a1ed cbbd 8a94 b8bd d224 28bd
000003d0: d476 953b 7752 433d 22fa c43c 2b26 aabd
000003e0: 50f8 163e 25f6 75be 999d 113e be2e 89be
000003f0: bd76 393e e2e8 03be 2daf aabd d770 463e

fc.2.bias f4 [128]
-0.07204256 0.07233232 0.06932027 0.047148462 0.093193844 -0.037726536 -0.10065725 -0.019417709
-0.19603108 -0.14643551 0.10728002 -0.14173384 -0.07862056 0.020823397 0.033143964 -0.042583432
-0.07759 -0.12068124 -0.11023287 -0.06286862 -0.04336851 0.20714088 0.027140079 0.03401799
0.031136721 0.15718676 -0.11783549 -0.10832146 -0.1769461 0.19250521 -0.13576166 0.14886183
-0.027384346 -0.15166283 -0.09064624 0.13590808 0.13202082 -0.11904599 0.14516504 0.11069995
0.15284236 0.13648555 0.17558983 -0.15156522 0.13035382 -0.14825071 -0.17306535 0.13490625
0.108344115 0.17551379 0.11634398 0.124371186 0.15649122 -0.12851402 -0.12965138 -0.096576504
0.1336173 -0.05111475 -0.07036496 0.0560502 -0.03613164 -0.06079872 -0.05231867 -0.107344724
-0.15199175 0.039767586 0.16055307 0.06319469 0.049096353 0.06506993 0.14288045 0.046860497
-0.16712643 0.06187922 -0.04817229 -0.07847228 -0.14713813 -0.0052499124 -0.0582196 0.03595761
0.1493685 0.11713578 0.122447185 0.16999327 -0.13937746 0.0039430438 0.16570064 0.05591247
0.13179615 -0.14093125 0.0708361 -0.09135961 -0.11869966 0.15083973 -0.16781445 0.019174974
0.06542985 -0.077984504 -0.1512871 0.14481723 0.17619312 -0.035320144 -0.16143204 0.09256108
0.0566463 0.12764664 -0.15875478 0.15865643 0.09803104 0.08582188 -0.094968155 -0.03705619
-0.071142554 0.14548893 0.04438422 -0.09398866 0.10346772 0.10640561 -0.12352889 -0.055502374
-0.09665796 -0.16617732 -0.10048362 -0.13310869 -0.09626294 0.09222505 -0.01445616 -0.13541052
00000000: 0d8b 93bd f822 943d c9f7 8d3d bf1e 413d
00000010: 6adc be3d 2487 1abd 6325 cebd e311 9fbc
00000020: 5fbc 48be 31f3 15be a1b5 db3d ad22 11be
00000030: d103 a1bd d495 aa3c f7c1 073d f76b 2ebd
00000040: 82e7 9ebd ba27 f7bd c5c1 e1bd 43c1 80bd
00000050: 2ea3 31bd bd1c 543e df54 de3c 7356 0b3d
00000060: 7012 ff3c 91f5 203e bc53 f1bd a4d7 ddbd
00000070: 5c31 35be 1620 453e 1b05 0bbe 3c6f 183e
00000080: 2355 e0bc 804d 1bbe bca4 b9bd 7d2b 0b3e
00000090: 7730 073e 62ce f3bd 25a6 143e a8b6 e23d
000000a0: b582 1c3e dec2 0b3e d2cd 333e ea33 1bbe
000000b0: 797b 053e 09cf 17be 0b38 31be dd24 0a3e
000000c0: 85e3 dd3d e3b9 333e c145 ee3d 52b6 fe3d
000000d0: 3c3f 203e 2e99 03be 55c3 04be e7c9 c5bd
000000e0: f9d2 083e b35d 51bd 811b 90bd e594 653d
000000f0: c5fe 13bd 1408 79bd 1a4c 56bd 8dd7 dbbd
00000100: baa3 1bbe 56e3 223d 0668 243e 386c 813d
00000110: 4219 493d 6243 853d 414f 123e cbf0 3f3d
00000120: 3123 2bbe 1175 7d3d 4f50 45bd 13b6 a0bd
00000130: 61ab 16be 7507 acbb ad77 6ebd 4948 133d
00000140: 0ef4 183e e2e4 ef3d 97c5 fa3d b712 2e3e
00000150: f7b8 0ebe a634 813b 6ead 293e 7904 653d
00000160: 92f5 063e 4850 10be 8412 913d bf1a bbbd
00000170: cf18 f3bd bb75 1a3e 8dd7 2bbe d614 9d3c
00000180: 1600 863d 57b6 9fbd 01eb 1abe f84a 143e
00000190: f86b 343e dbab 10bd 714e 25be aa90 bd3d
000001a0: f305 683d cdb5 023e 9d90 22be d576 223e
000001b0: 7fc4 c83d 62c3 af3d aa7e c2bd 3bc8 17bd
000001c0: 30b3 91bd 0dfb 143e 3acc 353d 207d c0bd
000001d0: e2e6 d33d 2feb d93d b7fc fcbd 7556 63bd
000001e0: 9cf4 c5bd 632a 2abe 5bca cdbd a54d 08be
000001f0: 8125 c5bd 7de0 bc3d 88d9 6cbc 0ea9 0abe

fc.4.weight f4 [2, 128]
-0.59117085 0.5492657 0.5656262 0.58067626 0.6648941 -0.5199265 -0.44312614 -0.5508047
-0.6177486 -0.60040605 0.59202445 -0.5807332 -0.4934302 0.48965624 0.38716635 -0.58959347
-0.60782444 -0.60012656 -0.46261865 -0.6499584 -0.5413856 0.60015494 0.6304605 0.59976065
0.60296607 0.6071995 -0.68276554 -0.66268593 -0.5576857 0.5232962 -0.63148814 0.56829983
-0.60062665 -0.5972532 -0.55867654 0.5032091 0.5064642 -0.6320124 0.45350102 0.66762567
0.51565504 0.5695057 0.5914239 -0.6697809 0.63576937 -0.5853916 -0.5595178 0.5267885
0.49851325 0.55428874 0.4843789 0.5304441 0.7178286 -0.58559895 -0.6203312 -0.022781814
0.5954557 -0.59985757 -0.45633036 0.6564552 -0.60407954 -0.5988931 -0.61809415 -0.5972791
-0.6865729 0.670705 0.55631524 0.5106378 0.6259828 0.58915836 0.57729095 0.6064978
-0.62885696 0.6480337 -0.58936644 -0.53709507 -0.5397565 -0.5718978 -0.5703365 0.52948
0.5824463 0.4593073 0.6181027 0.59096295 -0.6491979 -0.6016471 0.6270387 0.48203054
0.57893145 -0.6079654 0.59152716 -0.4944803 -0.54992014 0.604206 -0.5394537 0.51805025
0.6247397 -0.54376477 -0.5433329 0.6206862 0.52336115 -0.59959143 -0.56436574 0.4841317
0.5726745 0.5987355 -0.63823915 0.6859157 0.5679606 0.59899944 -0.6263625 -0.5762796
-0.44620416 0.5975094 0.59937865 -0.61883825 0.6077056 0.573448 -0.6069222 -0.6036052
-0.5413328 -0.5613344 -0.48832628 -0.57858914 -0.570068 0.5570577 -0.6386232 -0.6086688
-0.4876151 0.6839779 0.7069664 0.54368377 0.6312369 -0.61126816 -0.6683747 -0.659096
-0.43843856 -0.5958352 0.5858712 -0.47622997 -0.5393672 0.6898065 0.66044444 -0.5043276
-0.44826218 -0.60183513 -0.63974404 -0.5550179 -0.6118227 0.5107979 0.61156434 0.5885299
0.49108693 0.6130189 -0.44106808 -0.6100052 -0.4926029 0.5928207 -0.61557406 0.5615427
-0.5984598 -0.48330355 -0.49247274 0.67297345 0.60501224 -0.62699735 0.63307905 0.5705444
0.57620484 0.6676505 0.64060855 -0.52144665 0.5362911 -0.58923626 -0.6234016 0.50582963
0.57827175 0.55737704 0.6476813 0.52752453 0.18450001 -0.53598124 -0.6013674 -0.6975624
0.67863256 -0.5820749 -0.6046659 0.58960116 -0.5695431 -0.6463791 -0.6316575 -0.5747769
-0.5457899 0.32015285 0.567758 0.64114255 0.563268 0.6279658 0.5653825 0.5359368
-0.5835679 0.5001938 -0.5973103 -0.5616801 -0.45995867 -0.5266634 -0.61165637 0.5939466
0.5796536 0.58643836 0.5467055 0.4451085 -0.5167928 -0.70246536 0.515212 0.71915096
0.5774274 -0.49299183 0.5969603 -0.6766039 -0.5397786 0.50128704 -0.47945303 0.60336214
0.5955936 -0.64725953 -0.52763873 0.6129853 0.5445215 -0.58706796 -0.46017915 0.7122181
0.69573367 0.5792585 -0.553226 0.4491814 0.50879 0.60287756 -0.4474595 -0.58320993
-0.62428397 0.50729144 0.51918507 -0.63005716 0.5414106 0.49382013 -0.6168588 -0.6450767
-0.6695553 -0.59562075 -0.6123066 -0.57180095 -0.52464664 0.53542787 -0.6540563 -0.56633466
00000000: f956 17bf ad9c 0c3f e1cc 103f 33a7 143f
00000010: 8036 2a3f e719 05bf 6ee1 e2be 8901 0dbf
00000020: c624 1ebf 36b4 19bf ea8e 173f eeaa 14bf
00000030: e2a2 fcbe 39b4 fa3e ab3a c63e 99ef 16bf
00000040: 629a 1bbf e5a1 19bf 5adc ecbe ac63 26bf
00000050: 3f98 0abf c1a3 193f dc65 213f ea89 193f
00000060: fc5b 1a3f 6d71 1b3f b9c9 2ebf c9a5 29bf
00000070: 7dc4 0ebf bdf6 053f 35a9 21bf 197c 113f
00000080: abc2 19bf 96e5 18bf 6d05 0fbf 50d2 003f
00000090: a3a7 013f 91cb 21bf 4931 e83e 84e9 2a3f
000000a0: f801 043f 20cb 113f 8f67 173f c376 2bbf
000000b0: c8c1 223f 39dc 15bf 8f3c 0fbf 9cdb 063f
000000c0: 213d ff3e dee5 0d3f 8300 f83e 2fcb 073f
000000d0: 9dc3 373f d0e9 15bf 07ce 1ebf eda0 babc
000000e0: c96f 183f 4490 19bf 22a4 e9be 730d 283f
000000f0: f5a4 1abf 0f51 19bf 6b3b 1ebf 48e7 18bf
00000100: 3ec3 2fbf 53b3 2b3f ad6a 0e3f 29b9 023f
00000110: 6940 203f 15d3 163f 57c9 133f 7143 1b3f
00000120: c5fc 20bf 89e5 253f b8e0 16bf 107f 09bf
00000130: 7b2d 0abf e567 12bf 9301 12bf 008c 073f
00000140: 331b 153f 542a eb3e fb3b 1e3f 5949 173f
00000150: d531 26bf 8b05 1abf 9c85 203f b5cc f63e
00000160: da34 143f 9fa3 1bbf 536e 173f 862c fdbe
00000170: 91c7 0cbf 3fad 1a3f a319 0abf f19e 043f
00000180: f1ee 1f3f 2b34 0bbf dd17 0bbf 4ae5 1e3f
00000190: fffa 053f d37e 19bf 467a 10bf 1ce0 f73e
000001a0: cc9a 123f bb46 193f a463 23bf 2c98 2f3f
000001b0: de65 113f 0758 193f 4b59 20bf 0f87 13bf
000001c0: df74 e4be 60f6 183f e170 193f 2f6c 1ebf
000001d0: 9892 1b3f 7dcd 123f 415f 1bbf df85 1abf
000001e0: c994 0abf 9cb3 0fbf e705 fabe 6b1e 14bf
000001f0: faef 11bf 559b 0e3f cf7c 23bf b8d1 1bbf
00000200: b0a8 f9be 2d19 2f3f c0fb 343f dc2e 0b3f
00000210: be98 213f 127c 1cbf 9b1a 2bbf 84ba 28bf
00000220: 057b e0be a888 18bf a8fb 153f 6ad4 f3be
00000230: f813 0abf 2997 303f e312 293f 9d1b 01bf
00000240: 9f82 e5be de11 1abf 44c6 23bf a715 0ebf
00000250: 6aa0 1cbf a7c3 023f 7b8f 1c3f e5a9 163f
00000260: bf6f fb3e ceee 1c3f add3 e1be 4d29 1cbf
00000270: 7336 fcbe 19c3 173f 4396 1dbf 43c1 0f3f
00000280: a934 19bf 9073 f7be 6325 fcbe fd47 2c3f
00000290: 15e2 1a3f e682 20bf 7811 223f 330f 123f
000002a0: 2982 133f 25eb 2a3f ecfe 233f 877d 05bf
000002b0: 604a 093f 30d8 16bf 3f97 1fbf 0d7e 013f
000002c0: 9e09 143f 43b0 0e3f 71ce 253f d90b 073f
000002d0: 92ed 3c3e 1136 09bf 37f3 19bf 7393 32bf
000002e0: ddba 2d3f dc02 15bf 62cb 1abf 1af0 163f
000002f0: 94cd 11bf 1a79 25bf 4eb4 21bf 9424 13bf
00000300: e3b8 0bbf 13eb a33e 9758 113f eb21 243f
00000310: 5532 103f 5ec2 203f e8bc 103f 2733 093f
00000320: b564 15bf b30c 003f 54e9 18bf 44ca 0fbf
00000330: b47f ebbe 6ad3 06bf 8395 1cbf e20c 183f
00000340: 2e64 143f d320 163f e4f4 0b3f 43e5 e33e
00000350: 884c 04bf c5d4 33bf efe4 033f 471a 383f
00000360: 48d2 133f 6d69 fcbe 64d2 183f ea35 2dbf
00000370: ee2e 0abf 5954 003f de7a f5be f175 1a3f
00000380: d278 183f cdb2 25bf 5513 07bf 9bec 1c3f
00000390: c365 0b3f 164a 16bf 9a9c ebbe ed53 363f
000003a0: 9a1b 323f 494a 143f 38a0 0dbf 1bfb e53e
000003b0: 1040 023f 2f56 1a3f 6919 e5be 3f4d 15bf
000003c0: 13d1 1fbf dadd 013f 50e9 043f 6d4b 21bf
000003d0: e399 0a3f fed5 fc3e 75ea 1dbf bf23 25bf
000003e0: fa67 2bbf 9a7a 18bf 20c0 1cbf 8c61 12bf
000003f0: 3e4f 06bf cd11 093f 3c70 27bf 4ffb 10bf

fc.4.bias f4 [2]
0.4441304 0.487038
00000000: 0f65 e33e 0b5d f93e
