1.DQN/ckpt/CartPole-v1_DDQN_episode_343_reward_478.pth (torch, 72712 bytes, 6 tensors)

fc.0.weight f4 [128, 4]
0	0xbe24342a	-0.16035524
1	0x3de730de	0.112886176
2	0xbee3d182	-0.4449578
3	0x3eaf158b	0.34196123
4	0x3e254330	0.16138911
5	0xbebf4664	-0.3735839
6	0xbf706512	-0.9390422
7	0xbf0241ea	-0.50881827
8	0x3e313ce6	0.17308387
9	0x3ec30003	0.38085946
10	0x3d5296d3	0.05141337
11	0xbe959ea5	-0.292226
12	0x3cd24e75	0.025672177
13	0xbed7b6b0	-0.42131567
14	0xbf4f9996	-0.8109373
15	0xbeb276ca	-0.34856254
16	0xbe8b12fc	-0.2716292
17	0xbee33e44	-0.44383442
18	0xbf39e446	-0.7261394
19	0x3ea0ddc3	0.3141919
20	0xbe8a4412	-0.2700506
21	0x3f047ac4	0.51749825
22	0x3f869b1b	1.0516084
23	0x3eb0fa3e	0.3456592
24	0x3f158d19	0.5841842
25	0xbe7b5e57	-0.24547707
26	0xbf46256c	-0.7740085
27	0x3d3db14d	0.046311665
28	0xbed366a0	-0.41289234
29	0x3e8dd3d2	0.2770067
30	0x3e9f2905	0.31085983
31	0x3e2e8cdc	0.17045921
32	0x3ef756ae	0.4830832
33	0x3f11f07b	0.5700757
34	0x3e88f808	0.26751733
35	0x3d6c7087	0.057724502
36	0x3ec1a4c9	0.37821034
37	0x3e614c6e	0.22001812
38	0x3dbdc5f6	0.09266274
39	0xbdd81fa9	-0.10552914
40	0x3ead5ea8	0.3386128
41	0xbe94025b	-0.28908047
42	0x3e6d91ef	0.232002
43	0x3e12239b	0.14271395
44	0xbf2e13aa	-0.67998755
45	0x3e1585b9	0.14601792
46	0x3e337243	0.17524056
47	0x3e28097c	0.16409868
48	0x3e73f647	0.23824416
49	0x3e788159	0.24268092
50	0x3e1bee8a	0.15227714
51	0xbeb1c52b	-0.3472074
52	0x3f1cceb1	0.61252886
53	0xbda42809	-0.080154486
54	0xbedbe9b7	-0.42951748
55	0x3bd4e53d	0.006497054
56	0xbec665c6	-0.38749522
57	0x3e6bfbb8	0.23045242
58	0xbfc8a99d	-1.5676762
59	0xbebf485e	-0.373599
60	0x3eb09e88	0.3449595
61	0x3eb6b7e2	0.35687166
62	0x3df80aa1	0.12111402
63	0x3ea361bb	0.319105
64	0xbf0f8f86	-0.56078374
65	0x3e721c41	0.2364359
66	0x3b81541e	0.003946795
67	0xbd31e9b3	-0.043435764
68	0x3e8014c3	0.2501584
69	0xbed62878	-0.4182775
70	0x3edf64a4	0.4363147
71	0xbe56df80	-0.20983696
72	0x3ea66702	0.32500464
73	0x3de8250d	0.11335192
74	0xbe5110cd	-0.20416565
75	0xbe758498	-0.23976362
76	0xb954c821	-0.0002029245
77	0x3ef33c15	0.47506776
78	0x3da2a505	0.07941631
79	0xbea3a63b	-0.3196276
80	0x3e79c019	0.24389686
81	0x3ee65caa	0.44992572
82	0x3e57c7dc	0.21072334
83	0x3d51d611	0.05122954
84	0xbeaf94f1	-0.3429332
85	0x3e4f8347	0.20264922
86	0x3f4086f8	0.75205946
87	0x3e230232	0.15918806
88	0x3eb85800	0.3600464
89	0x3f03f476	0.5154489
90	0x3fa0f075	1.2573382
91	0x3ebefa2d	0.37300244
92	0x3ef714e4	0.48258126
93	0xbe10b3b6	-0.14131054
94	0xbda83fbe	-0.08215283
95	0x3e7067e1	0.23477127
96	0xbdca3531	-0.09873427
97	0x3d89725c	0.067112654
98	0x3c8e4232	0.017365549
99	0xbebef84d	-0.37298813
100	0xbe22e817	-0.15908848
101	0x3e8c47ed	0.27398625
102	0x3f970f06	1.180146
103	0x3ec9eeb4	0.3943993
104	0xbd6ff205	-0.058580417
105	0xbf07022f	-0.52737707
106	0xbe8a351d	-0.26993647
107	0xbb990bb9	-0.004670587
108	0x3f39ffb0	0.72655773
109	0xbe8eaac6	-0.27864665
110	0xbd5c68ae	-0.053810768
111	0xbeb9cf4b	-0.36290964
112	0x3f13f6f2	0.57798684
113	0xbe41d0f1	-0.18927361
114	0xbe9aa8fc	-0.3020705
115	0x3e8064f0	0.2507701
116	0xbed2272b	-0.41045508
117	0xbefa77cc	-0.48919523
118	0xbf5d3353	-0.8640644
119	0xbec23f33	-0.37938842
120	0x3dff787e	0.12474154
121	0x3dcad670	0.09904182
122	0x3eab4eb7	0.33458492
123	0xbeb59a1f	-0.35469148
124	0xbe56dbea	-0.20982328
125	0xbdc2440e	-0.09485637
126	0xbf28c41a	-0.6592423
127	0xbe53c129	-0.20679154
128	0x3f1252bd	0.571575
129	0xbeef4cf0	-0.46738386
130	0xbf930a77	-1.1487569
131	0xbedba364	-0.42898095
132	0x3e865ddd	0.26243487
133	0x3b8d2e5c	0.004308505
134	0xbe79854d	-0.24367256
135	0xbefca463	-0.49344167
136	0x3f18d14f	0.5969438
137	0xbd4e4bf9	-0.050365422
138	0x3e8d3b72	0.27584416
139	0xbeb0d025	-0.34533802
140	0xbf1464db	-0.57966393
141	0xbe164d35	-0.1467789
142	0xbe264646	-0.16237745
143	0xbdb62ac1	-0.088948734
144	0x3e92d986	0.28681582
145	0x3e624bda	0.22099248
146	0x3f27b6e6	0.65513456
147	0x3e6d9438	0.23201072
148	0xbe88ebb9	-0.26742342
149	0xbf14815e	-0.580099
150	0xbf99214d	-1.1963288
151	0xbdac063c	-0.083996266
152	0xbf0d3b61	-0.5516873
153	0x3edab6f0	0.42717695
154	0x3fb5a26e	1.4190195
155	0xbd5885ec	-0.052862093
156	0xbf0bad2b	-0.5456111
157	0x3dc4b187	0.09604173
158	0xbee04d87	-0.4380915
159	0x3e352643	0.17690377
160	0xbea4e76d	-0.32207814
161	0xbc17c31c	-0.009262826
162	0xbf15e1bb	-0.5854756
163	0xbec531f4	-0.38514674
164	0xbedb2263	-0.42799672
165	0xbeb9f0e8	-0.3631661
166	0xbf2e6240	-0.6811867
167	0x3e076712	0.13222912
168	0xbd9a787e	-0.07542513
169	0x3d184b42	0.037181146
170	0xbf0d4a84	-0.55191827
171	0xbe767fef	-0.2407224
172	0xbb819a2e	-0.003955147
173	0x3ca4bef6	0.020110589
174	0xbf21a25e	-0.6313838
175	0xbe1c649a	-0.15272751
176	0x3e42437d	0.18971057
177	0x3ef09078	0.4698522
178	0x3dadfd68	0.08495599
179	0xbeac04e1	-0.33597472
180	0x3dba9219	0.09109897
181	0xbede2333	-0.4338623
182	0x3e74c98f	0.23905014
183	0xbf043d2a	-0.5165583
184	0xbec3fbc3	-0.38278016
185	0x3eeeb1d8	0.4662006
186	0xbb874428	-0.004127998
187	0x3e1b0772	0.15139559
188	0xbf1f1713	-0.62144583
189	0x3e20bb6e	0.15696499
190	0x3efa22a3	0.4885455
191	0x3d497ab4	0.049189284
192	0xbc1d3af9	-0.00959658
193	0x3dfb45d0	0.12269175
194	0x3d670a29	0.056406174
195	0xbed5731f	-0.41689393
196	0xbf00a674	-0.5025399
197	0x3f0b2de4	0.543669
198	0x3f6a3367	0.91484684
199	0x3e285a77	0.1644076
200	0xbdd17b27	-0.102285676
201	0x3dd80d51	0.10549415
202	0x3c4e2818	0.012582801
203	0x3e1d6329	0.15369858
204	0x3e3c4889	0.18387045
205	0x3bd35d9b	0.0064503676
206	0xbd4e76cd	-0.050406266
207	0xbed2dafb	-0.41182694
208	0x3ec33f11	0.38134053
209	0x3f1448c2	0.5792352
210	0x3e713ad6	0.235576
211	0x3eec9730	0.46209097
212	0x3e859e58	0.2609737
213	0x3e3665d7	0.17812286
214	0x3f3b1666	0.7308105
215	0xbe0ae575	-0.13564093
216	0xbeb5365d	-0.35393038
217	0x3d507814	0.050895765
218	0x3f35867f	0.7090835
219	0x3d88e51d	0.06684325
220	0xbc12991c	-0.008947637
221	0x3e9d740d	0.30752602
222	0x3f67ef99	0.9059997
223	0x3f029171	0.51003176
224	0x3c55fcc8	0.013060756
225	0x3e72d54c	0.23714179
226	0x3f6fdecd	0.9369934
227	0x3ef3b5a6	0.47599524
228	0xbeb408aa	-0.3516286
229	0xbd846974	-0.06465426
230	0x3f172853	0.59045905
231	0xbe2e396b	-0.1701409
232	0xbe590e02	-0.2119675
233	0xbd66993b	-0.056298476
234	0x3f0707f7	0.5274653
235	0xbe9798be	-0.2960872
236	0xbed419e7	-0.41426012
237	0x3cd333d5	0.025781551
238	0x3eb25eeb	0.34838042
239	0xbd82cf8a	-0.06387241
240	0xbe52872e	-0.2055938
241	0xbe0810f7	-0.13287722
242	0x3e7eaf37	0.24871527
243	0x3ea61bd6	0.32443112
244	0xbd68763e	-0.05675339
245	0xbec4dd85	-0.38450256
246	0xbf2b8eaf	-0.6701459
247	0xbf0898d0	-0.53358173
248	0x3e36c25e	0.17847583
249	0x3ee1f54a	0.44132453
250	0xbe4559a7	-0.19272481
251	0x3e87fef5	0.26561704
252	0x3d0f583d	0.03499626
253	0x3ede3e6b	0.43406996
254	0x3f0216d3	0.50816077
255	0x3e3b97e2	0.18319657

fc.0.bias f4 [128]
0	0xbea4d2b0	-0.32191992
1	0x3f0653a3	0.5247137
2	0x3f047b0e	0.51750267
3	0xbf08a2d8	-0.5337348
4	0xbe40e807	-0.18838511
5	0xbeb13686	-0.3461191
6	0xbec51518	-0.38492656
7	0xbea5bb65	-0.32369533
8	0x3f38974c	0.7210586
9	0xbe831442	-0.25601393
10	0x3ee7a834	0.45245516
11	0x3f0e2a35	0.5553315
12	0x3f01ba93	0.50675315
13	0xbdf223e2	-0.1182325
14	0xbd5fd8ba	-0.054650046
15	0xbf3b9065	-0.73267204
16	0x3e3c2f2b	0.18377368
17	0x3e8549f8	0.26032996
18	0x3f076524	0.52888703
19	0x3f228c2a	0.63495123
20	0x3f2ae91b	0.6676194
21	0xbf0095b5	-0.50228435
22	0x3f1f720d	0.622834
23	0xbdb0efcb	-0.08639487
24	0xbe912d50	-0.28354883
25	0xbc47ae44	-0.012187544
26	0xbf1f99f7	-0.62344307
27	0xbf0217c8	-0.5081754
28	0xbf0d0bef	-0.55096334
29	0xbefb7408	-0.49111962
30	0x3d49f49b	0.04930554
31	0xbeccdb99	-0.4001129
32	0xbea26b0d	-0.31722298
33	0xbf0834a6	-0.53205335
34	0xbeec3616	-0.46135014
35	0x3f0b7f6e	0.5449132
36	0x3f0b3779	0.5438152
37	0xbf13fbc1	-0.5780602
38	0x3ec43f51	0.38329557
39	0x3ed86fa7	0.42272684
40	0x3f280279	0.6562877
41	0xbf374f3e	-0.7160529
42	0x3e9a76b8	0.301687
43	0xbec5652b	-0.38553748
44	0x3f00bfae	0.5029248
45	0xbf0cb1a7	-0.54958576
46	0x3e93d4f8	0.2887342
47	0x3f028544	0.509846
48	0xbed478a2	-0.41498286
49	0x3e7a7f2a	0.24462572
50	0x3e8617ef	0.26190135
51	0xbec9436a	-0.39309245
52	0x3eeef049	0.46667698
53	0x3ec14c5b	0.37753567
54	0xbe55ff2a	-0.20898119
55	0xbf076a7b	-0.5289685
56	0xbef8d944	-0.4860326
57	0xbe95f9df	-0.292922
58	0x3e71e613	0.23622923
59	0x3e9005ae	0.28129333
60	0xbe9b4be3	-0.30331334
61	0xbf265949	-0.6497999
62	0xbf19fe3d	-0.6015356
63	0x3f08aa96	0.53385293
64	0x3e8daad1	0.27669385
65	0xbee8f3ca	-0.45498496
66	0x3e4cf6f1	0.20016076
67	0x3e7b3ccb	0.2453491
68	0xbf131d54	-0.57466626
69	0xbed73f2e	-0.4204039
70	0xbefe83e3	-0.49709997
71	0xbe3da33f	-0.18519305
72	0xbefca91b	-0.49347767
73	0x3ec3fbef	0.38278148
74	0xbe159dd7	-0.14610992
75	0xbdad82e7	-0.08472233
76	0x3f141afc	0.57853675
77	0x3eb824a8	0.35965466
78	0xbcb3ee9a	-0.02196436
79	0xbf0c3ca4	-0.5478003
80	0xbe3a2e75	-0.18181784
81	0xbea94908	-0.3306353
82	0xbf11cb53	-0.56950873
83	0x3edb8ba2	0.4287997
84	0x3ee8f5c7	0.45500013
85	0xbe8d0573	-0.2754322
86	0xbf06c6fa	-0.52647364
87	0xbf0a5175	-0.54030544
88	0xbdaae2f9	-0.08344073
89	0x3f2b1e3c	0.6684301
90	0xbf119286	-0.568642
91	0x3f036a1e	0.51333797
92	0x3ef9b8dd	0.48773852
93	0xbea61e23	-0.32444867
94	0x3efeb0e1	0.49744323
95	0xbf0dbb5d	-0.5536402
96	0x3f0dd1e6	0.55398405
97	0xbec5a005	-0.38598648
98	0x3ef63a85	0.48091522
99	0xbf09fc3f	-0.5390052
100	0xbf1a8c1c	-0.6037004
101	0x3f12946a	0.5725771
102	0xbf001c7e	-0.50043476
103	0x3e8b3cb3	0.27194747
104	0x3e5d4b6a	0.216108
105	0x3ecae18b	0.396252
106	0x3f125213	0.57156485
107	0xbe93efd0	-0.288939
108	0x3f0289f5	0.50991756
109	0x3dc09544	0.0940347
110	0xbeea89d4	-0.4580828
111	0x3ed88f58	0.42296863
112	0x3f27d0e2	0.65553105
113	0x3f1b9b92	0.60784256
114	0x3dba822a	0.09106858
115	0xbf1c2d61	-0.6100674
116	0x3edce23d	0.43141356
117	0xbecd7329	-0.40126923
118	0xbf128f61	-0.5725003
119	0xbe482f06	-0.19549188
120	0xbdd4e2b6	-0.10394804
121	0x3e1ceb45	0.15324123
122	0xbdc8650a	-0.09784897
123	0x3c3140eb	0.0108187
124	0x3ed620af	0.4182181
125	0xbe9e2e56	-0.30894727
126	0x3f0293f1	0.5100699
127	0xbe320e1c	-0.17388195

fc.2.weight f4 [128, 128]
0	0xbcf97457	-0.030450983
1	0xbf03d4b2	-0.5149642
2	0xbdc858cb	-0.09782561
3	0x3e00f0fa	0.12591925
4	0xbd01a798	-0.03165397
5	0x3f27e484	0.6558306
6	0xbd00dba6	-0.031459473
7	0x3dad1fc3	0.08453324
8	0xbd1c66d9	-0.03818402
9	0x3d9084b9	0.07056565
10	0xbd514c1a	-0.051097967
11	0xbd93a630	-0.07209432
12	0xbd71ff1f	-0.059081193
13	0x3e2bdeaf	0.16784166
14	0xbe34c536	-0.17653355
15	0x3e6b1b7d	0.22959705
16	0xbd8b236c	-0.067938656
17	0xbd879850	-0.06620848
18	0xbd169198	-0.036759943
19	0xbd1bea35	-0.038065154
20	0xbdb30063	-0.08740308
21	0x3de8c8fd	0.113664605
22	0x3b610829	0.003433714
23	0x3dae30b6	0.085053846
24	0x3d905b5b	0.07048675
25	0x3e97e4a0	0.29666615
26	0x3d9a92b8	0.07547516
27	0x3d62e96e	0.055398397
28	0xbc802a6c	-0.015645228
29	0x3d51ae74	0.051191762
30	0xbc7e4f5a	-0.015521849
31	0x3e09b444	0.13447672
32	0xbe9c6cac	-0.3055166
33	0x3e1d3a45	0.1535426
34	0x3e648c55	0.22319157
35	0xbd64a6f9	-0.0558233
36	0xbd089504	-0.033345237
37	0x3d217fde	0.039428584
38	0x3e10e52f	0.14149927
39	0xbe937e67	-0.28807375
40	0xbea7c904	-0.3277055
41	0x3d9cb44c	0.076515764
42	0xbdefa6c9	-0.117017336
43	0x3dd072d0	0.10178149
44	0x3d93930c	0.07205781
45	0x3db98f25	0.09060506
46	0x3d1fdbe9	0.039028082
47	0xbdbf9279	-0.09354109
48	0x3ded01d2	0.11572613
49	0x3e340cc6	0.17582998
50	0xbe027b64	-0.12742382
51	0x3e41eb26	0.18937358
52	0x3bec5aa8	0.0072129555
53	0x3b609925	0.0034270969
54	0x3c9dc0a1	0.019256892
55	0x3f22765e	0.63461864
56	0x3f26c866	0.65149534
57	0x3d46ee51	0.04856712
58	0xbd7d0567	-0.06177273
59	0xbe3ce3ea	-0.18446317
60	0x3d5d4a25	0.054025788
61	0x3d10e3da	0.035373546
62	0x3dd10e48	0.10207802
63	0xbd90a1de	-0.07062124
64	0xbdbb633b	-0.09149786
65	0x3b349433	0.0027554154
66	0xbda8980c	-0.08232126
67	0xbe5fc102	-0.2185097
68	0x3d828854	0.06373659
69	0xbbbfc344	-0.005852135
70	0xbe3b4810	-0.18289208
71	0x3e8d08d7	0.27545807
72	0xbcbd3f21	-0.023101391
73	0xbe79273d	-0.24331374
74	0xbbaa2b21	-0.0051931296
75	0x3e6ed541	0.23323537
76	0xbcc1f8cf	-0.023678211
77	0xbe2062d6	-0.15662703
78	0x3e7edb06	0.24888238
79	0x3dc66bb9	0.09688515
80	0x3e004ce6	0.12529334
81	0x3e0a5d19	0.13512076
82	0x3e312d77	0.173025
83	0xbd1909a3	-0.037362706
84	0xbe4d4c39	-0.20048608
85	0xbd7652d5	-0.06013759
86	0xbd977e5e	-0.073971495
87	0x3d142afe	0.036173813
88	0xbaf1ba98	-0.001844245
89	0xbdc62828	-0.09675628
90	0x3d1bd4f8	0.0380449
91	0xbdf9d668	-0.12199098
92	0xbd1dd9eb	-0.0385379
93	0x3e2269ac	0.15860623
94	0xbd1a43e4	-0.0376624
95	0x3d5e1df3	0.05422778
96	0xbde7ef87	-0.11324983
97	0x3c0291b4	0.007969309
98	0x3dcf0c25	0.10109738
99	0x3e5f0474	0.21779042
100	0x3e06a47b	0.13148682
101	0xbe29d2e8	-0.1658436
102	0x3d20b9de	0.039239757
103	0xbcdf7f78	-0.027282462
104	0xbd8f232f	-0.069891326
105	0xbd83b2fd	-0.06430624
106	0xbd217d09	-0.039425883
107	0x3e89c160	0.26905346
108	0xbd996eab	-0.07491811
109	0x3dd837a4	0.105574876
110	0x3cf73a43	0.030179149
111	0xbf1da69b	-0.61582345
112	0xbdc17b68	-0.09447366
113	0x3cea9a3a	0.028637994
114	0x3dc2408b	0.09484967
115	0x3cc1db77	0.02366422
116	0xbe30c77e	-0.172636
117	0x3d8f7d57	0.070063286
118	0x3d8ae3de	0.067817435
119	0xbd3da65b	-0.046301227
120	0x3e21533c	0.15754408
121	0xbcb01514	-0.021494426
122	0x3cd6862b	0.026187023
123	0xbe3651e8	-0.17804682
124	0xbdd8941c	-0.105751246
125	0xbbccceb6	-0.006250228
126	0xbd98b5dd	-0.07456563
127	0x3d3bc5fe	0.045843117
128	0x3bbcbed2	0.0057600522
129	0x3ef873a4	0.48525727
130	0xbd69c802	-0.057075508
131	0xbd462b59	-0.048381183
132	0x3c800e8d	0.015631938
133	0xbf0b236c	-0.54350924
134	0xbd3c103e	-0.045913927
135	0xbd3a86e5	-0.0455388
136	0x3d141a84	0.0361581
137	0xbd0e30f0	-0.03471464
138	0x3e1cac42	0.15300086
139	0x3e4edf1e	0.202023
140	0xbd621e86	-0.05520489
141	0x3caa06e1	0.020755233
142	0x3eb82a72	0.35969883
143	0xbe5a97ec	-0.21347016
144	0x3e1eb9ca	0.1550056
145	0xbc3f1743	-0.011663261
146	0xbd463284	-0.04838802
147	0xbcbf0851	-0.023319395
148	0x3bad0935	0.0052806386
149	0xbe44c143	-0.19214348
150	0x3d927c22	0.07152583
151	0xbe205271	-0.15656449
152	0x38c26b0a	9.2705784e-05
153	0xbea6a71c	-0.3254937
154	0xbd1ceda5	-0.038312573
155	0xbd8f2d4a	-0.0699106
156	0xbd62b5a1	-0.055348996
157	0xbd9c00fd	-0.07617376
158	0xbdad718a	-0.084689215
159	0x3a7fff6d	0.00097655394
160	0x3ebea831	0.37237695
161	0xbe12c249	-0.14331926
162	0xbe86d33c	-0.26333034
163	0x3db64fcf	0.08901941
164	0xbcdc31d0	-0.026879221
165	0xbdac0f10	-0.084013104
166	0xbdb4571c	-0.08805677
167	0x3ea59bfe	0.32345575
168	0x3e9e6d2f	0.30942675
169	0x3c171a06	0.009222513
170	0x3e66f3b5	0.22553904
171	0xbdbe210a	-0.092836455
172	0xbd98f629	-0.07468826
173	0x3d053d40	0.032529116
174	0xbd3de1e3	-0.046358
175	0x3db604d0	0.08887637
176	0xbdf959e7	-0.12175351
177	0xbd9a9ed0	-0.07549822
178	0x3c019d74	0.007911075
179	0xbd92754c	-0.07151279
180	0x3d49f340	0.049304247
181	0x3d944ee0	0.07241607
182	0xbd23c8f5	-0.03998657
183	0xbf2661ba	-0.6499287
184	0xbf240119	-0.64064175
185	0xbd852946	-0.06502013
186	0x3c982920	0.018574297
187	0x3e0d8939	0.13821878
188	0x3cf40b2c	0.029790483
189	0xbdf73d0f	-0.12072193
190	0xbe81e0a0	-0.25366688
191	0x3d9868a6	0.07441835
192	0x3cc799ba	0.024365295
193	0x3d87670c	0.066114515
194	0x3eb0af68	0.34508824
195	0x3da613b0	0.08109224
196	0x3d703c4e	0.05865126
197	0xba61a8c7	-0.00086082186
198	0x3defafe6	0.11703472
199	0xbeaecb0c	-0.34139287
200	0x3d13ba4b	0.036066335
201	0x3e93a98f	0.288403
202	0x3d14bde5	0.03631391
203	0xbec1ca8b	-0.3784984
204	0x3c136ce9	0.008998134
205	0x3c4308e6	0.011903977
206	0xbe87c0a9	-0.26514176
207	0xbdcd5406	-0.10025792
208	0xbdb337e8	-0.08750898
209	0xbdc50ca4	-0.09621552
210	0x3c814c53	0.015783465
211	0x3cf207a8	0.029544666
212	0x3e3798f7	0.17929445
213	0x3daf1700	0.08549309
214	0x3da27fb2	0.07934512
215	0xbe20b6f9	-0.15694799
216	0xbb92c722	-0.004479305
217	0x3e02d9f8	0.12778461
218	0xbcdbfb23	-0.02685315
219	0x3e4c670c	0.19961184
220	0x3e04ccc6	0.1296874
221	0xbcf374ca	-0.029718775
222	0x3d86620c	0.0656167
223	0xbde793a8	-0.1130746
224	0x3e67dd51	0.2264302
225	0xbd023706	-0.031790756
226	0xbdbd5fe5	-0.09246806
227	0xbd82ff88	-0.06396395
228	0xbe2551fd	-0.16144557
229	0x3d5eb0ed	0.05436795
230	0xbd67cd47	-0.056592252
231	0x3debb52a	0.11509164
232	0xbd30f7d8	-0.043205112
233	0x3e0301c4	0.12793642
234	0x3c4e870a	0.012605438
235	0xbe3e5ae3	-0.18589358
236	0x3debc533	0.11512222
237	0xbe68de20	-0.22740984
238	0xbd937e56	-0.07201831
239	0x3f27e33f	0.65581125
240	0x3d7d986f	0.06191295
241	0x3db6b333	0.08920898
242	0xbb4f8c05	-0.0031669152
243	0x3d2d5ae5	0.042323012
244	0x3c67439a	0.014115239
245	0x3d2957e7	0.041343596
246	0x3c4f7319	0.012661719
247	0xbdd0a01c	-0.101867884
248	0xbd8c5be5	-0.06853465
249	0xbd43fe04	-0.04784967
250	0xbdece510	-0.11567128
251	0x3e9ee4a7	0.31033823
252	0x3ded34ef	0.11582362
253	0xbc995b80	-0.018720388
254	0x3dbefbac	0.09325346
255	0xbd142969	-0.036172304

fc.2.bias f4 [128]
0	0xbc24b9e8	-0.010054089
1	0x3db7fc5b	0.0898368
2	0xbe1a0c1d	-0.15043683
3	0x3e45bb0c	0.19309634
4	0x3e8055a6	0.25065345
5	0x3d8565f5	0.065135874
6	0xbe74f662	-0.23922113
7	0xbe79a761	-0.24380256
8	0xbdb5c3d5	-0.088752426
9	0x3ea492a0	0.32143116
10	0x3d92f80b	0.07176217
11	0x3e6c67d9	0.2308649
12	0xbe356087	-0.17712604
13	0x3e1e3dde	0.15453288
14	0xbe021142	-0.12701896
15	0x3e760111	0.24023844
16	0x3e396aa1	0.18107082
17	0x3e7223ee	0.23646519
18	0xbd1b4e0b	-0.037916224
19	0xbe422378	-0.18958843
20	0xbd7d0bfd	-0.06177901
21	0xbe75e2ea	-0.24012342
22	0xbcff2694	-0.031146325
23	0xbd6e36c6	-0.058157705
24	0xbe6ddec7	-0.23229514
25	0xbe380897	-0.17972027
26	0x3c99e6e5	0.018786857
27	0xbe4a39d1	-0.19748618
28	0x3e8b39d3	0.27192554
29	0x3de13d09	0.1099797
30	0xbdea327c	-0.114354104
31	0xbe8fc944	-0.2808324
32	0x3e844db9	0.25840548
33	0xbe9f2e2e	-0.3108992
34	0xbe900b9d	-0.2813386
35	0xbdbcd4ba	-0.09220262
36	0xbd82d8a1	-0.06388975
37	0xba9f51c9	-0.0012155111
38	0x3d364268	0.044496924
39	0xbe3dcce6	-0.18535194
40	0xbdf40b38	-0.11916202
41	0x3ddb8c35	0.10720102
42	0x3e0217df	0.12704419
43	0x3e4a4e9d	0.19756551
44	0x3ead8489	0.3389018
45	0x3cfc7acf	0.030820278
46	0xbe929ef9	-0.28636912
47	0x3e53a477	0.20668207
48	0x3e44e7de	0.19229075
49	0x3be420e6	0.0069619296
50	0xbe4c578a	-0.19955269
51	0x3e2302ed	0.15919085
52	0xbe157e72	-0.14599016
53	0xbdfd4568	-0.12366754
54	0x3e339f0d	0.17541142
55	0x3e3977a6	0.18112049
56	0xbd132631	-0.035925094
57	0x3e1b4a7d	0.15165134
58	0xbe616be2	-0.2201381
59	0xbe849240	-0.2589283
60	0x3d68748e	0.05675178
61	0xbc9c224f	-0.019059328
62	0x3b97f1fc	0.004637001
63	0x3e1937c7	0.14962684
64	0x3e912d64	0.28354943
65	0xbd8819d9	-0.06645555
66	0xbe04dc9f	-0.12974785
67	0x3e3e6022	0.1859136
68	0x3e880ff9	0.26574686
69	0xbe28e611	-0.16494013
70	0xbe0b7874	-0.13620168
71	0xbe963f16	-0.29345006
72	0x3c6e72bc	0.014553722
73	0xbe8287d6	-0.2549426
74	0xbdc7fc3b	-0.09764906
75	0x3e88771a	0.26653367
76	0xbe311ac7	-0.17295371
77	0x3e82f5d0	0.25578165
78	0x3dcc3a24	0.09972027
79	0x3e239298	0.1597389
80	0x3dc737e1	0.09727455
81	0x3d669065	0.05629005
82	0x3e1f1b4e	0.1553776
83	0x3e81aa18	0.25325084
84	0x3e1e419c	0.15454715
85	0xbe1d7dac	-0.15379971
86	0xbc780307	-0.0151374405
87	0x3e1bcf98	0.1521591
88	0xbe610101	-0.21973039
89	0xbcdd310e	-0.02700093
90	0xbe985575	-0.297527
91	0x3e62a5b8	0.22133529
92	0xbd4a2391	-0.049350325
93	0xbdc983fb	-0.098396264
94	0xbe9c49b3	-0.30524978
95	0xbe859623	-0.26091108
96	0xbe089d17	-0.13341175
97	0x3d61d3e9	0.055133734
98	0xbe341340	-0.17585468
99	0xbe36fb72	-0.17869356
100	0xbc59f5bb	-0.013303216
101	0x3d5c308f	0.053757247
102	0x3dd4eab5	0.10396329
103	0xbe44ded3	-0.19225626
104	0xbcea1b7a	-0.028577555
105	0x3c27ea4e	0.010248734
106	0xbeacb363	-0.3373061
107	0x3e961d49	0.29319218
108	0x3e80663f	0.25078008
109	0xbe5eef67	-0.21771012
110	0xbe186e74	-0.14885885
111	0x3c15bd6a	0.009139398
112	0xbdbe0c52	-0.09279694
113	0xbc94df84	-0.018172987
114	0xbc13f2c0	-0.009030044
115	0x3e2508a3	0.16116576
116	0x3e8bf8ec	0.2733835
117	0xbe329571	-0.1743982
118	0x3e46a7c5	0.19399936
119	0x3dc1f6fd	0.094709374
120	0xbe288e55	-0.16460545
121	0x3e33bc77	0.17552362
122	0x3d0fb48f	0.035084303
123	0x3e3d4d12	0.18486431
124	0x3e4aea3c	0.19815916
125	0x3e7093af	0.23493837
126	0xbe8b330e	-0.2718739
127	0x3df5fa3d	0.1201062

fc.4.weight f4 [2, 128]
0	0xbf5d1354	-0.8635762
1	0x3f73b176	0.9519266
2	0xbf4d7b1b	-0.8026597
3	0x3f45e68f	0.7730493
4	0x3f668960	0.9005337
5	0x3f636bd2	0.88836396
6	0xbf27b23f	-0.65506357
7	0xbf378e2b	-0.71701306
8	0xbf5b76b2	-0.8572799
9	0x3f42cbaa	0.76092017
10	0x3f4f3ce7	0.80952305
11	0x3f550e56	0.83225
12	0xbf2ef4dd	-0.6834238
13	0x3f38c94f	0.7218217
14	0xbf4706bd	-0.77744657
15	0x3f693c09	0.9110723
16	0x3f483fae	0.7822217
17	0x3f5b5e15	0.8569043
18	0xbf563a5e	-0.8368281
19	0xbf554e5f	-0.8332271
20	0xbf5185e4	-0.81844926
21	0xbf692cf4	-0.9108422
22	0xbf57d4c5	-0.84309036
23	0xbe95cab3	-0.2925621
24	0xbf558832	-0.8341094
25	0xbf61928c	-0.8811424
26	0x3e24f432	0.16108778
27	0xbf9d22d9	-1.227626
28	0x3f6be927	0.9215264
29	0x3f37188c	0.7152183
30	0xbf58a348	-0.8462415
31	0xbf5076a6	-0.81431043
32	0x3f4da0ee	0.80323684
33	0xbf41f9e1	-0.7577191
34	0xbf4bbe2c	-0.79587054
35	0xbf3b7613	-0.7322704
36	0xbf40075f	-0.7501125
37	0xbf2b4286	-0.6689838
38	0x3f3a4030	0.7275419
39	0xbf537e4f	-0.82614607
40	0xbf4ab1fb	-0.79177827
41	0x3f7beae4	0.9840529
42	0x3f4835e4	0.7820723
43	0x3f4ac6a4	0.7920935
44	0x3f415c5b	0.7553155
45	0x3f0aac7d	0.54169446
46	0xbf62ea51	-0.8863879
47	0x3f4f96f4	0.8108971
48	0x3f11d6c1	0.56968313
49	0x3f524122	0.82130635
50	0xbf55f01a	-0.8356949
51	0x3f5a9a55	0.8539174
52	0xbf5620dd	-0.83643895
53	0xbf4b9164	-0.79518723
54	0x3f4610cc	0.7736938
55	0x3f5ca580	0.8619003
56	0x3eb0fce2	0.34567934
57	0x3f5159bd	0.81777555
58	0xbf67b566	-0.9051117
59	0xbf5c8953	-0.8614704
60	0x3f1da174	0.6157448
61	0xbf416320	-0.7554188
62	0xbf3a9ee5	-0.72898704
63	0x3f08fff8	0.5351558
64	0x3f4d0654	0.8008778
65	0xbf52b30d	-0.8230446
66	0xbf791083	-0.9729082
67	0x3f483e07	0.78219646
68	0x3f40b040	0.75268936
69	0xbf4854c5	-0.7825435
70	0xbf125030	-0.57153606
71	0xbf2be135	-0.67140514
72	0x3ee93597	0.45548698
73	0xbf4f9811	-0.8109141
74	0xbf484bfa	-0.7824093
75	0x3f4b5e79	0.7944103
76	0xbf52bea3	-0.8232214
77	0x3f4dde13	0.80416983
78	0x3f33a4ea	0.70173514
79	0x3f48de5a	0.7846428
80	0x3f5e9fd0	0.86962605
81	0x3f5331d8	0.8249793
82	0x3f4d5c28	0.80218744
83	0x3f229977	0.6351542
84	0x3f6f7336	0.9353517
85	0xbf5041f2	-0.81350625
86	0xbf2f66e0	-0.6851635
87	0x3f14c393	0.5811092
88	0xbf5d76f1	-0.86509615
89	0xbf54176a	-0.8284823
90	0xbf3beed6	-0.7341131
91	0x3f4bda64	0.7963011
92	0xbf590ca5	-0.8478492
93	0xbf2c5249	-0.6731306
94	0xbf46abaf	-0.7760572
95	0xbf48350b	-0.7820594
96	0xbf5ca58a	-0.8619009
97	0x3f52b880	0.82312775
98	0xbf42454e	-0.75887
99	0xbf5d7349	-0.86504036
100	0xbf5136fa	-0.8172451
101	0x3f5667bb	0.8375203
102	0x3e371860	0.17880392
103	0xbf6ba210	-0.9204416
104	0xbf52f0fb	-0.82398957
105	0x3f5edac4	0.8705256
106	0xbf5999b6	-0.8500017
107	0x3f49f2c9	0.78886086
108	0x3f02178c	0.5081718
109	0xbe60b15f	-0.21942662
110	0xbf4de9b4	-0.8043473
111	0xbf4b0b3e	-0.7931403
112	0xbf43ed39	-0.7653385
113	0x3f5d19a3	0.86367244
114	0x3f0e028d	0.5547264
115	0x3f4a5985	0.79042846
116	0x3f5857f1	0.8450919
117	0xbf257fca	-0.64648116
118	0x3f566ecb	0.83762807
119	0x3f5754fb	0.84114045
120	0xbf4ab3bd	-0.7918051
121	0x3e464fd1	0.19366385
122	0x3f531c51	0.8246508
123	0x3f52e76d	0.8238438
124	0x3f4a927f	0.79129785
125	0x3f4a6802	0.79064953
126	0xbef3a5d9	-0.4758747
127	0x3f4ca8d6	0.79945123
128	0xbf495c48	-0.78656435
129	0x3f2e2034	0.6801789
130	0xbf41f769	-0.7576814
131	0x3f3aaaee	0.7291707
132	0x3f521765	0.8206695
133	0x3f3db183	0.74098986
134	0xbf77955b	-0.96712273
135	0xbf3b9fcd	-0.7329071
136	0xbf34d8f8	-0.7064357
137	0x3f2fc202	0.6865541
138	0x3f35179b	0.70739144
139	0x3f2919e6	0.6605514
140	0xbf422bf8	-0.7584834
141	0x3f4ca915	0.799455
142	0xbf3eb691	-0.74497324
143	0x3f2e06ae	0.6797894
144	0x3f572c95	0.840524
145	0x3f2e096b	0.6798312
146	0xbf5f1340	-0.8713875
147	0xbf4503bc	-0.76958823
148	0xbf0d83f5	-0.55279475
149	0xbf4d1a46	-0.80118215
150	0xbf5e116e	-0.86745346
151	0xbf80e65a	-1.0070298
152	0xbf231fe0	-0.6372051
153	0xbf585ec0	-0.8451958
154	0x3f89d6e1	1.0768701
155	0xbf2b3e76	-0.6689218
156	0x3f41fe6a	0.7577883
157	0x3f4b85c7	0.79501003
158	0xbf2e86dc	-0.6817453
159	0xbf4be655	-0.79648334
160	0x3f46cfcd	0.7766083
161	0xbf419e41	-0.756321
162	0xbf1b4066	-0.6064514
163	0xbf588bdf	-0.84588426
164	0xbf3b5edf	-0.73191637
165	0xbf7f4fd1	-0.99731165
166	0x3f39f3d8	0.726377
167	0xbf1ada27	-0.60489124
168	0xbf32c51d	-0.6983202
169	0x3f06700f	0.5251474
170	0x3f1e25d1	0.61776453
171	0x3f60965e	0.8772944
172	0x3f3251c1	0.69655997
173	0x3f4cee5e	0.8005122
174	0xbf4871a6	-0.78298414
175	0x3f4d4638	0.8018527
176	0x3f52f22b	0.8240077
177	0x3f5c8b24	0.8614981
178	0xbf3ca30c	-0.7368629
179	0x3f57bf83	0.842766
180	0xbf27a9a7	-0.65493244
181	0xbf41802c	-0.755862
182	0x3f42c6ae	0.7608441
183	0x3f3b31db	0.7312295
184	0x3f7dfdea	0.9921557
185	0x3f229aff	0.63517755
186	0xbf277338	-0.65410185
187	0xbf40603b	-0.75146836
188	0x3f7b425f	0.9814815
189	0xbf516006	-0.81787145
190	0xbf637fbf	-0.888668
191	0x3f6e8719	0.9317489
192	0x3f262a6d	0.64908487
193	0xbf1c874f	-0.61143965
194	0xbf8e1493	-1.1100029
195	0x3f5d07f3	0.86340255
196	0x3f1a1bc3	0.6019861
197	0xbf2fe742	-0.68712246
198	0xbf7b3498	-0.98127127
199	0xbf55617d	-0.8335188
200	0x3f69073b	0.9102666
201	0xbf2fe7ba	-0.6871296
202	0xbf5c9e6a	-0.8617922
203	0x3f10840b	0.5645148
204	0xbf576722	-0.84141743
205	0x3f514c63	0.8175718
206	0x3f565ccb	0.8373534
207	0x3f425017	0.7590346
208	0x3f250db0	0.6447401
209	0x3f4d7d37	0.8026919
210	0x3f4af240	0.79275894
211	0x3f4d2d1e	0.8014697
212	0x3f16e1e6	0.58938444
213	0xbf49dc05	-0.7885135
214	0xbf5974e0	-0.8494396
215	0x3f7c6f1d	0.98607045
216	0xbf4ecbe3	-0.80779856
217	0xbf49a218	-0.7876296
218	0xbf24cce6	-0.6437515
219	0x3f34f0bf	0.7067985
220	0xbf4ef337	-0.80839866
221	0xbf5d65db	-0.86483544
222	0xbf2d162e	-0.6761197
223	0xbf4bc93b	-0.7960393
224	0xbf5d8bba	-0.8654133
225	0x3f2407ce	0.6407441
226	0xbf4b366a	-0.79379904
227	0xbf2439d0	-0.64150715
228	0xbf40b03e	-0.75268924
229	0x3f357036	0.70874345
230	0xbf0e6942	-0.5562936
231	0xbf3951b0	-0.7239027
232	0xbf5c5cd8	-0.8607917
233	0x3f2a9805	0.66638213
234	0xbf369561	-0.71321684
235	0x3f3fd2d9	0.74931103
236	0x3f619f92	0.8813411
237	0xbf691ee5	-0.91062766
238	0xbf47ade0	-0.7799969
239	0xbf28daae	-0.6595868
240	0xbf4f6673	-0.810157
241	0x3f54f3b2	0.8318435
242	0x3f7a9d7f	0.9789657
243	0x3f68dccd	0.90961915
244	0x3f2522d0	0.64506245
245	0xbf657bae	-0.89641845
246	0x3f2ee551	0.6831866
247	0x3f6a3bbf	0.91497415
248	0xbf3e26a9	-0.7427774
249	0x3f698a5e	0.91226757
250	0x3f23a64d	0.6392563
251	0x3f11e845	0.5699504
252	0x3f4bf082	0.7966386
253	0x3f5ea26e	0.869666
254	0xbf6f9003	-0.9357912
255	0x3f3a974b	0.72887105

fc.4.bias f4 [2]
0	0x3f26308c	0.64917827
1	0x3eeda9a2	0.46418482
