1.DQN/ckpt/CartPole-v1_DQN_episode_259_reward_477.pth (torch, 72702 bytes, 6 tensors)

fc.0.weight f4 [128, 4]
0	0x3ce40e67	0.027838899
1	0xbec33599	-0.3812683
2	0x3e88c635	0.2671372
3	0x3c51e2f0	0.012810454
4	0xbcb0119d	-0.021492774
5	0x3e8f24b1	0.2795768
6	0x3ebf065a	0.37309533
7	0x3eabb6a5	0.33537784
8	0xbe7e6386	-0.24842653
9	0xbe8498e2	-0.2589789
10	0xbf3c7244	-0.73611856
11	0xbee9cf4f	-0.45665976
12	0x3ec6dc79	0.38840082
13	0x3ea87543	0.32901964
14	0x3e7022db	0.23450796
15	0x3e806ad1	0.25081494
16	0x3dfdc75f	0.12391543
17	0x3ead77f4	0.3388058
18	0x3f09f0a5	0.5388282
19	0x3db1fcdd	0.08690808
20	0xbdaf0037	-0.08544963
21	0x3d6098b7	0.05483314
22	0xbf85fbf2	-1.0467513
23	0xbe9495a4	-0.29020417
24	0x3dbeaf58	0.09310788
25	0x3de475ab	0.11155256
26	0x3f0f9a30	0.56094646
27	0xbe3a9e83	-0.1822453
28	0xbeda754e	-0.4266762
29	0x3d8acf72	0.06777848
30	0xbeafa4a8	-0.3430531
31	0xbf04e25d	-0.519079
32	0xbe6fc4e7	-0.23414956
33	0xbedb02e1	-0.42775634
34	0xbf0a5592	-0.5403682
35	0xbe8c22e9	-0.27370384
36	0x3ef843e3	0.48489293
37	0xbdc1fd31	-0.094721206
38	0x3e16ca9b	0.14725725
39	0x3d4a00e8	0.04931727
40	0x3e6bff85	0.23046692
41	0x3e7776b5	0.24166377
42	0xbf373d04	-0.7157748
43	0xbe88e70e	-0.2673878
44	0xbd7bb3a0	-0.0614506
45	0x3f09ecd4	0.53876996
46	0x3f2750f6	0.6535791
47	0x3e8e1ac0	0.27754784
48	0xbe80ae0a	-0.2513278
49	0xbcc68d35	-0.024237255
50	0xbe900fdb	-0.28137097
51	0xbedc31a4	-0.43006623
52	0x3edee14b	0.4353126
53	0xbec004a9	-0.37503555
54	0xbecc19a9	-0.39863327
55	0xbe82e237	-0.25563213
56	0x3e17ac23	0.14811759
57	0xbe201806	-0.15634164
58	0x3cd78d5c	0.026312523
59	0xbea2606a	-0.31714183
60	0xbe422a6f	-0.189615
61	0x3f00a218	0.50247335
62	0x3f7bb8b7	0.9832873
63	0x3cba3826	0.022731852
64	0x3eb761df	0.35816857
65	0xbdbfd994	-0.093676716
66	0xbeb56d75	-0.35435072
67	0xbedb6a4a	-0.4285453
68	0xbe8237ff	-0.25433347
69	0xbe5f9585	-0.21834381
70	0xbf6ae98d	-0.9176262
71	0xbed6ed04	-0.41977704
72	0xbe586c54	-0.21135074
73	0x3f06da22	0.52676594
74	0x3f5c1289	0.8596578
75	0x3cfbf171	0.030754777
76	0xbea951e8	-0.33070302
77	0xbeed4521	-0.46341804
78	0xbf5cd574	-0.86263204
79	0xbccff505	-0.02538539
80	0x3ea497e8	0.32147145
81	0xbe894076	-0.26806992
82	0x3ec8e680	0.39238358
83	0x3e810d98	0.25205684
84	0x3edd2d87	0.43198797
85	0x3e6eb0a6	0.23309574
86	0x3efedd81	0.4977837
87	0xbedf460f	-0.43608138
88	0x3d3fd65e	0.046835296
89	0x3eb13c7d	0.3461646
90	0x3e90741b	0.2821358
91	0xbe5e5f41	-0.21716024
92	0xbddda96a	-0.10823329
93	0x3ef43002	0.47692877
94	0x3db18625	0.08668164
95	0xbe84f708	-0.2596972
96	0xbe4e3fe5	-0.20141561
97	0xbed040c2	-0.40674406
98	0xbe5589e9	-0.2085339
99	0x3e2ffa15	0.17185242
100	0x3edcfca8	0.4316151
101	0x3ecc46b1	0.39897683
102	0x3e22cdbd	0.15898795
103	0xbece3fe0	-0.40283108
104	0x3e599ad5	0.2125047
105	0xbe7820ce	-0.24231264
106	0x3e98d3d8	0.29849124
107	0xbe865299	-0.26234892
108	0xbeca9e67	-0.39573976
109	0xbe9f8cb4	-0.31162035
110	0xbeb48b09	-0.35262325
111	0xbeaf081f	-0.34185883
112	0x3e2f8603	0.17140965
113	0x3cdd0272	0.026978705
114	0x3ef117b8	0.47088408
115	0x3e443ee2	0.19164613
116	0x3dae3d43	0.085077785
117	0x3f0453dc	0.5169046
118	0x3ee2038f	0.4414334
119	0x3eb24c5d	0.34823886
120	0x3ea941b8	0.33057952
121	0xbde6c003	-0.11267092
122	0x3f912af6	1.1341236
123	0x3eda21ce	0.42603916
124	0xbeb08925	-0.34479633
125	0xbe08d9ff	-0.13364409
126	0x3deb4ac5	0.114888705
127	0x3e808984	0.25104916
128	0x3df04419	0.117317386
129	0xbe6ff55b	-0.2343344
130	0xbf223bd9	-0.6337257
131	0x3c68e0c1	0.014213742
132	0x3e0ef768	0.13961565
133	0x3ea6027b	0.32423767
134	0x3f29f05a	0.6638237
135	0x3e887ae9	0.26656273
136	0x3e826523	0.25467786
137	0x3d145cf0	0.036221445
138	0x3f86d9be	1.05352
139	0x3e65eead	0.22454329
140	0x3ce774fe	0.028254028
141	0xbe5bd608	-0.21468365
142	0xbf189c37	-0.59613365
143	0xbe14cf6c	-0.1453225
144	0xbcb9e458	-0.02269189
145	0xbe458095	-0.19287331
146	0x3f5f9373	0.87334365
147	0x3e9a1435	0.30093542
148	0x3ca7f45c	0.020502262
149	0x3ea7ad1c	0.3274926
150	0x3f2c6e5d	0.673559
151	0x3d9987f5	0.07496635
152	0xbdd2ed94	-0.10299221
153	0xbedd9b9e	-0.4328279
154	0xbf25fd36	-0.64839494
155	0xbeab7a23	-0.3349162
156	0x3ecc438b	0.3989528
157	0xbe5a318b	-0.21307962
158	0xbf819614	-1.0123925
159	0xbec7f506	-0.39054126
160	0x3d553024	0.052047864
161	0x3e2f4737	0.1711701
162	0x3ef00de3	0.46885595
163	0x3f0a8935	0.5411561
164	0xbebceb8e	-0.36898464
165	0x3e9cea81	0.30647662
166	0xbf6ffd01	-0.9374543
167	0xbe63eb09	-0.22257628
168	0xbd759fdb	-0.059966903
169	0x3eb43271	0.35194734
170	0xbebcd887	-0.36883947
171	0xbd670958	-0.056405395
172	0xbe910e7d	-0.28331366
173	0xbe1abbb5	-0.15110667
174	0x3eb502d0	0.35353708
175	0x3dd058eb	0.1017321
176	0xbec593d3	-0.38589343
177	0xbe75f32a	-0.24018541
178	0x3dea19bb	0.11430689
179	0xbe61f184	-0.22064787
180	0x3ea09089	0.31360272
181	0xbed5e23a	-0.4177416
182	0x3f64ccff	0.893753
183	0x3e5b8b6a	0.21439901
184	0xbe890d5d	-0.26768008
185	0xbed4474f	-0.41460654
186	0xbea8ea57	-0.32991287
187	0xbed86cc5	-0.42270485
188	0xbe099da0	-0.13439035
189	0xbe3af1ad	-0.18256254
190	0xbf89e806	-1.0773933
191	0xbea4a709	-0.32158688
192	0x3e2f7e71	0.17138077
193	0x3da2136d	0.079138614
194	0x3f0de1c7	0.55422634
195	0x3d0f2c84	0.034954563
196	0x3eaca1b5	0.33717123
197	0x3dad6735	0.08466951
198	0x3e8e04ab	0.27737936
199	0xbb65530b	-0.0034992124
200	0xbe93c8da	-0.28864175
201	0xbe94e9fa	-0.2908476
202	0xbe97beaa	-0.29637653
203	0xbed56497	-0.41678306
204	0x3e3d7f53	0.18505602
205	0xbe200cb2	-0.15629843
206	0x3da8e971	0.082476504
207	0xbd91dba6	-0.07121973
208	0x3dbac459	0.091194816
209	0x3ea0d76a	0.31414348
210	0x3e821b93	0.25411662
211	0x3ef7408e	0.4829144
212	0x3e0a93f3	0.13533
213	0xbe9a31ea	-0.30116206
214	0xbf86f166	-1.0542419
215	0xbf07e132	-0.53077996
216	0xbe5f0a49	-0.21781267
217	0xbe89c16f	-0.2690539
218	0xbeb877c6	-0.3602888
219	0xbe8cfc0d	-0.2753605
220	0xbf1936ef	-0.59849447
221	0xbd5eb638	-0.054372996
222	0x3eb5fb60	0.35543346
223	0xbe90d0d3	-0.2828432
224	0xbc3aaf89	-0.01139439
225	0x3e38852d	0.18019553
226	0xbd758dd7	-0.059949722
227	0xbe3ba79f	-0.18325661
228	0xbd9aa403	-0.07550814
229	0x3f079cbc	0.5297353
230	0x3ea51978	0.32245994
231	0x3eaa6f14	0.3328787
232	0x3e8a143d	0.26968566
233	0x3ef64228	0.48097348
234	0x3f8541b4	1.0410676
235	0x3e5b57f6	0.21420273
236	0xbf0aa7a9	-0.5416208
237	0xbe53ede6	-0.2069622
238	0xbe46de7d	-0.1942081
239	0x3f0ebdc0	0.55758286
240	0x3e3b732f	0.18305658
241	0xbece864d	-0.40336838
242	0xbf17c2f6	-0.5928186
243	0xbe430872	-0.1904619
244	0x3e118ec1	0.14214613
245	0x3e1f25d3	0.15541773
246	0xbe67fa7c	-0.22654146
247	0xbeb59579	-0.354656
248	0xbe63a16a	-0.22229543
249	0x3ebf9579	0.37418726
250	0xbf937853	-1.1521095
251	0xbf0d9b42	-0.5531503
252	0x3edfe439	0.43728808
253	0xbe00cd69	-0.12578358
254	0x3eea93dc	0.45815933
255	0xbe6f51d7	-0.23371063

fc.0.bias f4 [128]
0	0xbe90bd8f	-0.28269622
1	0xbf0fd6aa	-0.56186926
2	0xbded088b	-0.11573895
3	0x3f3e0edf	0.7424144
4	0xbf0e9e8a	-0.5571066
5	0x3eb4f53d	0.35343352
6	0x3eaf2105	0.3420488
7	0xbdda324d	-0.10654125
8	0xbf14b7c3	-0.580929
9	0x3e650a31	0.22367169
10	0xbefa5150	-0.48890162
11	0xbe02e08f	-0.12780975
12	0x3e990f59	0.29894522
13	0x3ee02aca	0.43782645
14	0x3f1941fd	0.59866315
15	0x3ed7daf5	0.42159238
16	0xbf3b5dbe	-0.73189914
17	0x3ed47ac6	0.4149992
18	0xbed2c5a9	-0.41166428
19	0x3f022c6f	0.5084905
20	0x3e8d981e	0.2765512
21	0xbf462e03	-0.7741396
22	0x3f16b662	0.58872044
23	0xbeb05987	-0.34443304
24	0xbf36276a	-0.7115389
25	0xbf198045	-0.5996135
26	0x3eb6dc6d	0.35715047
27	0x3f1d1ada	0.613691
28	0xbeed4d93	-0.46348247
29	0xbf140107	-0.5781407
30	0x3f339f08	0.7016454
31	0xbf2c5ef5	-0.6733239
32	0x3e6fac3c	0.23405546
33	0xbf1805fb	-0.59384125
34	0xbea10341	-0.31447795
35	0x3f1977ba	0.59948313
36	0x3ef8eaa1	0.48616508
37	0xbf07c2f9	-0.5303188
38	0x3ed963c1	0.4245892
39	0xbee805ec	-0.45317018
40	0xbead4a22	-0.3384562
41	0x3ecb6f87	0.39733526
42	0xbe430572	-0.19045046
43	0x3e3d7f1e	0.18505523
44	0xbe935d52	-0.28782135
45	0xbeecdc45	-0.46261802
46	0x3f10141a	0.5628067
47	0x3f11d64d	0.5696762
48	0x3e7efafa	0.24900427
49	0x3e9a6f39	0.3016298
50	0x3ef79fff	0.48364255
51	0x3ecb5b41	0.3971806
52	0x3f1cb5bb	0.612148
53	0xbe9ed70b	-0.3102344
54	0x3eef6c6d	0.4676241
55	0xbe8c2e0b	-0.27378878
56	0xbef5a5d6	-0.47978085
57	0xbeeb6c9f	-0.4598131
58	0xbe9628c2	-0.2932797
59	0x3f202163	0.62550944
60	0x3eaf0ec3	0.3419095
61	0xbbc8c9a0	-0.006127551
62	0xbddc72f5	-0.10764114
63	0x3eb07f50	0.34472132
64	0x3de2efe1	0.110809095
65	0x3efc1a32	0.49238735
66	0xbebc0d49	-0.36728886
67	0x3eeca03f	0.46216008
68	0xbf37a200	-0.7173157
69	0x3f1480f6	0.5800928
70	0x3f281400	0.6565552
71	0xbedd0625	-0.4316875
72	0xbd1a538e	-0.03767734
73	0xbebd82c5	-0.37013832
74	0xbf236992	-0.6383296
75	0xbe9a50d1	-0.30139783
76	0x3ec1be3b	0.37840447
77	0x3ea4af84	0.32165158
78	0x3d5c4f27	0.053786423
79	0xbece21f3	-0.40260276
80	0xbe8af4ca	-0.27139884
81	0xbf26272d	-0.6490353
82	0x3e9882a9	0.29787186
83	0x3eb569fa	0.35432416
84	0x3f0d061a	0.55087435
85	0xbe92d5ee	-0.2867884
86	0xbf0fb3f6	-0.56133974
87	0x3e8e98b4	0.27850878
88	0xbe755b42	-0.23960593
89	0x3f0ba74f	0.5455217
90	0x3ea9f4fc	0.3319472
91	0x3eb0dd5e	0.3454389
92	0xbef4e9c8	-0.4783461
93	0x3e992d09	0.29917172
94	0x3eae7b02	0.34078223
95	0xbe2023a1	-0.15638591
96	0x3ea82835	0.32843176
97	0x3f03bfa2	0.51464283
98	0x3f314e60	0.69260216
99	0x3f35ff9f	0.7109317
100	0x3becc70c	0.0072258767
101	0xbe7c8d5e	-0.24663302
102	0xbf1ffe4b	-0.62497395
103	0xbf086e59	-0.5329338
104	0xbec60ded	-0.386825
105	0xbdcf35aa	-0.101176575
106	0x3ebe7b39	0.37203386
107	0x3ea04276	0.31300706
108	0xbee9f059	-0.45691183
109	0xbe331a5c	-0.17490524
110	0x3f148b59	0.5802513
111	0x3ee3395f	0.44379708
112	0xbf2e7b4d	-0.6815689
113	0xbd0cf8b1	-0.034416858
114	0xbeb1ce14	-0.34727538
115	0xbe8990da	-0.26868325
116	0xbf166659	-0.5874992
117	0xbedc6c46	-0.43051356
118	0xbedef30f	-0.43544814
119	0xbe63b04d	-0.22235222
120	0xbf0e2697	-0.55527633
121	0xbee41b62	-0.4455214
122	0xbf1ba919	-0.608049
123	0x3f02b4be	0.5105704
124	0xbf079d02	-0.5297395
125	0x3f4a0dce	0.78927314
126	0xbeefa652	-0.4680658
127	0xbf1293e8	-0.5725694

fc.2.weight f4 [128, 128]
0	0xbcde1e47	-0.027114047
1	0x3e387a78	0.18015468
2	0xbceb68c3	-0.028736478
3	0xbdd0a6db	-0.10188075
4	0x3eb336d7	0.35002777
5	0xbe92ed18	-0.28696513
6	0xbdc9519b	-0.09830018
7	0x3dacf871	0.08445824
8	0x3d4f8bc6	0.050670408
9	0xbe503734	-0.20333558
10	0x3e4968e9	0.19668926
11	0x3dd5bafe	0.104360566
12	0xbe3a39e2	-0.18186143
13	0xbc9bd3fa	-0.019021977
14	0xbdf44260	-0.119267225
15	0x3d142371	0.036166612
16	0x3da895e9	0.08231718
17	0xbe304cc5	-0.17216785
18	0x3d9b43fd	0.07581327
19	0xbe49a3fd	-0.19691463
20	0xbd9c57c5	-0.07633928
21	0x3e1002dc	0.14063591
22	0xbd82584d	-0.06364498
23	0x3e0b4c9c	0.13603443
24	0x3b957237	0.0045607346
25	0x3da97cc2	0.08275749
26	0xbdd6b836	-0.10484354
27	0xbdd5698e	-0.104205236
28	0x3ec4d6e1	0.3844519
29	0x3ef3da7f	0.47627637
30	0xbdb481ec	-0.08813843
31	0x3d0f56f5	0.034995038
32	0xbde40361	-0.11133457
33	0x3ec1bb8b	0.37838396
34	0x3e7c986d	0.24667521
35	0xbe27fb89	-0.16404547
36	0xbd3361c2	-0.0437944
37	0x3e9d4e3d	0.30723754
38	0xbe98fd4c	-0.2988075
39	0x3d8e7f19	0.06957836
40	0x3e4ad710	0.19808602
41	0xbe76b0d4	-0.24090892
42	0x3dd83325	0.1055663
43	0xbdf85b7a	-0.12126823
44	0x3da7cf5b	0.08193847
45	0x3e5baf43	0.21453576
46	0xbe32d694	-0.17464668
47	0xbefc6d52	-0.49302155
48	0x3c3283ea	0.010895709
49	0xbcd51a4e	-0.02601352
50	0xbe576ea2	-0.21038297
51	0xbd82dba8	-0.06389552
52	0xbde802e7	-0.113286786
53	0xbbab9c9c	-0.005237175
54	0xbe7f3951	-0.24924208
55	0x3d7aaa52	0.061197586
56	0x3e25aaad	0.16178389
57	0x3e18aefe	0.14910504
58	0x3dcd010c	0.10009965
59	0xbe36a155	-0.17834981
60	0xbe574e19	-0.21025886
61	0x3c3e987a	0.011633033
62	0x3cbc4dde	0.022986349
63	0xbd856778	-0.06513876
64	0xbc47a6ab	-0.012185733
65	0xbe4aa3f9	-0.19789113
66	0x3e0f259f	0.13979195
67	0x3cd5c473	0.02609465
68	0x3d154122	0.03643907
69	0xbdc84fc1	-0.09780837
70	0xbd8a2bed	-0.067466594
71	0x3e22e8cb	0.15909116
72	0x3dc317ce	0.09526025
73	0x3e4d4d87	0.20049106
74	0x3dc1a1ab	0.09454664
75	0x3e139a34	0.14414293
76	0xbe638225	-0.22217615
77	0xbd6be3fb	-0.057590466
78	0x3cd1a0f9	0.025589453
79	0x3e1d54b1	0.15364338
80	0x3e7ef88c	0.248995
81	0xbb2ef9a5	-0.0026699093
82	0xbe63685a	-0.22207776
83	0xbdd2944e	-0.10282193
84	0xbe7f0ed3	-0.24907999
85	0x3ddedddf	0.10882162
86	0xbbd8a4c8	-0.0066114403
87	0xbdf6c4b7	-0.12049239
88	0x3e4de40d	0.20106526
89	0xbe1b30aa	-0.15155283
90	0xbe6ac221	-0.22925617
91	0xbdeb35ec	-0.11484894
92	0x3dc08f88	0.094023764
93	0xbd14d3d9	-0.036334846
94	0xbec4dfec	-0.3845209
95	0xbc42964c	-0.011876654
96	0xbe85f383	-0.26162347
97	0xbdfbeaa9	-0.12300617
98	0xbd317edf	-0.043333884
99	0xbd09e6de	-0.033667438
100	0x3d52841f	0.05139553
101	0xbd1bb646	-0.038015626
102	0x3e1e597a	0.1546382
103	0x39f5cbf4	0.00046881998
104	0x3da34b73	0.07973375
105	0xbd9076ad	-0.070538856
106	0xbdfe85e9	-0.12427885
107	0xbe02a619	-0.12758674
108	0x3e45cd66	0.19316635
109	0x3debbea3	0.115109704
110	0xbe85eb63	-0.26156148
111	0x3c83e7ba	0.016101707
112	0x3c6dd60a	0.014516363
113	0xbe6fd832	-0.23422316
114	0x3d0cbb68	0.034358412
115	0x3e06dd3b	0.1317033
116	0x3dbaaca4	0.0911496
117	0x3ceab63b	0.028651347
118	0x3df5cff9	0.12002558
119	0x3e08bff2	0.13354471
120	0x3d96200e	0.07330333
121	0x3e01da46	0.12680921
122	0xbc43ef3a	-0.0119588915
123	0xbdc15a21	-0.09441019
124	0x3e02a0d3	0.12756662
125	0xbdaceae9	-0.08443243
126	0x393b5507	0.00017865385
127	0x3ddb8eb3	0.10720577
128	0xbc5bc065	-0.01341257
129	0x3e602035	0.21887286
130	0xbd43615e	-0.04770028
131	0xbdda7f28	-0.106687844
132	0x3ece997f	0.40351483
133	0xbe609e5c	-0.2193541
134	0xbdd03a16	-0.10167329
135	0x3d8760cc	0.066102594
136	0x3dc792ad	0.09744773
137	0xbd1f23d2	-0.03885252
138	0x3e75f2bb	0.24018376
139	0x3e4d302a	0.20037904
140	0xbe4dbdfb	-0.20092003
141	0xbe2b91d6	-0.16754851
142	0xbddf957b	-0.10917183
143	0x3d1d306e	0.038376264
144	0x3e640604	0.2226792
145	0xbe16852b	-0.14699237
146	0x3d8b5fec	0.06805405
147	0xbdc780bd	-0.09741352
148	0x3b89217a	0.004184899
149	0x3e202dee	0.15642521
150	0xbe00b7b4	-0.12570077
151	0x3e0cfb8a	0.1376783
152	0xbc852a38	-0.016255483
153	0x3e1a83c9	0.15089335
154	0xbe3a58f6	-0.18197998
155	0xbe85edf4	-0.26158106
156	0x3ea6f0f5	0.3260571
157	0x3ed5dfa1	0.41772178
158	0xbb441f73	-0.0029925972
159	0x3dc01498	0.09378928
160	0xbe40f65b	-0.18843977
161	0x3ecbfdcf	0.39842078
162	0x3e40a357	0.18812309
163	0xbdee9548	-0.11649567
164	0xbdba49d3	-0.09096112
165	0x3e12b200	0.14325714
166	0xbe991657	-0.29899856
167	0x3d6caac8	0.057780057
168	0x3eb56b6a	0.35433513
169	0xbe6db0ac	-0.23211926
170	0x3e24eb0c	0.16105288
171	0xbdbbaa01	-0.09163285
172	0x3cc4fcac	0.024046265
173	0x3dbb5e8f	0.09148895
174	0xbe19904a	-0.14996448
175	0xbee1b629	-0.4408429
176	0xbde6a793	-0.11262431
177	0xbd8eb0ed	-0.0696734
178	0xbe1aab78	-0.15104473
179	0xbdfb255a	-0.122629836
180	0xbcd413f2	-0.025888417
181	0x3c115a94	0.008871693
182	0xbe327eaf	-0.17431138
183	0xbc156895	-0.009119173
184	0x3bac49a5	0.0052578025
185	0x3e699835	0.22811969
186	0x3d867b3e	0.06566475
187	0xbe3d3a85	-0.18479355
188	0xbe2713db	-0.16316168
189	0x3da85bc6	0.082206294
190	0x3b88a9a4	0.0041706134
191	0xbe1f8ca7	-0.15580998
192	0xbcd9c5dd	-0.026583606
193	0xbe4f5110	-0.20245767
194	0xbc2dd7de	-0.010610549
195	0xbdd4ea4f	-0.10396253
196	0x3d03b5a9	0.032155667
197	0xbda263fa	-0.07929225
198	0xbe1ad4bb	-0.15120213
199	0x3dfb76f2	0.122785464
200	0x3dd1fba8	0.10253078
201	0x3ec31f7c	0.38109958
202	0x3e118939	0.14212503
203	0x3dc51d72	0.09624757
204	0xbe5147a3	-0.20437483
205	0xbdb1907c	-0.08670136
206	0xbca61b93	-0.02027682
207	0x3e0967ef	0.13418554
208	0x3e9bcbd8	0.30428958
209	0x3de624af	0.112374656
210	0xbe7a3ec0	-0.24438
211	0xbd54378b	-0.051810782
212	0xbe6ef586	-0.23335847
213	0xbd49f4f1	-0.04930586
214	0x3d3610e6	0.04444971
215	0xbe554df8	-0.20830524
216	0x3da687b7	0.08131354
217	0xbe5ed066	-0.21759185
218	0xbe388bcc	-0.18022078
219	0xbdf637c9	-0.12022359
220	0xbc4896c8	-0.01224298
221	0xbd426442	-0.047458895
222	0xbebe22fa	-0.3713606
223	0x3e1a4af9	0.15067662
224	0xbe5e4188	-0.21704686
225	0xbe060e51	-0.13091399
226	0xbe0c6d04	-0.13713461
227	0xbe0328a6	-0.12808475
228	0x3d23bc28	0.03997436
229	0xbdc03541	-0.093851574
230	0x3e1085d6	0.14113554
231	0x3d094f96	0.033523165
232	0x3dd494dc	0.10379955
233	0xbd8e0af2	-0.069356814
234	0xbe05ba6c	-0.13059396
235	0xbe695439	-0.22786035
236	0x3df27bf9	0.11840052
237	0x3d5bfaec	0.053706095
238	0xbe7f29cf	-0.24918292
239	0xbdf50f79	-0.11965842
240	0x3d157ee2	0.036497958
241	0xbe456445	-0.19276531
242	0xbd0df27c	-0.03465508
243	0xbce1c85a	-0.027561355
244	0x3df7ca87	0.12099176
245	0x3cebb372	0.02877209
246	0xbccd8289	-0.025086658
247	0x3d94ec13	0.0727159
248	0x3ce5c36b	0.028047284
249	0x3ca2faaf	0.019894926
250	0x3e011002	0.12603763
251	0xbdd3b4fe	-0.10337256
252	0x3e01f053	0.12689333
253	0xbe5f57fa	-0.21810904
254	0xbc9c9a97	-0.019116683
255	0x3dba6f43	0.09103253

fc.2.bias f4 [128]
0	0xbe35a4fd	-0.1773872
1	0xbdac3d08	-0.08410078
2	0xbd9ffb5f	-0.07811617
3	0x3d23c40b	0.039981883
4	0xbd13ec96	-0.036114298
5	0x3d9f8e16	0.077907726
6	0x3c5a475f	0.01332268
7	0x3e180ca0	0.14848566
8	0x3d1e9b7e	0.038722508
9	0x3e2c47e1	0.16824295
10	0x3de9c19c	0.11413881
11	0xbd42f07e	-0.047592632
12	0x3c204d4c	0.009784054
13	0x3e00087a	0.12503234
14	0xbde3db8e	-0.11125861
15	0xbddf8477	-0.109139375
16	0x3da3907a	0.07986541
17	0xbe0e80a0	-0.13916254
18	0x3cced222	0.025246684
19	0x3cb2b362	0.021814052
20	0x3d68d57a	0.056844212
21	0xbe017c26	-0.12645015
22	0xbb4fb3ff	-0.003169298
23	0x3df9c636	0.12196009
24	0xbba2ddf4	-0.0049703065
25	0x3da51179	0.08059973
26	0xbde3d723	-0.111250184
27	0x3e1760c3	0.14783005
28	0x3da7b672	0.081890956
29	0x3c16deee	0.009208424
30	0x3da5a3fa	0.08087917
31	0x3d573161	0.052537326
32	0x3e1335f0	0.14376044
33	0xbd70a267	-0.05874863
34	0xbe3d6e08	-0.18499005
35	0xbd883441	-0.06650592
36	0xbb4a7bb2	-0.0030896482
37	0x3e2a220b	0.16614549
38	0x3de8907d	0.11355684
39	0xbdd33e5f	-0.10314631
40	0xbdafffb3	-0.08593693
41	0x3de1c04a	0.11023004
42	0x3cf9a7ee	0.030475583
43	0x3e2bf117	0.16791187
44	0xbd5915ad	-0.052999187
45	0x3d9369ab	0.07197889
46	0x3d9b82eb	0.0759333
47	0x3dc70ae3	0.09718873
48	0x3b0b9c2a	0.0021302798
49	0x3e25a414	0.16175872
50	0x3e413300	0.18867111
51	0xbdaca196	-0.084292576
52	0x3dc69aa7	0.09697466
53	0xbe1e037d	-0.15431018
54	0x3d7b052e	0.061284237
55	0x3d930174	0.071780115
56	0xbdeecb8f	-0.116599195
57	0xbd90a178	-0.07062048
58	0xbd29cc50	-0.041454613
59	0x3e01bdcb	0.12670057
60	0x3d7f4cc0	0.062329054
61	0x3d239058	0.03993258
62	0x3db7e887	0.08979898
63	0x3dba3d08	0.09093672
64	0x3dad2ba8	0.084555924
65	0xbce60269	-0.028077321
66	0x3e31ddc9	0.1736976
67	0x3bf409ec	0.007447472
68	0x3d7187b8	0.058967322
69	0x3da13f75	0.078734316
70	0x3d5a1852	0.05324585
71	0xbd482556	-0.04886373
72	0x3df05677	0.11735242
73	0x3d7c9941	0.06166959
74	0x3cfa4710	0.030551463
75	0xbcc2d833	-0.023784732
76	0x3e0e439b	0.13892977
77	0x3bf98f47	0.007615957
78	0x3c2dfa46	0.010618752
79	0x3dc6badd	0.0970361
80	0x3e33f222	0.17572835
81	0xbe487539	-0.19575967
82	0xbcff0d69	-0.031134324
83	0xbdeb979c	-0.115035266
84	0xbd258712	-0.040412016
85	0xbd8081ca	-0.06274755
86	0x3e060afb	0.13090126
87	0x3c2c7537	0.010525993
88	0x3d6b56d7	0.057455864
89	0xbd2c658f	-0.04208904
90	0x3ddbf934	0.10740891
91	0xbde3afe3	-0.11117532
92	0x3c38d0dd	0.011280266
93	0x3e128926	0.1431013
94	0xbce2d60f	-0.027689962
95	0x3db69ab7	0.08916228
96	0xbd925103	-0.07144358
97	0x3d8d70af	0.06906258
98	0x3e010cf7	0.12602602
99	0x3cced8b8	0.025249824
100	0xbd3e8cd4	-0.046521023
101	0x3e1fbd30	0.15599513
102	0x3dd90aba	0.10597749
103	0x3e06d8da	0.1316866
104	0xbda1b40f	-0.078956716
105	0xbe024307	-0.12720881
106	0xbc8381cb	-0.016053101
107	0xbc67ec33	-0.014155435
108	0xbb9ea15c	-0.004841013
109	0x3bd474b5	0.006483639
110	0xbdcecee5	-0.10098056
111	0x3d8c296c	0.06843838
112	0x3d2fccb5	0.042919833
113	0xbdb346f6	-0.08753769
114	0xbd0a1ee3	-0.033720862
115	0x3d98d993	0.07463374
116	0xbd0aac41	-0.03385568
117	0x3de730f9	0.11288638
118	0xbe377600	-0.17916107
119	0xbcede385	-0.029039154
120	0xbafdac3f	-0.0019353702
121	0x3d1aedad	0.03782432
122	0xbdce163d	-0.10062835
123	0x3e23728a	0.15961662
124	0xbdf8e97a	-0.12153907
125	0x3bd6f8e8	0.0065604337
126	0xbd45e827	-0.0483171
127	0x3cef65a8	0.029223278

fc.4.weight f4 [2, 128]
0	0xbf4184bc	-0.7559316
1	0xbf374dfa	-0.7160336
2	0xbf23d6fd	-0.6399992
3	0x3f4bdb6d	0.7963169
4	0xbf2d750b	-0.6775672
5	0x3f2a3ba5	0.6649726
6	0xbf313fb5	-0.69237834
7	0x3f46bfc7	0.7763638
8	0xbf01b965	-0.50673515
9	0x3f2115f7	0.6292414
10	0x3f2ad429	0.6672998
11	0xbf7afb31	-0.9803954
12	0x3f4f23c8	0.8091397
13	0x3f3753c8	0.71612215
14	0xbf3f63bc	-0.7476156
15	0xbf227e96	-0.63474405
16	0x3f5575b2	0.83382714
17	0xbf3ba31c	-0.7329576
18	0xbf668b7f	-0.90056604
19	0x3f2d71b6	0.67751634
20	0x3f505493	0.8137905
21	0xbf6fb46c	-0.93634677
22	0xbe36cb67	-0.1785103
23	0x3f72be81	0.94821936
24	0x3f446ca8	0.76728296
25	0x3f4ee0e1	0.8081189
26	0xbf27bb1c	-0.6551988
27	0x3f3d620f	0.7397775
28	0xbf57ca7f	-0.8429336
29	0xbf3861d2	-0.7202426
30	0x3f3b1782	0.73082745
31	0x3f45be3a	0.7724339
32	0x3f3bc180	0.7334213
33	0xbf4d0d71	-0.80098635
34	0xbf5c86c4	-0.86143136
35	0xbf37a952	-0.7174274
36	0x3f716478	0.9429393
37	0x3f29bfe3	0.6630842
38	0x3f27b316	0.6550764
39	0xbf3a7726	-0.72838056
40	0xbf3e5a54	-0.7435658
41	0x3f3d6380	0.7397995
42	0x3f8414ec	1.0318885
43	0x3f9045de	1.1271322
44	0xbf6fe2ef	-0.9370565
45	0x3f44e24e	0.76907814
46	0x3f2e1245	0.6799663
47	0x3f285338	0.6575198
48	0xbf4e602b	-0.8061549
49	0x3f3f48cd	0.7472046
50	0x3f4fd55e	0.8118495
51	0xbf40960a	-0.7522894
52	0x3f4c5d72	0.79830086
53	0xbf44b4a2	-0.76838124
54	0x3f4ca402	0.79937756
55	0x3f6ded18	0.929399
56	0xbf3d45cd	-0.7393463
57	0xbf3f21f7	-0.746612
58	0xbf518737	-0.81846946
59	0x3f3f881a	0.7481705
60	0x3f553dad	0.83297235
61	0x3f3125bd	0.6919821
62	0x3f365d68	0.71236277
63	0x3f19c567	0.6006684
64	0x3f27b38f	0.6550836
65	0xbf318713	-0.6934673
66	0x3f2c1b9e	0.6722964
67	0xbf44daed	-0.76896554
68	0x3f00066f	0.50009817
69	0x3f39d2c9	0.7258726
70	0x3f3e452e	0.7432431
71	0xbf220968	-0.632956
72	0x3f37a399	0.71734005
73	0xbf607c16	-0.8768934
74	0xbf64a8ff	-0.8932037
75	0xbf420fef	-0.7580556
76	0x3f449388	0.76787615
77	0x3edd6867	0.43243715
78	0x3f2fccc2	0.6867181
79	0x3f344d4b	0.7043044
80	0x3f3ef890	0.74598026
81	0xbf3c7ec1	-0.7363091
82	0xbf192d02	-0.598343
83	0xbf3fe6f8	-0.74961805
84	0x3f54facc	0.83195186
85	0xbf1f245d	-0.6216486
86	0x3f22e99f	0.6363773
87	0x3f492349	0.78569466
88	0x3f22cd7c	0.63594794
89	0xbf4ac1f9	-0.7920223
90	0x3f3de938	0.7418399
91	0xbf45e710	-0.773057
92	0xbf40c176	-0.752952
93	0x3f869cf9	1.0516654
94	0xbf92250b	-1.1417555
95	0x3f32409a	0.69629824
96	0xbf3b20d7	-0.73096985
97	0x3f7c1f0d	0.9848488
98	0x3f2f5c31	0.6850005
99	0xbf6cd406	-0.9251102
100	0xbf33a218	-0.7016921
101	0x3f39bf69	0.72557694
102	0x3f2b5b8c	0.66936564
103	0x3f45aeef	0.7722005
104	0xbf46187c	-0.7738111
105	0xbf2e1ff9	-0.68017536
106	0xbf2a1c80	-0.6644974
107	0xbf3c73c0	-0.7361412
108	0x3f468712	0.7754985
109	0x3f42c285	0.76078063
110	0xbf4b2b52	-0.79362977
111	0x3f52bb0a	0.8231665
112	0x3f3fcdc1	0.7492333
113	0xbf3c97f6	-0.73669374
114	0xbec78133	-0.3896576
115	0x3f324f32	0.6965209
116	0x3f4126d3	0.75449866
117	0x3f35b437	0.7097811
118	0xbf21efc9	-0.6325651
119	0xbf422af1	-0.75846773
120	0xbf3ea9d1	-0.7447787
121	0x3f3c4328	0.7353997
122	0xbf914b3c	-1.1351085
123	0x3f3296f5	0.6976159
124	0xbf346db9	-0.70479923
125	0x3f4481b1	0.76760393
126	0xbf4c8ca6	-0.7990211
127	0xbf54e7ba	-0.83166087
128	0xbf3fd8b3	-0.7494003
129	0xbf2e9226	-0.68191755
130	0xbf4d5c2d	-0.80218774
131	0x3f1939d1	0.59853846
132	0xbf42e767	-0.7613434
133	0x3f3b195d	0.73085576
134	0xbf5993bf	-0.8499107
135	0x3f47670c	0.7789161
136	0xbef819df	-0.48457238
137	0x3f3a6884	0.7281573
138	0x3f45f8f3	0.7733299
139	0xbf796ba5	-0.9742988
140	0x3f4bf155	0.7966512
141	0x3f4d659a	0.80233157
142	0xbf46c987	-0.77651256
143	0xbf3e2c6a	-0.7428652
144	0x3f40935a	0.7522484
145	0xbf315525	-0.69270545
146	0xbf13d04e	-0.5773972
147	0x3f4c56e4	0.79820085
148	0x3f4001d0	0.75002766
149	0xbf85add1	-1.044367
150	0xbf4d6698	-0.8023467
151	0x3f76f37a	0.96465266
152	0x3f337d0e	0.70112693
153	0x3f4d67be	0.80236423
154	0xbf50334d	-0.8132828
155	0x3f3cf302	0.738083
156	0xbf36bde8	-0.71383524
157	0xbf2519de	-0.64492595
158	0x3f2f4874	0.6846993
159	0x3f493d06	0.7860874
160	0x3f2e8eb2	0.68186486
161	0xbf12145e	-0.5706233
162	0xbf96556d	-1.174482
163	0xbf3c08b3	-0.73450774
164	0x3d674660	0.0564636
165	0x3f40a388	0.7524953
166	0x3f46d703	0.7767183
167	0xbf39a8be	-0.72523105
168	0xbf327acf	-0.6971864
169	0x3f2409ef	0.6407766
170	0x3f717173	0.94313735
171	0x3f51eba0	0.8200016
172	0xbf8a10af	-1.0786341
173	0x3f30047f	0.6875686
174	0x3f37697d	0.7164534
175	0x3f431d52	0.76216614
176	0xbf47f334	-0.78105474
177	0x3f38cb75	0.7218545
178	0x3f497f76	0.78710115
179	0xbf2b8156	-0.66994226
180	0x3f51be97	0.8193144
181	0xbf452fb9	-0.77025944
182	0x3f316b3a	0.6930424
183	0x3f7f0646	0.9961895
184	0xbf3dc71a	-0.7413193
185	0xbf36fab5	-0.714763
186	0xbf512c77	-0.8170847
187	0x3f510c10	0.8165903
188	0x3f309c41	0.68988425
189	0x3f47471d	0.77842885
190	0x3f280760	0.65636253
191	0x3fab3124	1.3374372
192	0x3f4ab0cb	0.79176015
193	0xbf2f863c	-0.685642
194	0x3f4a7b4c	0.79094386
195	0xbf460fc3	-0.773678
196	0x3f045cdd	0.517042
197	0x3f378af1	0.7169638
198	0x3f2ea1b1	0.6821547
199	0xbed7abc8	-0.42123246
200	0x3f32a3fd	0.69781476
201	0xbf349987	-0.70546764
202	0xbf141d0c	-0.5785682
203	0xbf3cafac	-0.73705554
204	0x3f3b507a	0.7316967
205	0x3ebfad93	0.37437114
206	0x3f372fb5	0.7155717
207	0x3f2a264b	0.6646468
208	0x3f43a2a3	0.7642004
209	0xbf3f3c54	-0.7470143
210	0xbf38f7b0	-0.7225294
211	0xbf4d0d76	-0.80098665
212	0x3f35bc9b	0.70990914
213	0xbf9be133	-1.21781
214	0x3f512ca3	0.81708735
215	0x3f32c324	0.6982901
216	0x3f77dbe4	0.968199
217	0xbf40416c	-0.75099826
218	0x3f435bcb	0.7631194
219	0xbf4bde5b	-0.7963616
220	0xbf3a407b	-0.7275464
221	0x3f73e26e	0.9526738
222	0xbf42c2b7	-0.7607836
223	0x3f3e83cd	0.7441986
224	0xbf2a69fa	-0.6656796
225	0x3f882dc9	1.0638973
226	0x3f3f549b	0.7473847
227	0xbdfd57ae	-0.12370239
228	0xbf4b147a	-0.7932812
229	0x3f403c87	0.7509236
230	0x3f4874fd	0.7830351
231	0x3f328597	0.6973509
232	0xbf4e111a	-0.80494845
233	0xbf481289	-0.7815328
234	0xbf405b64	-0.7513945
235	0xbf4467b0	-0.76720715
236	0x3f381296	0.7190336
237	0x3f53c191	0.82717234
238	0xbf545621	-0.8294392
239	0x3f26120e	0.648713
240	0x3f2a4fd0	0.66528034
241	0xbf419d65	-0.7563079
242	0xbf2a03a1	-0.6641179
243	0x3f2b5323	0.6692373
244	0x3f3ad344	0.72978616
245	0x3f413966	0.7547821
246	0xbf4b0b09	-0.79313713
247	0xbf31f21f	-0.6951007
248	0xbf3bee61	-0.7341061
249	0x3f3e9743	0.7444956
250	0xbf703d35	-0.93843395
251	0x3f498ce1	0.7873059
252	0xbf3fc2cc	-0.7490661
253	0x3f4022f4	0.75053334
254	0xbf4e6c55	-0.8063405
255	0xbf241fb6	-0.6411089

fc.4.bias f4 [2]
0	0x3f0aef72	0.54271615
1	0x3f1b4993	0.6065914
