1.DQN/ckpt/CartPole-v1-DDQN_episode_240_reward_476.pth (torch, 72776 bytes, 6 tensors)

fc.0.weight f4 [128, 4]
00000000: 25e3 a6ba ee9a ecbe ddc5 ccbd 5023 32be
00000010: 6e9d 9d3e 3bbd 293e f41f ab3e 3c67 e93e
00000020: 77dd de3d 1f7c e03e 49cf 203e 7c1f 083f
00000030: f4a2 b33e c0f7 3b3e 9fbb aa3c f124 34bd
00000040: 8ade 9a3e 5231 513e c953 d53e 8006 f1bd
00000050: ac00 49be 47b5 24bf 3620 1fbf e066 97be
00000060: c129 aabd 8d56 a83e fa63 b23e c696 6f3e
00000070: 03ea 65be f979 63be 51ce 8ebe d4bf 93be
00000080: f3e9 3fbe 3425 2e3e f12a fbbd c97b 98be
00000090: 7df2 533e bdf5 a5be aeb8 4ebf dc26 08bf
000000a0: 541a c53d 9538 d0be 8ac3 eebe 53d9 643e
000000b0: ef9d b6bb b078 423e fced 41bf ba29 a9be
000000c0: 2de3 f1be a6d7 fc3e df9f 553f 8d39 ed3e
000000d0: d527 c03e 8bcc 0fbe e63e e4be 3314 d0be
000000e0: b48b 02be c70c b8be c3d9 4dbf b7ad 93be
000000f0: 5bd6 843e 208b 1a3f 41d8 56bd 9732 9b3e
00000100: 4dc8 cfbe d5b2 be3e 7a93 bd3e d1c2 9f3d
00000110: c90c 20be 14dd 81be 724b f3be 50e2 e63e
00000120: 0210 d53e 4f29 a4be d908 62bd ac5f d8be
00000130: b9c6 323d 9689 743e 3e4b 253e e10f 863b
00000140: 2925 6fbe 7f91 acbd d567 6bbe acb6 61be
00000150: 4c7c 01bd 5e4b 0ebf c92b 823e 32f0 843e
00000160: 7836 19be d2e2 923d f0b7 a33d 55bb 813e
00000170: 84b0 183e c87e a8be 7a58 033e f2a0 f23e
00000180: 6dde dcbd ce2e 163f a40b 6bbe 69b0 b9be
00000190: 4bff 92bd db96 2ebd b4a7 88bb 0022 2ebe
000001a0: 2e9c 133e 696b 943e 9dcf 833f 483e bf3e
000001b0: 0533 bf3d 2a21 eebe 7622 f93e e92d 053f
000001c0: 608f 023e fec9 05bd aef2 b2be a410 fdbe
000001d0: 54d6 a6be aa19 673d 34b5 953b 038c aabb
000001e0: 16c0 d03d 7af8 bf3e 7ae8 ce3e 232c 073e
000001f0: d5fb b53e 6151 a8be dd3c d53e 0b19 9f3e
00000200: 8f7c b03e 2f47 02be 7c1f d43e e561 843e
00000210: 4f79 053f d5f5 b63e 5170 df3e 1421 98be
00000220: 7ba7 bc3e 65a8 8b3e 4123 243f c79e 0bbd
00000230: 1217 353f f0ba 00bd 244c 443d bb2f 4dbe
00000240: 2f70 4b3e 4a8d 913e 76fc 48be cf78 f3be
00000250: bc0a 053f 9518 c03d 1f29 cb3e c24b 5fbe
00000260: 5835 5f3d dbd9 2f3e a60b b63e f6fd 083f
00000270: ccc7 a4be cac2 143e aa41 0cbf 136e 9ebe
00000280: e216 863e 037b 1b3e 48a2 6abe 0610 95be
00000290: e4f5 1f3f 9e08 563e aa10 9c3d 0eb8 8bbd
000002a0: 1124 dbbe f981 42bd ed10 02bb 4833 f6be
000002b0: 774a cbbe f5a1 793c 87c0 3c3f 1ae1 993e
000002c0: ff90 ff3e 7730 bcbe 987e abbe 3544 b5be
000002d0: 664a d93e 5bc4 973e f3fd e3be ba5e 0dbf
000002e0: c8fd fd3b a406 143e b6e2 10bf 0428 5ebe
000002f0: a1e3 193f 7726 ec3e 018a d43d 688e ff3e
00000300: 6c99 003e 141e 983c 1a11 343f 295c 9c3e
00000310: 3fa9 88bd f602 c73e 4e0d 4dbe db64 733e
00000320: 1b9b 7b3e 4008 c93d 402c 243f 8f48 373e
00000330: 684e 6bbe 532b c93e 470d b13e f4cb 2abe
00000340: 91ca 073f 8cf1 33bf ddb4 3ebf 94c2 e6be
00000350: e174 fd3e 088a febe a0b2 0fbf df0e a6be
00000360: 818b 113f 1703 193f 657a 9ebe fc5c 833e
00000370: 6f71 03be a96e a63d f3f2 113f c85a 133e
00000380: 4997 20bf ca22 013c 892c 083e 07aa babd
00000390: fa57 95be bfb3 a7be 48f5 1abe 5ba6 87be
000003a0: bb26 1e3e afb4 a6be 8a54 003c 1dd8 5a3d
000003b0: 5ac1 d6bd ffda 1fbe 303f 3bbe 7e35 9abe
000003c0: bc0c 83be 62cb 723e fc41 43bd aaa1 d4be
000003d0: 7880 9a3e 48eb 313e 1f2b f8be 2309 96bd
000003e0: de58 193e 3b76 b4be bb75 aa3d 5c29 94bd
000003f0: cb3a ff3e dbdf 0d3f 1809 98be 62a6 d73e
-0.0012732489 -0.46211952 -0.09998677 -0.17396283 0.30784172 0.16576092 0.33422816 0.45586574
0.10882085 0.43844697 0.15704073 0.5317304 0.3508526 0.18356228 0.020841418 -0.043980543
0.3024791 0.2042897 0.41665486 -0.11768818 -0.19629163 -0.6433911 -0.62158525 -0.29570675
-0.08308745 0.32878533 0.348419 0.23397359 -0.2245255 -0.22214498 -0.27891782 -0.2885729
-0.18741588 0.1700638 -0.1226405 -0.2978194 0.2069797 -0.32414046 -0.8075055 -0.53184295
0.09624162 -0.4066817 -0.4663356 0.22348528 -0.0055730264 0.18991351 -0.7575376 -0.33039647
-0.47243634 0.49383277 0.8344707 0.4633297 0.3753039 -0.1404287 -0.44579238 -0.4064041
-0.12748605 -0.35947248 -0.80410403 -0.2884347 0.2594479 0.6036854 -0.05245233 0.30312034
-0.40582505 0.37245813 0.37026578 0.0780083 -0.15629877 -0.25363982 -0.47518498 0.45094538
0.41613775 -0.32062766 -0.05518422 -0.42260492 0.043646548 0.2388061 0.16141984 0.0040912484
-0.23354019 -0.08426189 -0.22988828 -0.2204234 -0.03161268 -0.5558375 0.2542403 0.25964504
-0.14962184 0.07172169 0.07994068 0.25338235 0.14911085 -0.32909226 0.1282672 0.47388417
-0.10784612 0.5866517 -0.2295366 -0.36267403 -0.071775995 -0.042624336 -0.0041703824 -0.17005157
0.14415047 0.28988197 1.0297734 0.37352204 0.09335903 -0.46509677 0.48659104 0.5202318
0.12750006 -0.032663338 -0.34950775 -0.49426758 -0.32585394 0.05642096 0.0045687202 -0.005204679
0.101928875 0.3749426 0.4041174 0.1320043 0.35543695 -0.32874587 0.41647997 0.31073794
0.3447003 -0.12722467 0.4143027 0.25855938 0.5213823 0.3573443 0.43640378 -0.29712737
0.36846527 0.27276912 0.64116293 -0.03408697 0.7073833 -0.031428277 0.047924176 -0.20037739
0.19867013 0.28428108 -0.19627556 -0.47553107 0.51969504 0.09379689 0.3967981 -0.21806243
0.054494232 0.17172949 0.35555762 0.53512514 -0.32183683 0.14527431 -0.54787695 -0.30943355
0.26189333 0.15183644 -0.22913468 -0.29113787 0.62484574 0.20901725 0.07620366 -0.06822215
-0.42800954 -0.047487233 -0.0019846514 -0.48086 -0.3970525 0.0152363675 0.73731273 0.3005455
0.4991531 -0.36755726 -0.3349502 -0.354036 0.42439574 0.29641995 -0.44529685 -0.55222666
0.0077512003 0.14455658 -0.56595933 -0.21694952 0.6011296 0.46123096 0.10377885 0.49913335
0.12558526 0.01856903 0.70338595 0.30539063 -0.06672906 0.38869447 -0.20024607 0.23768942
0.24570887 0.09816027 0.6413002 0.17898773 -0.22979128 0.39290866 0.34580442 -0.16679364
0.53043467 -0.70290446 -0.74494725 -0.45070326 0.49503234 -0.49714684 -0.56131935 -0.3243322
0.5685349 0.5977034 -0.30952755 0.2565688 -0.1283624 0.081265755 0.57011336 0.14390099
-0.6273084 0.0078818295 0.13298239 -0.091144614 -0.29168683 -0.32754323 -0.1513263 -0.26494107
0.15444462 -0.32559726 0.007832656 0.053428758 -0.10486098 -0.15610884 -0.18285823 -0.30118936
-0.25595653 0.23710397 -0.04767035 -0.4152959 0.3017614 0.17374909 -0.484704 -0.073259614
0.14975306 -0.35246453 0.083232366 -0.07234451 0.49849543 0.554197 -0.29694438 0.42119128

fc.0.bias f4 [128]
00000000: 2b00 903e 14d4 debe bec1 0e3f d4d4 04bf
00000010: 2b4c 1abf a2f2 83be cc7a d43e 3b87 fabe
00000020: 6ea6 453e 5e10 e1be 6ba0 1b3f a144 203f
00000030: 9c94 763e 644c f9be ebf2 373e 3509 883e
00000040: 724c c33e 0b04 de3e 3da8 163f 45c4 d93e
00000050: d2f3 22bf dd38 8e3e d1f3 a9be 7b3d 0b3f
00000060: ed66 f1be 5b64 e03e 0984 c73d 4700 1b3f
00000070: 8d07 9cbe 30e8 0abe 63fd 8fbe 0733 ba3e
00000080: 56b0 183f 7f16 1b3f af7e 683e d1c7 083f
00000090: 95c2 65be aeaa 8c3e 0914 283f aa3f 053f
000000a0: c88c bfbe 6733 193f 83a8 10bf 1e65 25bf
000000b0: d80c dfbd 9784 17be adb1 283e 991e 0f3f
000000c0: 1742 c3be 6ff0 493e 3ffc d1be 87ee 003f
000000d0: cd17 47bd 4da3 05be 98f5 0f3f eac6 cabe
000000e0: f329 a9bd c634 f03e 5f6c abbe 4082 0b3f
000000f0: 61b2 b63e ad77 b23e e810 e93e ee2d 0a3f
00000100: 9666 c0be 6b99 18bd 72cd 0ebf 68d2 10bf
00000110: fbea df3e 7f26 ac3e b8e5 83be 6942 013f
00000120: 95b6 f63e 9ed5 32bf 16fa 7dbe 7e0f 6c3c
00000130: f56c 213f 0564 f6be 84e9 8abe 6952 4cbe
00000140: a47a 8cbe 4561 8f3e 00a4 60be a18c 183f
00000150: bda2 163f fe52 053f 7697 903e f473 c7be
00000160: cd05 183f d316 7d3e 2b57 f13e 264d f63e
00000170: b1cc cb3e 2e67 643e dd1e 87be 36e8 113f
00000180: 8430 91bd 7eec 2fbe 2e11 49be 7224 bbbe
00000190: 0fa0 14be 8f14 463e ba7c 8cbe 642d 243f
000001a0: 5ff8 e2be a89c b2be 6112 233f e60d 023f
000001b0: b117 09bf 26a7 e63e 2f41 133f cdc4 2ebe
000001c0: 2be9 9abe 01c3 99be 19fe b7be d6ed 103f
000001d0: d4e2 c93e 9c01 a53e dc34 8dbd 2a27 993e
000001e0: cfc6 8c3e 5737 24bf ecf7 b03e 1a13 babe
000001f0: a4f2 e43e 10cc d8be c6bf bebe 918c 223f
0.28125128 -0.43521178 0.5576438 -0.5188725 -0.60272473 -0.25771052 0.41499937 -0.48931298
0.19301769 -0.439578 0.60791653 0.6260472 0.24080127 -0.48691094 0.1796376 0.26569524
0.3814426 0.4336246 0.5885046 0.42532554 -0.6365329 0.27777758 -0.3319383 0.54390687
-0.4714884 0.43826565 0.097419806 0.605473 -0.3047451 -0.13565135 -0.28123006 0.36367056
0.5964407 0.605812 0.22704576 0.53429896 -0.22437508 0.27473968 0.6565557 0.5205027
-0.37412095 0.5984406 -0.5650713 -0.6460742 -0.108911216 -0.14796673 0.16474028 0.55906063
-0.3813636 0.19720624 -0.4101276 0.50363964 -0.048606683 -0.13050576 0.5623412 -0.39604884
-0.08259954 0.46915263 -0.33481118 0.5449562 0.35682967 0.3485693 0.4552071 0.53976333
-0.37578267 -0.037255686 -0.55782235 -0.56571054 0.43733963 0.3362312 -0.257612 0.5049196
0.48186174 -0.69857204 -0.24802431 0.0144079905 0.6305688 -0.48123184 -0.27131283 -0.19953312
-0.27437317 0.28003898 -0.21937561 0.5958958 0.5884207 0.5207976 0.28240556 -0.38955653
0.5938385 0.24715738 0.47136816 0.48105735 0.39804605 0.22304985 -0.26390734 0.5699495
-0.07089332 -0.17180058 -0.1963546 -0.36551243 -0.14514183 0.1934378 -0.2743891 0.6413176
-0.44330117 -0.34885144 0.6369992 0.5080246 -0.53551775 0.450494 0.5752134 -0.17067261
-0.30256018 -0.3003159 -0.3593605 0.5661291 0.3943087 0.3222779 -0.06894848 0.29912692
0.2749543 -0.6414694 0.3456415 -0.36342698 0.4471637 -0.42343187 -0.37255687 0.6349574

fc.2.weight f4 [128, 128]
00000000: 3b30 d7bd e384 653e ee39 8fbd 528c a63c
00000010: 0d6f f03d e0f7 7c3d 538c bfbe 350d eb3d
00000020: 114c d1bd 49df 803e 5dd8 81bc 2e76 87be
00000030: 0cf2 e1bc be5c 5dbc 85ad 87be 2ee0 47bd
00000040: 204a 05bb 9120 a3bd 8ef8 99be 8fb5 93be
00000050: cb93 e23e 57ac 09bd a740 4c3e 8de7 05bd
00000060: 812f a1bc 5054 03be 77fa f9bc d625 23bd
00000070: 0f9e af3c ae65 e83e d43d 943d c09d 05be
00000080: 8701 81be d146 6abe 8cee 053c 0939 a9be
00000090: cd22 6b3c c7f1 83be 6652 87be 5753 43be
000000a0: a2cc a73c 6a3b 25be 0d74 843e c692 103f
000000b0: 0ec7 17be 4d65 093d 20a1 0cbd 5fb4 09be
000000c0: 245a 4e3e 724a 3dbd 32fd 453e 5543 0ebe
000000d0: 26d7 09bd dc81 c3bc 183c 1bbe a008 823e
000000e0: 245e 333e aa09 b6bd aed7 5d3e 5f59 6ebe
000000f0: 1361 443c a85f 99be fc2e 013d 1bfc cbbd
00000100: 1388 7e3d 76b2 6dbd 29aa 3f3e 9971 cebc
00000110: bd9b 01be 5549 75bd bce3 04bd 39dd 50bd
00000120: e346 92be e36c 583d 5677 e0bc 9ace d63d
00000130: 99db 3f3d 7756 713e 6c49 553e eaf2 5d3e
00000140: 39b4 2a3e fc74 88be 09cf 923e 3230 22bf
00000150: 1690 25be f60c 3fbe 6ee8 a5be 4300 2a3e
00000160: 0af9 15be 5039 cc3d a459 29be 0898 a5be
00000170: 05b3 5ebe 1039 f5be 78bf e73e 0f1e 89be
00000180: 56b7 ce3d 56ed 433e ed99 a93e 7aec c13d
00000190: 8387 1c3e 1831 64be 05ae 17bc bf4d a1be
000001a0: e4d1 4bbd b03b acbc c92b 5dbd ea73 90be
000001b0: 020d 613e 8221 d3bd e0c8 b83c afc4 2c3d
000001c0: 52d1 fa3d 4d62 18bd 0bbd 6c3e a863 c7be
000001d0: 7cb0 33be 3172 c8bd 3e7f d83d 16a2 a9be
000001e0: 9722 5abd c7f4 ce3d a51e a4bd 3943 863b
000001f0: e707 9b3d afe2 413e 0559 673e 8f2f 0fbe
00000200: 5343 d1bc 3db2 48be 2bb8 853e 281d 93bb
00000210: c437 92bd d8fa bbbc 4e22 053e dcaa 4dbe
00000220: d1aa eeba 78f5 73be 1540 e73c d2c7 563e
00000230: f021 2ebd 29b3 ab3c 0455 833e 5605 703d
00000240: d829 8abc 4e18 1f3d 07e7 ef3e 543d 153e
00000250: df0f a2be e6cd ce3c f357 a3be 320a 443d
00000260: 35c8 373b 946b 483e 94ff e03d cd17 8b3d
00000270: 7b91 1cbd 78c5 a9be 6a82 c6bd 91db 353e
00000280: 0c08 513e 475c 7a3e 0c3f 9a3c 741c b43e
00000290: 6273 8fbd 8be2 003e 0283 913e 0c7c 723e
000002a0: b4b0 81bc ff77 a63e 284c 68be 1dea debe
000002b0: 14b1 9f3d ca0c 81bd 4a12 f63b 5e31 133e
000002c0: 8190 f0bd 8ea2 483e 0cd4 dbbe f510 373e
000002d0: 9ab4 32bd 2acb e63d 4f8c 863e a502 e8be
000002e0: 64ec 12be 73b8 0f3e 9ddd aebd da40 ab3e
000002f0: 2c0a 61bc aa63 b43e 9762 3b3c 5826 943d
00000300: cfac 2bbe 927c 373d 65d8 43be 34f5 18be
00000310: 2b9e 173d cb67 113e a668 08be 6ee2 b4bb
00000320: 8d17 533e 8180 2dbd 3626 babd 2cc7 d6bd
00000330: c5ba 183d 23df 3cbe 3df3 f2bd 0137 f0bd
00000340: a73a 1abe 7681 8b3e c249 c6be a08c 073f
00000350: 490a 2f3e 4233 243e 45a4 5a3e bbdf 55be
00000360: 1648 933e fd67 7dbc c85f 7b3e cf66 a33e
00000370: e634 893e e038 0e3f 8802 b7be 0347 7d3e
00000380: 6c8f 9bbc 09d8 0fbe a7cc c9be c838 fbbd
00000390: 88c2 f8bc e4ee 8b3e c0cc c83d 03d7 d13e
000003a0: e857 f7bd ba35 b8bd 4c0d 463e bef5 9f3e
000003b0: d724 eabd 6c2c 5e3e 16c4 823d 53dd 92bd
000003c0: 823a 2bbd 5c45 a83a 789a 9ebe 44cc c03e
000003d0: c3fc df3d d9fc 483e 6f32 ea3b 2ac8 b33e
000003e0: 7e62 a13d 1bdf 25be 9c91 1e3e 8211 8bbd
000003f0: 4985 f93d 271e 3bbe 7d93 32be 625e 2e3e
-0.10507246 0.22413974 -0.06993471 0.020330582 0.11739931 0.06175983 -0.37411746 0.114771284
-0.10219587 0.25170353 -0.01585024 -0.2645735 -0.027581237 -0.013510881 -0.26499572 -0.04879778
-0.0020338371 -0.07965196 -0.30072445 -0.28849456 0.44253382 -0.03361162 0.19946538 -0.032691527
-0.019675972 -0.12825131 -0.030514939 -0.039831005 0.021437673 0.45390075 0.07238355 -0.13048458
-0.25196478 -0.22878577 0.00817455 -0.33051327 0.014351559 -0.257704 -0.26430053 -0.1907476
0.020483319 -0.16135946 0.2586979 0.5647396 -0.14822027 0.033543874 -0.03433335 -0.13447712
0.20151573 -0.046213575 0.19334868 -0.13892873 -0.033652447 -0.023865633 -0.15159643 0.25397205
0.1751638 -0.08888562 0.21664307 -0.2327628 0.011986035 -0.29955792 0.03153895 -0.09960195
0.06214149 -0.05803152 0.18717255 -0.025200652 -0.12657066 -0.059884388 -0.032443747 -0.050992224
-0.28569707 0.052838217 -0.027400654 0.10488625 0.046840284 0.2356814 0.2082879 0.21674696
0.16670312 -0.26651752 0.2867358 -0.6335479 -0.16168246 -0.18657288 -0.32403892 0.16601662
-0.14645782 0.09971869 -0.16538101 -0.32342553 -0.21747978 -0.47895098 0.45263267 -0.26780745
0.10093562 0.19133505 0.3312525 0.094689324 0.15286069 -0.22284353 -0.009257798 -0.31504628
-0.049760714 -0.021024555 -0.053996835 -0.28213435 0.21977618 -0.103091255 0.022556722 0.04217976
0.12246956 -0.037203122 0.23118989 -0.3894322 -0.17547792 -0.09787405 0.105711445 -0.33131474
-0.053255644 0.10105281 -0.080136575 0.004097369 0.075698666 0.18934129 0.22592552 -0.13982986
-0.025544798 -0.19599243 0.26117072 -0.0044895597 -0.07139543 -0.02294676 0.13001367 -0.20084709
-0.0018208866 -0.23824108 0.028228799 0.20974663 -0.042512834 0.020959454 0.256508 0.05859884
-0.016865656 0.038841538 0.46855947 0.14574176 -0.31652734 0.025244664 -0.31903037 0.047861286
0.0028042917 0.19572288 0.10986248 0.06791649 -0.03822468 -0.3315847 -0.09692843 0.17759539
0.20413226 0.24449264 0.018828891 0.35177958 -0.070044294 0.1258642 0.28420264 0.23680133
-0.015831329 0.32513425 -0.22685301 -0.4353799 0.07797447 -0.063012674 0.0075095044 0.14374301
-0.11746312 0.1959326 -0.42935216 0.17877562 -0.043629266 0.11269219 0.26278922 -0.45314518
-0.14347988 0.14035206 -0.08538363 0.33447915 -0.013735335 0.35232288 0.01143708 0.07233876
-0.1676514 0.044796534 -0.19125517 -0.14937288 0.037016075 0.1419975 -0.1332117 -0.0055201566
0.20614453 -0.04235888 -0.090893194 -0.10487208 0.037287492 -0.18444495 -0.118628 -0.11729241
-0.15061437 0.27247208 -0.38728148 0.5294895 0.17093767 0.16035178 0.21351726 -0.20886128
0.28765935 -0.015466687 0.24548256 0.31914374 0.2679817 0.55555534 -0.3574412 0.2473412
-0.018989287 -0.14047255 -0.3941395 -0.122666895 -0.030366197 0.27330697 0.09804678 0.40984353
-0.12077314 -0.089946225 0.1934101 0.31242174 -0.11432808 0.21696633 0.06385057 -0.071711205
-0.041803844 0.0012838054 -0.30977225 0.37655842 0.10936882 0.19627704 0.0071471254 0.3511365
0.07880114 -0.16198389 0.15485233 -0.06790449 0.12183625 -0.18273221 -0.17439075 0.17028192

fc.2.bias f4 [128]
00000000: e084 6ebc 7a9c 043e 6a50 ce3d 01c8 273d
00000010: c9c3 aa3d c962 e0bc 4b2f ffbd 033d f5bc
00000020: b3ff fbbd 06d0 0fbe db17 133e e2a2 c0bd
00000030: 2703 98bd 39eb 9a3d b512 6dbd 9a5f 8c3d
00000040: e87e c3bd f484 ecbd 5f6b 22be 81fe 3f3d
00000050: d42a d03b eee0 113e d0bd fb3c 5d96 cb3b
00000060: f936 9f3c f042 253e 259b 08be bfdc c8bd
00000070: 6f13 1ebe b515 373e f8d2 04be 3ffc 4b3d
00000080: a2c9 9f3d 035a edbd c05c 10bd 80c3 313e
00000090: 80c8 1f3e 9f0f e5bd e07c 493e 9d98 19bd
000000a0: 9064 aa3d ff8a f73d 8bcb fa3d 4651 04be
000000b0: 0a7e 083e 1323 01be 5e9e 46be 1a7b e73d
000000c0: eec7 053e bec1 f43d e808 ed3d 5257 af3d
000000d0: 7f2f d73d a6a0 f5bd 7aa4 10be 8214 71be
000000e0: feee 9c3d f8c0 c9ba 1b1e 08be c5fd b5bd
000000f0: 4d0b b4bc 5df9 f0bd 1f2c 5a3d 7aee 8ebd
00000100: 3d05 11be 3e07 37bd 02a4 303e 75e1 663d
00000110: 6ad4 adbd d2af 213d dda5 0d3e fbd3 563d
00000120: 3339 18be a465 b83c ea11 103c dfdc a23c
00000130: b800 eabd d5b3 0eba 14ec 6cbd 99ce 113d
00000140: f539 103e 121a 273d d0e0 f43d 413d ed3d
00000150: 6c7e 16bc 6d9f ba3d d663 6a3d 59d0 063e
00000160: 11e7 8b3d 6abe 89bd 8b70 ac3d cbde c7bd
00000170: ef9e 63bd c9de be3d 796f fcbd 5052 2e3d
00000180: 57ad b33d 9abe 89bd 1dd6 15be 9bac 483e
00000190: c671 0c3e c3bb 2ebd 85a0 f3bd 53b2 373e
000001a0: eae8 813d 7407 d73d 2cb0 a4bc 456a 383e
000001b0: 72b6 bc3c 342f 2cbd 6c03 133c 7a97 dabb
000001c0: d9b4 bfbd 1e3c 403d d277 043d 0913 c0bd
000001d0: 643e 563d ec02 b43d 87be 00be 9201 a2bd
000001e0: ec49 03bd 7800 e5bd be22 12be 6280 21be
000001f0: 2dc1 25bd 35dc ec3d 0d7c c83b 8db5 07be
-0.014558047 0.12950316 0.100739315 0.040962223 0.08338124 -0.027390854 -0.12460192 -0.02993632
-0.1230463 -0.14044198 0.14364569 -0.094060674 -0.07422476 0.075643964 -0.05787917 0.06854172
-0.0954569 -0.11548796 -0.15861271 0.046873573 0.0063527618 0.1424596 0.030730158 0.006212993
0.019435393 0.16138816 -0.13340433 -0.09807729 -0.15437101 0.17879374 -0.12971103 0.049801107
0.0780213 -0.11589434 -0.035244703 0.17359734 0.15603828 -0.1118462 0.19676542 -0.03749906
0.08319962 0.12087058 0.12245854 -0.12921628 0.1332933 -0.12611036 -0.1939635 0.11302777
0.13064548 0.11951016 0.11573964 0.08561577 0.10507106 -0.11993532 -0.14125243 -0.2354298
0.07662772 -0.0015392592 -0.13292734 -0.08886293 -0.021978045 -0.11766312 0.053264733 -0.069790795
-0.14162154 -0.04468464 0.17250064 0.056367356 -0.084877804 0.039474316 0.13832803 0.052448254
-0.1486557 0.022509404 0.008793334 0.01988071 -0.11425918 -0.0005443667 -0.05784233 0.035597418
0.14084609 0.040796347 0.11956942 0.11583949 -0.009185415 0.09112439 0.057224117 0.13165416
0.06831182 -0.06725772 0.08419903 -0.09759291 -0.055571493 0.09319837 -0.12325949 0.042558968
0.08773296 -0.067258075 -0.14632459 0.19597094 0.13715276 -0.042659532 -0.11895851 0.17939119
0.06343253 0.104994684 -0.020103537 0.18009289 0.023036215 -0.042037204 0.008972984 -0.0066708894
-0.09360666 0.046932332 0.032340832 -0.09378631 0.052305594 0.0878962 -0.1257268 -0.07910456
-0.03205292 -0.1118173 -0.14271066 -0.1577163 -0.04046743 0.11565439 0.0061183036 -0.1325285

fc.4.weight f4 [2, 128]
00000000: 55a0 51bf df5f 233f 12b9 2c3f 20e3 713f
00000010: 105d 483f ff5b 38bf 9fc9 22bf e44b 30bf
00000020: 5638 5abf 8428 79bf e0ff 333f c30d 4bbf
00000030: 5b26 22bf 30ae 193f b6ab fc3e d975 43bf
00000040: 1875 52bf c05c 78bf 8612 16bf 6371 45bf
00000050: 4ff4 26bf 0325 573f c442 4a3f d810 673f
00000060: 9643 503f d388 7c3f d36e 5abf 008a 44bf
00000070: 180f 39bf 1b21 253f 4d7f 4bbf 4a84 2f3f
00000080: 6c60 3cbf ab14 4ebf a1f2 49bf 5a8b 1d3f
00000090: ccda 1e3f be33 7fbf 5ed1 113f a21b 4e3f
000000a0: 7dd0 1e3f fb7b 393f b5f0 443f d6c4 5ebf
000000b0: ef98 4d3f bbe6 39bf e224 28bf 3151 283f
000000c0: d827 173f 18f2 3e3f 4929 0f3f 3fcd 333f
000000d0: 40ac 6f3f b29b 79bf d850 3fbf 717f 0abf
000000e0: 8dab 3b3f c6a0 39bf ca50 0fbf 2652 4d3f
000000f0: d596 40bf 8fcb 33bf 7b0c 3fbf 7d46 39bf
00000100: 8ce2 53bf 8c5b 583f decc 2b3f b91e 4b3f
00000110: 4262 393f d376 6e3f 25d3 753f 9e68 4a3f
00000120: 912a 39bf ce32 5f3f bcb8 2abf 737d 28bf
00000130: 51e7 3fbf 6f3f 5ebf 1a78 6dbf e516 173f
00000140: 49d4 343f 84e0 15bf 2ccd 753f 896f 5e3f
00000150: dcc7 48bf 3d01 33bf bc8b 3f3f c41f 1e3f
00000160: 007e 3b3f dd51 72bf 352c 373f 3d83 30bf
00000170: 0ed7 2dbf 02af 4b3f d384 41bf aea7 263f
00000180: 7204 3f3f 072f 36bf e395 31bf c16c 3a3f
00000190: 66f2 2c3f 1e89 3cbf e5b3 4dbf e4e4 1c3f
000001a0: d767 3f3f 7ecd 383f 6f77 4dbf d59f 5f3f
000001b0: f73a 3c3f 8e9f 3e3f e315 6abf 3b28 64bf
000001c0: a4f6 31bf 7a31 3a3f c14e 413f 0e67 49bf
000001d0: 7ec0 3b3f 3a73 463f 1c46 3dbf 094f 33bf
000001e0: 46dd 19bf 4672 36bf 5760 14bf e464 2bbf
000001f0: 8bf7 3abf 0415 663f b672 4dbf 389d 3fbf
00000200: ab75 11bf 14c0 5e3f c177 453f 757d 5b3f
00000210: 7f58 5a3f dc20 3cbf c1f8 4cbf 1712 44bf
00000220: bb24 b6be 2f91 6dbf a0f5 4c3f 3c98 14bf
00000230: a8c4 34bf eb8e 4e3f 079e 0f3f 1e2a 28bf
00000240: 12cd c7be 5443 6bbf a3ce 60bf 8fa4 31bf
00000250: 7974 5fbf a957 2f3f 0071 463f 34ce 753f
00000260: e1a0 193f 14ae 683f d6ea e4be 652a 51bf
00000270: 20ba 32bf 7035 5d3f c1c2 55bf 2de6 403f
00000280: ea70 4bbf 217e 26bf b150 1ebf 3d25 5c3f
00000290: b186 523f 1d85 70bf 0cd7 593f c6e5 433f
000002a0: b15e 553f 065b 493f f5f4 633f c06f 23bf
000002b0: f3a2 373f 8776 3fbf 52e8 5abf c310 393f
000002c0: d02c 413f 6049 543f 4ade 613f 496c 4e3f
000002d0: 2f1b db3e 6b5d 5cbf 2c71 51bf ee79 4bbf
000002e0: 1342 573f 0e8a 4bbf 157d 50bf 541c 4b3f
000002f0: b713 4bbf d2c7 62bf a2f2 50bf ffca 39bf
00000300: 318a 32bf 2c0e 9c3d 45e3 423f 8071 5e3f
00000310: f495 403f e1f6 743f 5df4 603f da7a 373f
00000320: dae8 4cbf 6fa0 0d3f cb1d 4dbf b06f 40bf
00000330: 9dbe 19bf a88f 5dbf b886 6dbf 39b1 4a3f
00000340: 7d16 4a3f 0f2e 313c 435d 663f 9c83 e03e
00000350: 2710 29bf 7f73 5ebf 11a5 303f 6339 4d3f
00000360: b81e 373f 0d11 41bf 2515 4a3f 1752 51bf
00000370: 73b3 4cbf 43db 273f 7b39 23bf 0f0a 433f
00000380: 81dc 503f 1c46 47bf 6145 46bf 6409 573f
00000390: 9c64 323f c1cb 46bf b3e3 10bf 9651 523f
000003a0: 8b88 473f c61f 493f 3a91 40bf 58c9 e03e
000003b0: 0f0e 3f3f 8b47 533f d4df 8dbe 677c 66bf
000003c0: 21c1 37bf 6f2d 333f e4c1 323f 3e75 58bf
000003d0: dc61 303f b6c2 2d3f c9be 4abf ec90 50bf
000003e0: 569a 5cbf b2a7 43bf ec44 4bbf f59b 47bf
000003f0: cc0a 44bf c240 573f 5a58 68bf 3b7a 42bf
-0.8188527 0.6381816 0.67469895 0.9448719 0.78267 -0.72015375 -0.635889 -0.688658
-0.8524221 -0.97327447 0.7031231 -0.79317874 -0.63339776 0.60031414 0.49349755 -0.76351696
-0.8220992 -0.97016525 -0.58622015 -0.7712614 -0.65216535 0.8404085 0.79008126 0.90260077
0.8135313 0.9864628 -0.85325354 -0.7677307 -0.72288656 0.6450364 -0.7949112 0.6856123
-0.7358463 -0.80500287 -0.7888585 0.6154076 0.6205261 -0.9968833 0.56960094 0.80510914
0.6203688 0.72454804 0.7692979 -0.870191 0.80311483 -0.7261769 -0.6568128 0.6574889
0.5904517 0.74588156 0.5592237 0.70235056 0.9362221 -0.975032 -0.7473273 -0.5410071
0.7330864 -0.72510946 -0.5598265 0.80203474 -0.7523015 -0.7023248 -0.7462842 -0.7237318
-0.8276756 0.8451469 0.6710948 0.79343754 0.72415555 0.9315006 0.96025306 0.79065883
-0.72330576 0.87186897 -0.6668813 -0.6581642 -0.74962336 -0.8681554 -0.92761385 0.5901931
0.7063642 -0.5854571 0.9601619 0.8688894 -0.7842996 -0.69923764 0.7482259 0.6176722
0.73239136 -0.94656163 0.7155183 -0.68950254 -0.6790627 0.79563916 -0.755933 0.6509961
0.7461616 -0.7116551 -0.69369334 0.72822195 0.6755737 -0.73646724 -0.8035262 0.6128676
0.7476782 0.72188556 -0.80260366 0.8735326 0.73527473 0.7446221 -0.91439646 -0.89123887
-0.6951697 0.72731745 0.75510794 -0.78672874 0.73340595 0.7751957 -0.73935103 -0.70042473
-0.6010326 -0.7126812 -0.579595 -0.6695082 -0.7303397 0.8987582 -0.8025316 -0.7484927
-0.5682017 0.8701184 0.77135855 0.8573831 0.85291284 -0.7348764 -0.8006707 -0.765901
-0.35574898 -0.9279966 0.80062294 -0.5804479 -0.70612574 0.80686826 0.56100506 -0.65689266
-0.39023644 -0.9189961 -0.878153 -0.6939172 -0.872871 0.68493134 0.77516174 0.96017766
0.60011107 0.9089062 -0.44710416 -0.81705314 -0.69815254 0.86409664 -0.83500296 0.7535122
-0.7946917 -0.6503621 -0.61841875 0.8599432 0.8223677 -0.93953115 0.8509376 0.7652248
0.8334761 0.78654516 0.8904565 -0.6384239 0.71733016 -0.74790233 -0.8551074 0.722912
0.75459003 0.8292446 0.8822981 0.8063398 0.42794177 -0.86080045 -0.8181331 -0.79482925
0.84085196 -0.7950753 -0.8144086 0.793401 -0.7932696 -0.8858615 -0.8162023 -0.7257537
-0.69742113 0.076198906 0.76128036 0.8689194 0.7522881 0.9568921 0.8787287 0.7167183
-0.80042803 0.5532293 -0.80123585 -0.7517042 -0.6005648 -0.8654733 -0.9278369 0.7917667
0.78940564 0.010814204 0.89986056 0.4385041 -0.6604027 -0.86894983 0.6900187 0.8016569
0.7153125 -0.7541664 0.78938514 -0.81765884 -0.7996132 0.6556894 -0.63759583 0.76187223
0.8158646 -0.77841353 -0.77449614 0.83998704 0.6968477 -0.77654654 -0.5659744 0.8215574
0.77942723 0.7856411 -0.752216 0.43903613 0.74630827 0.8253104 -0.2770983 -0.9003357
-0.71779066 0.699912 0.69827104 -0.845539 0.6889932 0.6787523 -0.79197365 -0.81471133
-0.86173 -0.7642776 -0.7940204 -0.77972347 -0.76578975 0.8408319 -0.90759814 -0.7596776

fc.4.bias f4 [2]
00000000: 5786 033f 3954 2f3f
0.5137686 0.6848789
