REINFORCE/ckpt/InvertedPendulum-v5_episode_6979_reward_955.pth (torch, 8560 bytes, 8 tensors)

fc.0.weight f4 [16, 4]
-0.05405157 -0.6596906 0.2767467 -0.17161013 0.47920224 0.31395876 0.028211368 0.4751431
0.032096215 0.54910964 -0.15796094 0.5407804 0.39200655 0.46463585 -0.09250182 -0.014709323
0.3299291 0.010090395 0.2934677 -0.26885265 -0.14087659 -0.69956225 -0.2450031 -0.34711125
-0.15153629 0.48819795 0.21694651 0.3109749 -0.13143544 -0.29576966 -0.16621989 -0.2502796
-0.25514945 -0.046690665 0.11072819 -0.34140992 0.21376899 -0.5203089 -0.5226476 -0.5154165
0.1049485 -0.665516 -0.34603247 0.1865183 -0.13055906 0.13341907 -0.43939245 -0.5284957
-0.45266107 0.59911585 0.4892441 0.5575076 0.32520977 -0.31274706 -0.31457794 -0.365359
-0.3398608 -0.4530382 -0.38413873 -0.24186768 0.13193125 0.7143887 -0.23455545 0.39194337
00000000: 2e65 5dbd 7ce1 28bf beb1 8d3e 91ba 2fbe
00000010: ff59 f53e 34bf a03e 871b e73c f545 f33e
00000020: 5277 033d 7392 0c3f 83c0 21be 9670 0a3f
00000030: 15b5 c83e c0e4 ed3e 9871 bdbd 5fff 70bc
00000040: 78ec a83e 2f52 253c 6641 963e 0ea7 89be
00000050: f441 10be 8316 33bf 18e2 7abe 91b8 b1be
00000060: 542c 1bbe 15f5 f93e 3a27 5e3e 1a38 9f3e
00000070: 0397 06be 1f6f 97be 8c35 2abe a624 80be
00000080: f3a2 82be b63e 3fbd 76c5 e23d 48cd aebe
00000090: 42e6 5a3e f732 05bf 3ccc 05bf 56f2 03bf
000000a0: 3def d63d 425f 2abf 2b2b b1be a7fe 3e3e
000000b0: 46b1 05be 029f 083e 0cf8 e0be 7f4b 07bf
000000c0: 31c3 e7be a85f 193f 347e fa3e d1b8 0e3f
000000d0: e581 a63e 6220 a0be 5c10 a1be 5610 bbbe
000000e0: 3c02 aebe 9ff4 e7be d5ad c4be 29ac 77be
000000f0: fc18 073e 2ee2 363f 4e2f 70be cdac c83e

fc.0.bias f4 [16]
-0.41419956 0.2946107 0.26084706 0.06893303 -0.10981812 -0.24622859 -0.44241896 0.45927447
0.2306645 -0.28730807 0.3034761 -0.42127556 -0.0883849 0.1983597 0.25370997 0.0058438084
00000000: f711 d4be 37d7 963e bf8d 853e c32c 8d3d
00000010: 53e8 e0bd 5923 7cbe bd84 e2be 0626 eb3e
00000020: 5133 6c3e 0b1a 93be 3861 9b3e 6eb1 d7be
00000030: 2403 b5bd ce1e 4b3e 46e6 813e 6b7d bf3b

fc.2.weight f4 [32, 16]
-0.015613827 -0.06285909 -0.16126679 -0.1313452 0.017429218 -0.13568117 0.1685186 0.121281594
0.03416905 0.11150432 -0.12990396 0.17489631 0.0032474406 -0.12578022 0.06054008 0.1308779
-0.035923317 0.16561018 -0.23997754 -0.18684807 -0.063353084 0.0925687 0.1295429 -0.0553456
0.058812626 0.15139203 0.21100384 0.25459036 -0.015140543 -0.18753159 0.2259356 0.122821674
0.06472063 0.006971868 -0.03273207 -0.24141607 -0.08066985 0.12578058 -0.14769813 0.05852775
0.15128523 0.23898412 0.0022251045 0.06302898 0.04112555 -0.06867763 0.2315361 0.02154845
0.0921779 -0.078523435 0.18055727 0.1670757 0.13091423 0.086136535 0.28655377 -0.23314653
0.059704967 -0.03377063 0.16691057 -0.019517547 0.30747476 -0.119380236 0.045599375 -0.02367781
0.11774298 0.119850546 -0.08300122 -0.22672574 0.13716263 0.12070652 0.18288489 -0.10073644
0.053499162 0.11608198 0.07990085 0.26768354 -0.28339925 0.19979168 -0.0083198985 -0.2430049
0.1536458 0.043106887 -0.10050177 -0.19559264 0.17529434 0.16427758 0.022586191 -0.020176642
-0.10690731 0.10078691 0.095920034 -0.15969633 -0.18660416 0.05883274 0.26605025 0.102660194
0.2609996 -0.12832206 0.03885367 -0.24608865 0.19108343 0.29892844 -0.18134561 -0.20776826
0.008319664 0.2231273 -0.05908863 -0.06778719 0.10627025 0.2006083 -0.033723876 0.14541
0.082111426 -0.07085979 0.15985715 0.13525125 -0.12628154 0.20292741 -0.18284841 0.14743933
0.19172148 0.071514405 0.17318784 0.069638506 -0.1949001 0.231124 0.3011676 -0.11798518
0.2417841 -0.27860606 -0.12459502 -0.2817116 0.20771489 -0.06181967 -0.06773071 -0.14320451
0.19140324 0.29672104 -0.15968172 0.13528062 -0.079533696 0.11836195 0.18686382 -0.0052595246
-0.179943 -0.10527556 0.07547615 0.098241664 -0.17643128 -0.10170177 0.145819 -0.0909523
0.11974789 -0.1028009 -0.11779189 0.06977895 -0.14589033 -0.044471275 0.08691599 -0.17150404
-0.11869055 0.124003455 0.099389955 -0.24145113 0.064351864 0.15581007 -0.16593537 -0.021015212
0.12048292 -0.105563246 0.12718052 0.038892426 0.063436724 0.2810798 -0.1740714 0.1302615
0.018957334 -0.031707432 -0.18508922 0.2534735 0.07586317 -0.089300856 -0.099024996 -0.25047716
-0.2566564 -0.20150235 -0.15298179 0.13206072 0.23659997 -0.080200315 -0.22150086 -0.032543395
-0.09010359 0.19063593 -0.12217398 -0.24151455 -0.15672328 0.11623276 0.15230548 0.22971776
0.14777358 0.24062902 0.17164066 -0.023204247 -0.09576489 -0.1185855 0.18460552 0.18509682
0.23977077 0.13150372 -0.15993041 -0.21020956 0.22872621 0.26543757 -0.011560046 -0.06206113
0.1988563 0.1634684 0.09582657 -0.0021737297 -0.26667663 -0.042745147 0.2809351 -0.04181157
-0.14993064 -0.27224135 -0.31033105 0.08333112 -0.12165986 -0.07270277 -0.23402248 0.25696105
-0.15858772 0.018188661 0.072408184 0.15357298 -0.31768683 0.093897395 -0.030205572 -0.106648825
0.034497872 -0.23214717 0.13648543 0.13585933 0.012266455 -0.14438137 -0.2602991 -0.12649703
0.24494457 0.07017178 0.24250284 0.04855445 0.047896534 0.019418739 -0.16170715 -0.24348131
00000000: 23d1 7fbc 44bc 80bd 1f23 25be 5b7f 06be
00000010: b8c7 8e3c 01f0 0abe 2490 2c3e 7c62 f83d
00000020: d9f4 0b3d 605c e43d 8b05 05be 0518 333e
00000030: 03d3 543b 88cc 00be e0f8 773d db04 063e
00000040: 5424 13bd b795 293e acbc 75be 1a55 3fbe
00000050: 43bf 81bd a994 bd3d e5a6 043e 11b2 62bd
00000060: 82e5 703d 8306 1b3e 6411 583e ab59 823e
00000070: 0a10 78bc 4808 40be a95b 673e ee89 fb3d
00000080: 408c 843d 4574 e43b 1012 06bd c635 77be
00000090: 3c36 a5bd a0cc 003e 2e3e 17be cbba 6f3d
000000a0: 84ea 1a3e 41b8 743e 0fd3 113b 5615 813d
000000b0: 4473 283d dba6 8cbd cd17 6d3e 6086 b03c
000000c0: c4c7 bc3d e5d0 a0bd 01e4 383e e415 2b3e
000000d0: 610e 063e 5a68 b03d 2db7 923e f7bd 6ebe
000000e0: 328d 743d 1253 0abd 9bea 2a3e 43e3 9fbc
000000f0: 556d 9d3e a07d f4bd 69c6 3a3d f7f7 c1bc
00000100: 3b23 f13d 3474 f53d 8bfc a9bd cb2a 68be
00000110: 5c74 0c3e fb34 f73d 2d46 3b3e e84e cebd
00000120: f021 5b3d 64bc ed3d 0fa3 a33d d10d 893e
00000130: b519 91be 3196 4c3e 2f50 08bc 47d6 78be
00000140: 5355 1d3e d990 303d dfd3 cdbd 7049 48be
00000150: 5c80 333e 6238 283e ad06 b93c 7c49 a5bc
00000160: 38f2 dabd 5e69 ce3d b971 c43d 6f87 23be
00000170: 2915 3fbe 99fa 703d bd37 883e 823f d23d
00000180: bda1 853e dc66 03be 0725 1f3d aafe 7bbe
00000190: 60ab 433e 260d 993e aab2 39be 34c1 54be
000001a0: 334f 083c 7c7b 643e eb06 72bd 03d4 8abd
000001b0: 38a4 d93d 436c 4d3e 0c22 0abd 5ce6 143e
000001c0: 092a a83d f01e 91bd 98b1 233e 4e7f 0a3e
000001d0: f34f 01be 34cc 4f3e 9d3c 3bbe 56fa 163e
000001e0: a352 443e 2576 923d 2758 313e a29e 8e3d
000001f0: e493 47be c5ab 6c3e a432 9a3e 37a2 f1bd
00000200: 4096 773e 74a5 8ebe ad2b ffbd 813c 90be
00000210: 36b3 543e 9f36 7dbd 66b6 8abd 34a4 12be
00000220: 36ff 433e d2eb 973e 9b83 23be 0187 0a3e
00000230: 90e2 a2bd c067 f23d 3b59 3f3e 1758 acbb
00000240: fa42 38be b69a d7bd 3d93 9a3d ed32 c93d
00000250: 67aa 34be 0549 d0bd 9351 153e 3345 babd
00000260: 623e f53d 4789 d2bd e03c f1bd 44e8 8e3d
00000270: 4664 15be 8327 36bd 0301 b23d c19e 2fbe
00000280: 0814 f3bd 86f5 fd3d f68c cb3d f73e 77be
00000290: e9ca 833d ad8c 1f3e f6ea 29be 1828 acbc
000002a0: c0bf f63d 8b31 d8bd 9c3b 023e aa4d 1f3d
000002b0: 1deb 813d b1e9 8f3e c63f 32be 4563 053e
000002c0: 694c 9b3c a7df 01bd 0788 3dbe 47c7 813e
000002d0: 265e 9b3d 5ee3 b6bd 9ecd cabd 8b3e 80be
000002e0: 7868 83be a256 4ebe 42a7 1cbe ed3a 073e
000002f0: 4347 723e 1040 a4bd 1fd1 62be 394c 05bd
00000300: 3b88 b8bd 1136 433e 5a36 fabd 974f 77be
00000310: 117c 20be 710b ee3d f8f5 1b3e 223b 6b3e
00000320: f551 173e 7467 763e 92c2 2f3e d516 bebc
00000330: 6220 c4bd f4dc f2bd 3b09 3d3e 058a 3d3e
00000340: 7886 753e e9a8 063e ccc4 23be 2d41 57be
00000350: 3437 6a3e 6fe7 873e 5966 3dbc d033 7ebd
00000360: fca0 4b3e 4364 273e b940 c43d 2275 0ebb
00000370: d789 88be 8915 2fbd bad6 8f3e 9c42 2bbd
00000380: 6b87 19be 3863 8bbe b6e3 9ebe 82a9 aa3d
00000390: ce28 f9bd 31e5 94bd 97a3 6fbe 6690 833e
000003a0: d264 22be 6300 953c be4a 943d 3c42 1d3e
000003b0: d9a7 a2be 474d c03d ad71 f7bc b36a dabd
000003c0: a44d 0d3d fdb7 6dbe d6c2 0b3e b51e 0b3e
000003d0: 3ef9 483c b6d8 13be ec45 85be 7088 01be
000003e0: c0d2 7a3e 39b6 8f3d aa52 783e 08e1 463d
000003f0: 282f 443d 0c14 9f3c 8f96 25be 2a53 79be

fc.2.bias f4 [32]
-0.05941757 0.034525886 -0.0266011 0.23556532 0.2483704 0.18985008 0.07034603 -0.12611869
0.25409716 0.016216638 0.13879248 0.15099315 0.16081937 0.024310082 -0.09549096 0.2627398
0.007627883 0.0078049856 -0.07242206 -0.07845295 0.012484188 0.031700596 -0.028983237 0.26763698
-0.15641652 -0.0360774 0.24145058 0.18291536 -0.1881641 0.15954411 0.20694041 -0.026362214
00000000: d65f 73bd 046b 0d3d 8dea d9bc 0938 713e
00000010: cf54 7e3e 0f68 423e 9411 903d 4225 01be
00000020: 0619 823e c1d8 843c 9e1f 0e3e f39d 1a3e
00000030: d5ad 243e f025 c73c c490 c3bd d585 863e
00000040: 52f3 f93b f7c0 ff3b 0452 94bd f1ab a0bd
00000050: 7b8a 4c3c 7cd8 013d 416e edbc b707 893e
00000060: a72b 20be e5c5 13bd d23e 773e 2a4e 3b3e
00000070: 17ae 40be 885f 233e 30e8 533e 92f5 d7bc

fc.4.weight f4 [16, 32]
-0.06870213 -0.06007609 -0.12720968 0.19248283 0.03369509 0.10551346 -0.043274518 0.04328862
0.030176237 -0.11961137 0.12198013 -0.06632692 0.09260282 -0.16263755 -0.1264604 0.20195393
-0.07789394 0.06613992 0.086397335 0.012722355 0.1284117 0.07476033 -0.09877707 -0.017933011
-0.18265355 0.091722414 0.11283962 -0.0066907215 -0.0033592796 -0.009898622 -0.01997218 0.052666426
-0.041429903 -0.14952323 -0.07713774 -0.05472408 0.035953455 -0.14390074 -0.16774853 -0.0671111
-0.17035416 -0.028404221 -0.045093324 0.06696409 -0.011073744 -0.063366175 -0.05768452 -0.01859335
0.049026456 -0.11984446 0.011051374 0.098139085 0.022414066 -0.21685918 -0.09186163 -0.015057779
-0.025575768 0.04554444 0.21735755 0.08140075 -0.108017646 0.273913 0.15929842 -0.10029342
0.017334143 0.1314042 0.062503025 -0.1582771 0.17722839 0.07265326 0.038398158 -0.025681248
0.13363558 -0.13461098 0.063181885 -0.22181268 0.14643858 0.21236609 0.2420967 -0.009493591
-0.2849343 0.017585646 0.034870543 -0.15839884 0.06087692 0.021595562 -0.14521766 -0.082888514
-0.056667306 0.10651582 -0.14734808 -0.14705002 0.1418407 0.030558908 -0.13806826 0.16265886
0.07187448 0.16962059 -0.054908685 0.05825354 -0.111440204 -0.18378657 -0.12459941 0.09078222
0.0011211209 0.11272196 0.039866045 0.11157377 -0.15476014 -0.021725321 0.0063871266 -0.16431504
0.1896035 -0.07032549 -0.07780766 -0.06434862 0.06406586 0.048352063 -0.111980684 -0.0075453487
-0.10630016 0.0122380685 0.09438587 -0.0902967 0.14334755 -0.074973494 0.15120383 0.10970569
-0.027170444 -0.09221976 -0.22982153 0.18352218 -0.25726292 0.023180822 0.10679191 -0.14720923
0.02206855 -0.017583396 0.09277093 -0.005733374 0.13153803 -0.04083455 0.006919106 -0.17392801
-0.024528874 -0.075895764 0.09224472 0.21387503 -0.008985148 -0.027288297 -0.12536757 -0.06637791
-0.082052104 -0.2260691 -0.07690307 0.024507577 -0.086291306 0.24259616 0.16565955 -0.11238648
-0.14164615 -0.07125099 0.23242888 -0.22576505 0.057589382 0.027865198 -0.12580277 0.016075565
0.24416809 0.04485889 0.12038714 -0.14239691 0.08030627 0.25875574 0.064288035 0.098944314
-0.2344963 0.10750645 -0.0032057248 -0.1961896 -0.010371376 -0.04854296 0.12383316 0.10504507
0.12537837 0.10426264 -0.107556954 -0.038541533 0.03645215 -0.17761156 -0.14429969 0.020735193
0.13347091 0.1381395 -0.068636134 -0.0264539 -0.03773273 0.15445478 0.14470643 0.037686646
0.010019535 0.069745846 0.12664898 0.10496994 -0.10927073 0.1853807 -0.044873282 -0.19044124
-0.17399915 0.13490386 0.17422375 -0.22404034 -0.123100795 0.23177373 -0.16767655 -0.1978191
0.07478308 0.16430524 -0.19541702 -0.07701092 -0.12966678 -0.11848453 0.04698933 0.08907447
-0.033461273 -0.15209381 -0.111994304 0.10244587 -0.11135098 -0.037017982 -0.13647412 -0.25632653
0.083519064 -0.029688144 0.030818472 -0.1102416 0.11820226 -0.04499793 -0.00473379 -0.08451811
0.26251516 0.11885811 -0.1856328 0.121590964 0.040285602 0.050592817 0.19483359 0.18953925
-0.22121818 -0.1588282 0.19019303 0.006629234 0.19352946 0.22969128 0.07560729 -0.09060422
00000000: b4b3 8cbd 5912 76bd 4143 02be 381a 453e
00000010: dd03 0a3d 7117 d83d 9f40 31bd 684f 313d
00000020: 2834 f73c cef6 f4bd b8d0 f93d 69d6 87bd
00000030: 8ca6 bd3d 758a 26be d67e 01be 03cd 4e3e
00000040: dc86 9fbd 5e74 873d 16f1 b03d 6d71 503c
00000050: 5b7e 033e f21b 993d a24b cabd 40e8 92bc
00000060: 8809 3bbe f6d8 bb3d 7518 e73d d73d dbbb
00000070: 5c27 5cbb d42d 22bc b29c a3bc c0b8 573d
00000080: 67b2 29bd 9e1c 19be 64fa 9dbd 5b26 60bd
00000090: ee43 133d b75a 13be 45c6 2bbe 8b71 89bd
000000a0: 5271 2ebe f8af e8bc c7b3 38bd 7824 893d
000000b0: a66e 35bc 20c6 81bd 9a46 6cbd 1551 98bc
000000c0: f7cf 483d 0371 f5bd d210 353c 25fd c83d
000000d0: b49d b73c 5510 5ebe f321 bcbd e7b4 76bc
000000e0: 4684 d1bc cf8c 3a3d fa92 5e3e 70b5 a63d
000000f0: 5b38 ddbd 533e 8c3e 201f 233e a366 cdbd
00000100: 5500 8e3c d38e 063e 9601 803d 6413 22be
00000110: 5c7b 353e 3bcb 943d 6347 1d3d 7b61 d2bc
00000120: c4d7 083e 76d7 09be 8165 813d dd22 63be
00000130: fff3 153e 7f76 593e 33e8 773e 028b 1bbc
00000140: e9e2 91be c60f 903c 6ad4 0e3d 4e33 22be
00000150: 145a 793d 2de9 b03c f0b3 14be 74c1 a9bd
00000160: fa1b 68bd f724 da3d 6ae2 16be 4894 16be
00000170: b03e 113e ad56 fa3c c461 0dbe 0b90 263e
00000180: ed32 933d 05b1 2d3e eee7 60bd 449b 6e3d
00000190: c33a e4bd 8c32 3cbe fa2d ffbd 07ec b93d
000001a0: 93f2 923a c5da e63d 944a 233d ca80 e43d
000001b0: 7179 1ebe 4df9 b1bc 1a4b d13b 3442 28be
000001c0: 6b27 423e cf06 90bd 9f59 9fbd 36c9 83bd
000001d0: f634 833d d00c 463d 2156 e5bd f93e f7bb
000001e0: e6b3 d9bd 2e82 483c 614d c13d 7aed b8bd
000001f0: b3c9 123e b48b 99bd 2dd5 1a3e 60ad e03d
00000200: 8d94 debc b7dd bcbd 5656 6bbe 3ded 3b3e
00000210: f7b7 83be b5e5 bd3c b8b5 da3d 04be 16be
00000220: 1bc9 b43c 0e0b 90bc affe bd3d 07df bbbb
00000230: e8b1 063e 2142 27bd abb9 e23b 2f1a 32be
00000240: c7f0 c8bc 3d6f 9bbd cdea bc3d 0e02 5b3e
00000250: 7136 13bc b58b dfbc 5b60 00be 24f1 87bd
00000260: ef0a a8bd a87e 67be 5b7f 9dbd 1dc4 c83c
00000270: 7fb9 b0bd 216b 783e a8a2 293e e22a e6bd
00000280: b00b 11be 0aec 91bd d601 6e3e f42e 67be
00000290: d8e2 6b3d 8e45 e43c 71d2 00be e7b0 833c
000002a0: 3307 7a3e f5bd 373d 888d f63d 7fd0 11be
000002b0: 9d77 a43d a27b 843e 72a9 833d 51a3 ca3d
000002c0: cc1f 70be 572c dc3d 2317 52bb ede5 48be
000002d0: b4ec 29bc fcd4 46bd 3d9c fd3d df21 d73d
000002e0: 3063 003e a787 d53d d246 dcbd badd 1dbd
000002f0: da4e 153d cedf 35be 4cc3 13be dadc a93c
00000300: 99ac 083e 7174 0d3e 1a91 8cbd d9b5 d8bc
00000310: a38d 1abd 6529 1e3e ec2d 143e 505d 1a3d
00000320: fa28 243c e9d6 8e3d 45b0 013e 7bfa d63d
00000330: 55c9 dfbd 70d4 3d3e 0ccd 37bd 0703 43be
00000340: d52c 32be 3d24 0a3e b667 323e d56a 65be
00000350: 451c fcbd 1856 6d3e 67b3 2bbe 1791 4abe
00000360: df27 993d a23f 283e 661b 48be e7b7 9dbd
00000370: 5ec7 04be 04a8 f2bd e277 403d ad6c b63d
00000380: b00e 09bd 7bbe 1bbe 455d e5bd 24cf d13d
00000390: fc0b e4bd 2ba0 17bd dfbf 0bbe 3b3d 83be
000003a0: 0b0c ab3d 8d34 f3bc 0577 fc3c 59c6 e1bd
000003b0: 0714 f23d c04f 38bd e91d 9bbb d517 adbd
000003c0: 6368 863e e16b f33d 8616 3ebe af04 f93d
000003d0: 8402 253d 6a3a 4f3d 7582 473e 9416 423e
000003e0: 0587 62be dca3 22be f6c1 423e 0c3a d93b
000003f0: 962c 463e 3134 6b3e ffd7 9a3d b58e b9bd

fc.4.bias f4 [16]
0.1472821 -0.044991683 0.06382473 0.04748282 0.0006586634 -0.1270034 0.05166238 0.06307618
-0.0002998776 -0.054543376 -0.12266079 -0.07230772 0.09471974 -0.051622204 0.097846456 -0.14797868
00000000: 1ed1 163e 3349 38bd 8ab6 823d 587d 423d
00000010: 27aa 2c3a 2e0d 02be ef9b 533d 162e 813d
00000020: e438 9db9 e068 5fbd 9535 fbbd 1216 94bd
00000030: 6cfc c13d ce71 53bd b963 c83d b987 17be

fc.6.weight f4 [2, 16]
0.07726325 0.1957988 -0.31535065 0.081329614 0.17345218 -0.32916585 -0.26004726 0.3234761
-0.25800037 -0.27837864 -0.18456163 0.35642734 -0.09674481 0.04462748 0.35582906 0.30113316
-0.26955026 -0.08132428 0.17429315 0.19777471 0.074075475 -0.05576933 0.23272756 -0.23971912
-0.17135231 -0.04225887 0.03839327 0.1922631 0.16677178 -0.1180767 0.049646366 0.06334361
00000000: 323c 9e3d 7b7f 483e a475 a1be 2490 a63d
00000010: 739d 313e 6d88 a8be ea24 85be a99e a53e
00000020: a018 84be a587 8ebe b9fd 3cbe a57d b63e
00000030: 2522 c6bd 4ecb 363d 3a2f b63e 202e 9a3e
00000040: 7e02 8abe 588d a6bd e779 323e 7485 4a3e
00000050: e2b4 973d 626e 64bd 2250 6e3e ee78 75be
00000060: fb76 2fbe a317 2dbd 4342 1d3d 9ee0 443e
00000070: 39c6 2a3e 32d2 f1bd fd59 4b3d 4bba 813d

fc.6.bias f4 [2]
-0.22434445 -0.073206834
00000000: 8dba 65be 77ed 95bd
