2.REINFORCE/ckpt/CartPole-v1_REINFORCE_episode_3352_reward_476.pth (torch, 72772 bytes, 6 tensors)

fc.0.weight f4 [128, 4]
0	0xbefbbc62	-0.49167162
1	0xbeb8b64b	-0.36076578
2	0xbf0a6ab9	-0.54069096
3	0x3d8c032b	0.06836542
4	0xbde541ab	-0.11194166
5	0x3c33c4c8	0.010972209
6	0x3d804398	0.062628925
7	0x3f0629ff	0.5240783
8	0x3e2100a0	0.15722895
9	0xbe14cb14	-0.14530593
10	0x3f0ab9ee	0.54189956
11	0x3ea0e180	0.31422043
12	0xbdfbb2a0	-0.122899294
13	0xbe3c02a9	-0.1836039
14	0x3f056f42	0.5212289
15	0x3c4acb1a	0.012377525
16	0xbe97f933	-0.2968231
17	0xbed441f0	-0.41456556
18	0x3d9122ca	0.070867136
19	0xbdeff98e	-0.11717521
20	0x3eeae42f	0.45877215
21	0xbd5735be	-0.052541487
22	0xbe8d22e2	-0.27565676
23	0x3cd6c4b3	0.02621684
24	0x3e9f5146	0.31116694
25	0xbef079bc	-0.46967876
26	0x3dd12dbb	0.102138005
27	0xbed5b937	-0.4174287
28	0xbd5dafa2	-0.054122575
29	0xbe03344a	-0.12812915
30	0x3eb20431	0.34768823
31	0xbf0398bd	-0.51404935
32	0x3eac7057	0.33679458
33	0xbe290fd6	-0.16509947
34	0xbdf05988	-0.11735827
35	0x3f097929	0.537005
36	0xbec818e8	-0.39081502
37	0x3ea2fc74	0.3183323
38	0xbeab45b9	-0.33451632
39	0x3e733f00	0.23754501
40	0x3ea61037	0.32434246
41	0x3ec00489	0.3750346
42	0x3dd2807a	0.10278411
43	0xbbac051b	-0.005249632
44	0xbc0f97c9	-0.008764216
45	0xbbb3ee50	-0.0054910555
46	0x3b5cd703	0.0033697493
47	0x3efe620c	0.4968418
48	0x3ead988e	0.33905452
49	0x3eb18144	0.34668934
50	0x3ea46993	0.32111797
51	0xbef4b170	-0.47791624
52	0x3ed0182e	0.40643448
53	0x3d5e6cec	0.054303095
54	0x3f05ca18	0.52261496
55	0x3e67b8f3	0.22629146
56	0xbe070b3e	-0.13187882
57	0xbef1888e	-0.47174495
58	0x3bbe853a	0.0058142217
59	0x3f04113a	0.51588786
60	0xbeddc5db	-0.43315014
61	0xbd9d9649	-0.0769468
62	0xbf0912e2	-0.5354444
63	0xbe95915b	-0.2921246
64	0x3e83f09b	0.25769505
65	0xbee2d299	-0.44301298
66	0xbef65f81	-0.4811974
67	0xbe121654	-0.1426633
68	0xbe822ff1	-0.254272
69	0x3ec3de51	0.3825555
70	0x3efa1339	0.4884279
71	0x3e9ddedb	0.30834088
72	0xbe1e28ca	-0.15445247
73	0x3e0ed152	0.13947037
74	0x3ecd9523	0.40152845
75	0xbe150f1a	-0.14556542
76	0x3cb5160a	0.022105236
77	0x3ec9b057	0.3939235
78	0xbd6a49e7	-0.057199385
79	0x3e2d1111	0.16901042
80	0xbe8a36e5	-0.26995006
81	0x3dce28c4	0.10066369
82	0x3ed93dea	0.4243005
83	0x3d494d42	0.049145944
84	0x3eb25cc6	0.34836406
85	0x3eb2e027	0.3493664
86	0xbd918ac1	-0.07106543
87	0x3d23ff8d	0.040038634
88	0x3c9cbff8	0.019134507
89	0x3bd85ba5	0.0066027218
90	0x3f110a96	0.5665678
91	0x3eb6732c	0.35634744
92	0xbde91ab6	-0.11382048
93	0x3e38cd41	0.18047048
94	0xbec57b2a	-0.3857053
95	0x3d24e9d4	0.04026206
96	0xbe1bf0f2	-0.15228632
97	0xbca8a347	-0.02058567
98	0xbecd2e9b	-0.4007462
99	0x3ed26db9	0.41099337
100	0xbea65f0a	-0.32494384
101	0x3e24cc53	0.16093569
102	0x3d555aec	0.052088663
103	0x3ed4a4ce	0.41531986
104	0x3eed07a1	0.46294883
105	0xbe79b492	-0.24385288
106	0xbef4ab4e	-0.47786945
107	0xbed5e6b0	-0.41777563
108	0x3e3aba2c	0.18235081
109	0xbed1aa71	-0.4095035
110	0x3af5c426	0.0018750473
111	0x3e8412a8	0.25795484
112	0x3ec38d3e	0.38193697
113	0xbedfa656	-0.43681592
114	0xbe2ba865	-0.16763456
115	0xbb35517d	-0.002766698
116	0x3d874571	0.06605042
117	0xbeb15c07	-0.34640524
118	0xbeb2b01f	-0.34899995
119	0xbe14abad	-0.14518614
120	0x3de950b1	0.11392344
121	0xbe127412	-0.1430209
122	0x3ec599b2	0.38593823
123	0x3f06a1a2	0.5259038
124	0x3eeac14b	0.45850596
125	0x3eaa1004	0.33215344
126	0xbe39d7ab	-0.18148677
127	0xbe82a74d	-0.25518265
128	0xbe3ee691	-0.18642642
129	0x3ef94197	0.48682854
130	0xbd7cff24	-0.06176676
131	0x3d5a9d33	0.053372573
132	0xbdab871f	-0.08375382
133	0xbeb5c451	-0.3550134
134	0xbe385b8c	-0.18003672
135	0xbdf79217	-0.12088411
136	0x3d5ce090	0.053925097
137	0x3ebf8a32	0.37410122
138	0xbdd90b0c	-0.1059781
139	0x3ead3940	0.3383274
140	0xbce2c991	-0.027684005
141	0xbdd04039	-0.101684995
142	0x3e378580	0.1792202
143	0xbec1232e	-0.37722152
144	0x3eba1d70	0.36350584
145	0xbee0e19b	-0.43922123
146	0xbed598ba	-0.41718084
147	0x3d5afee2	0.05346573
148	0x3efa84dc	0.4892949
149	0x3d80b436	0.062843725
150	0xbe6fb42c	-0.23408574
151	0x3e13f61c	0.14449352
152	0xbe3b33f9	-0.18281545
153	0x3e89c170	0.26905394
154	0xbe0dba06	-0.13840494
155	0xbe3ec0f1	-0.18628289
156	0x3ec27ecf	0.37987372
157	0x3de17f0f	0.11010563
158	0xbed91113	-0.4239584
159	0xbed56f91	-0.4168668
160	0x3d152e9a	0.036421396
161	0x3ee95684	0.4557382
162	0x3e29446a	0.16530004
163	0x3ee2fb27	0.4433224
164	0xbd9b3238	-0.07577938
165	0xbdad9b51	-0.0847689
166	0xbeda223a	-0.42604238
167	0xbede962c	-0.43473947
168	0xbe21d7fe	-0.1580505
169	0xbeac1e7a	-0.33617002
170	0xbe935d88	-0.28782296
171	0x3da76bd0	0.081748605
172	0xbeaef089	-0.3416789
173	0xbe0744ae	-0.13209793
174	0xbdea948a	-0.11454113
175	0xbe17d2b2	-0.14826468
176	0x3de515bf	0.11185788
177	0xbe4bedcd	-0.19914933
178	0xbebe79b4	-0.37202227
179	0x3d5687ed	0.052375723
180	0xbe886b0e	-0.26644176
181	0xbe2e4a9f	-0.17020653
182	0xbdd80a9a	-0.10548897
183	0xbe53bb0b	-0.2067682
184	0x3eface29	0.48985413
185	0xbe797fb5	-0.24365123
186	0xbe5f9aad	-0.21836348
187	0x3e77be4d	0.24193688
188	0x3e07e857	0.13272224
189	0xbef80b38	-0.4844606
190	0xbd01ec51	-0.03171951
191	0xbefd8c33	-0.49521026
192	0x3d937fe8	0.072021306
193	0xbea3bd75	-0.31980482
194	0xbe9ebf7a	-0.3100546
195	0x3e9ec3b0	0.31008673
196	0xbe7d0972	-0.24710634
197	0xbe82a86e	-0.25519127
198	0x3ed66681	0.4187508
199	0x3ee68d73	0.45029792
200	0x3ed7ed40	0.42173195
201	0xbdcfe5a4	-0.10151222
202	0xbeab1097	-0.33411095
203	0x3dafdb2b	0.08586725
204	0x3e8eb7eb	0.27874693
205	0xbde07be6	-0.10961132
206	0x3ea66996	0.3250243
207	0xbeb64da9	-0.35606125
208	0xbee06bc3	-0.43832216
209	0xbee539f7	-0.44770786
210	0x3eb81703	0.35955057
211	0x3cba0eb3	0.022712087
212	0x3e33ead7	0.17570053
213	0xbe57ee98	-0.2108711
214	0x3eaac5a5	0.33353916
215	0xbe6542da	-0.22388783
216	0x3c82596d	0.015911782
217	0xbeccc3bf	-0.39993092
218	0x3dbe2b6c	0.09285626
219	0xbe73bb3d	-0.23801894
220	0xbea01ff9	-0.31274393
221	0xbdf705a1	-0.120616205
222	0xbd377341	-0.04478765
223	0xbecb845a	-0.39749414
224	0xbe8947c9	-0.2681258
225	0xbeff1401	-0.4981995
226	0xbed5c8be	-0.41754717
227	0xbecd29ee	-0.40071052
228	0xbcf5feac	-0.030028664
229	0xbe7d7eff	-0.24755476
230	0x3f0e2e6e	0.55539596
231	0x3e74c183	0.23901944
232	0x3ee7f669	0.45305184
233	0xbdbb5b94	-0.091483265
234	0x3c27e864	0.010248277
235	0x3d73a559	0.05948386
236	0xbe6ca29a	-0.23108903
237	0xbeb1cc9e	-0.34726423
238	0xbf05a4c3	-0.5220453
239	0xbd752c6e	-0.059856825
240	0xbee837f8	-0.453552
241	0xbe859007	-0.26086447
242	0xbee1fb1f	-0.44136903
243	0xbe49b10c	-0.19696444
244	0xbe21080e	-0.15725729
245	0xbdb4c471	-0.08826531
246	0xbe135b8d	-0.14390393
247	0x3eb35d4c	0.35032117
248	0x3e780756	0.24221548
249	0x3e880159	0.26563528
250	0x3dda16ee	0.10648905
251	0xbef7ab00	-0.4837265
252	0xbe048d75	-0.12944587
253	0x3db0741d	0.08615897
254	0x3e1a2e05	0.15056618
255	0xbe2dba42	-0.16965583

fc.0.bias f4 [128]
0	0x3dfcba25	0.12340192
1	0xbd9e687f	-0.07734775
2	0x3df3f344	0.119116336
3	0xbe019fc9	-0.1265861
4	0x3e650432	0.22364882
5	0x3ec562d0	0.3855195
6	0xbc8c4b6d	-0.01712581
7	0xbe2c96f0	-0.16854453
8	0xbe82f603	-0.25578317
9	0x3ea983fa	0.33108503
10	0x3e64d670	0.22347426
11	0xbb0a0c7b	-0.0021064568
12	0x3edff91f	0.43744752
13	0xbe760b6c	-0.24027795
14	0x3e46c6fa	0.19411841
15	0x3e2d8c73	0.16948108
16	0xbcf9fdfe	-0.03051662
17	0x3eef9fc0	0.46801567
18	0xbdfdcaf1	-0.123922236
19	0xbd951320	-0.072790384
20	0xbe8fd85f	-0.28094766
21	0xbebd132b	-0.36928686
22	0x3dd03a62	0.10167386
23	0xbdbac37e	-0.091193184
24	0xbede433b	-0.43410668
25	0xbe664768	-0.22488177
26	0x3e0c06e0	0.13674498
27	0xbc33e918	-0.010980867
28	0xbe3facc6	-0.18718252
29	0x3e874f07	0.2642748
30	0xbe4ea708	-0.20180905
31	0x3ebd45b6	0.36967248
32	0x3e086c6a	0.13322607
33	0x3e481139	0.1953782
34	0x3e38dbc2	0.18052581
35	0xbec57481	-0.38565448
36	0x3e35c327	0.17750226
37	0x3e7ebda0	0.24877024
38	0xbe684a46	-0.22684583
39	0xbd715315	-0.058917124
40	0x3e611c53	0.21983461
41	0x3db453e0	0.088050604
42	0x3e196ce8	0.1498295
43	0x3ea0f641	0.31437877
44	0xbcc51426	-0.02405746
45	0xbe556215	-0.20838197
46	0x3e041815	0.12899812
47	0x3dac7eda	0.084226325
48	0xbe20412b	-0.1564986
49	0x3eb60bd4	0.355559
50	0xbee660bd	-0.4499568
51	0x3e380152	0.17969254
52	0xbe4cc852	-0.19998291
53	0xbea94a8c	-0.33064687
54	0xbee38b56	-0.44442242
55	0xbe90047d	-0.28128424
56	0xbe74f75f	-0.2392249
57	0x3eb0fe27	0.34568903
58	0xbedbb202	-0.42909247
59	0xbd53823a	-0.051637866
60	0x3ed6caf0	0.41951704
61	0x3e50aa69	0.20377506
62	0x3ef3fa5d	0.4765195
63	0x3ea6f805	0.326111
64	0xbe8cff49	-0.27538517
65	0xbdff188d	-0.124558546
66	0x3eb960f2	0.36206776
67	0x3ea0c970	0.31403685
68	0x3e94ac28	0.29037595
69	0xbdc41cff	-0.09575843
70	0x3e9e9afa	0.30977613
71	0xbd0925a7	-0.033483174
72	0x3edfeb01	0.4373398
73	0x3ed687eb	0.41900572
74	0xbe27873f	-0.16360186
75	0xbecd7522	-0.40128428
76	0xbe1e0dbf	-0.15434931
77	0x3e36c3f7	0.17848192
78	0x3e1bb58e	0.15205976
79	0xbe8b95ba	-0.2726267
80	0x3e6a92ee	0.22907612
81	0x3e0e4ec4	0.13897234
82	0x3d57767c	0.05260323
83	0x3ef98f3d	0.48742095
84	0xbe62cf41	-0.22149374
85	0xbecb674c	-0.39727247
86	0xbe8d6e48	-0.276232
87	0xbe91cec4	-0.28478062
88	0x3e85428a	0.26027328
89	0xbc336331	-0.010948942
90	0x3eb41fa4	0.3518039
91	0xbd851511	-0.06498159
92	0x3ea688e4	0.32526314
93	0x3ee361b7	0.44410488
94	0xbe7a1034	-0.24420244
95	0xbe9260ed	-0.28589574
96	0x3d0a0e9c	0.03370534
97	0xbef9a11f	-0.48755738
98	0x3e898261	0.26857284
99	0x3ef27fa2	0.47363
100	0xbe8a24fb	-0.2698134
101	0xbeb6ed87	-0.35728094
102	0xbca79627	-0.02045734
103	0xbed54c8f	-0.41659972
104	0x3dfddbe0	0.123954535
105	0x3ea767ba	0.32696325
106	0x3e5852f6	0.21125397
107	0xbe8de60f	-0.27714583
108	0x3e7d060a	0.24709335
109	0x3eebb476	0.46036118
110	0x3ebf24ed	0.3733286
111	0x3e91acc6	0.28452128
112	0x3df3b568	0.11899835
113	0x3ed21471	0.4103122
114	0xbeae9c6d	-0.34103718
115	0xbee4efb0	-0.44714117
116	0x3ea35f07	0.31908438
117	0x3de8a7ed	0.11360154
118	0x3efcb0b3	0.4935356
119	0x3e22ac10	0.15885949
120	0x3eef78d9	0.46771887
121	0xbd455eab	-0.048185986
122	0x3eab70ae	0.33484405
123	0xbec186f2	-0.37798268
124	0x3e8ec410	0.2788396
125	0x3bcb709e	0.0062084934
126	0xbd8716cf	-0.06596147
127	0xbebeba9c	-0.37251747

fc.2.weight f4 [128, 128]
0	0x3c98b2e7	0.018639995
1	0xbcd59942	-0.026074056
2	0xbdee3bca	-0.116324976
3	0xbd801c8b	-0.06255444
4	0x3d1a2106	0.03762915
5	0x3dac7cae	0.08422218
6	0x3d137200	0.03599739
7	0xbd82f076	-0.063935205
8	0x3cc867ac	0.024463497
9	0x3da9b811	0.08287061
10	0x3d2a3d92	0.041562624
11	0xbca94751	-0.02066389
12	0xbdad69ec	-0.084674686
13	0xbcda357e	-0.026636835
14	0x3ca64af5	0.020299414
15	0x3d6c5d44	0.057706133
16	0x3de287f4	0.11061087
17	0xbdaa2469	-0.08307726
18	0x3d5b096c	0.053475782
19	0xbd3fe18a	-0.04684595
20	0xbd953d84	-0.07287124
21	0x3d90a210	0.07062161
22	0xbdf84904	-0.121233016
23	0x3c7da749	0.015481778
24	0x3d874aae	0.06606041
25	0x3d0ab760	0.033866286
26	0x3db2a8fa	0.08723636
27	0x3d95dae3	0.0731714
28	0xbd989566	-0.074503705
29	0x3da2452a	0.07923348
30	0xbc762ace	-0.015024854
31	0x3c8db05c	0.017296009
32	0xbdb0fe70	-0.0864228
33	0x3d497ac9	0.049189363
34	0x3d84a77a	0.06477256
35	0x3dc5c461	0.09656597
36	0xbcfc8610	-0.030825645
37	0x3da544aa	0.08069737
38	0xbcab7d47	-0.02093376
39	0x3dcecfaf	0.10098206
40	0x3c76367e	0.01502764
41	0x3e0b6f73	0.13616733
42	0xbd1555df	-0.036458846
43	0x3d0807e5	0.033210654
44	0xbd4bf5c9	-0.049794946
45	0xbd485028	-0.048904568
46	0xbcf8323e	-0.030297395
47	0x3d84b4b8	0.06479782
48	0xbcb57470	-0.022150248
49	0xbcc1a317	-0.023637338
50	0x3bd42b4a	0.006474887
51	0x3ce7ae35	0.02828131
52	0x3d898251	0.06714309
53	0x3d368a31	0.044565383
54	0x3b94cd72	0.0045410926
55	0xbd68d6cf	-0.056845482
56	0x3c9e4e8b	0.019324562
57	0x3d8391d7	0.06424301
58	0xbd61f708	-0.055167228
59	0x3d523e81	0.05132914
60	0x3db059bb	0.08610865
61	0x3d70d05b	0.058792453
62	0x3d2f14c9	0.04274443
63	0x3da5e15d	0.08099625
64	0x3d217560	0.03941858
65	0x3d9ddf06	0.07708554
66	0x3b982103	0.004642607
67	0x3da0193a	0.078173116
68	0xbb53d97f	-0.0032325683
69	0xbd7d964a	-0.061910905
70	0x3d9046cc	0.070447534
71	0xbdc5563b	-0.09635588
72	0x3d58b830	0.05291003
73	0x3d370aa7	0.044687893
74	0xbd1cd0e4	-0.03828515
75	0x3d94fe70	0.072750926
76	0xbca640f3	-0.020294642
77	0xbda9d8de	-0.08293317
78	0xbb1ccf9c	-0.0023927456
79	0xbd8d6f7f	-0.06906032
80	0x3d9eb868	0.077500165
81	0xbd0dffa2	-0.03466762
82	0x3d85790b	0.06517228
83	0x3d617752	0.055045433
84	0x3d68c054	0.056824043
85	0xbc8e72a2	-0.017388646
86	0x3ce9ca93	0.028538978
87	0xbc82d52b	-0.015970787
88	0x3da3f426	0.08005552
89	0x3d2c270d	0.04202943
90	0xbc57f223	-0.0131802885
91	0xbd77eb59	-0.06052718
92	0x3d79585e	0.06087529
93	0x3d160ff9	0.036636326
94	0xbd4868f8	-0.04892823
95	0x3cdfa2a9	0.027299242
96	0x3cf4ae5c	0.029868297
97	0xbd4f0de0	-0.05055034
98	0x3d53e0f9	0.051728223
99	0x3cf145a2	0.029452149
100	0xbc8bbf27	-0.017058922
101	0xbd33797e	-0.043817036
102	0xbccfeb62	-0.025380794
103	0xbcca4747	-0.02469219
104	0x3da68b59	0.08132047
105	0x3c1423ca	0.009041736
106	0x3da18ed1	0.07888568
107	0x3d744578	0.059636563
108	0xbd4ee04b	-0.05050687
109	0xbd5d9a28	-0.054102093
110	0xbce67538	-0.028132066
111	0x3d8e5c42	0.069511905
112	0xbd8715d5	-0.06595961
113	0x3dae4740	0.085096836
114	0x3c290591	0.010316269
115	0xbd1078ff	-0.03527164
116	0xbd8f841e	-0.07007621
117	0xbcb4a269	-0.0220501
118	0xbd2c97ce	-0.04213696
119	0xbd13b431	-0.036060516
120	0xbd4ccc97	-0.0499998
121	0x3ce1483f	0.02750027
122	0xbd8e2c71	-0.0694207
123	0x3c7f9bb4	0.015601087
124	0xbd50800a	-0.050903358
125	0x3d2a5a0d	0.041589785
126	0x3dc8aae6	0.09798221
127	0x3c554eb5	0.0130192535
128	0x3d072c53	0.033001255
129	0xbd6b7ac5	-0.05749013
130	0xbd0e4288	-0.034731418
131	0x3d50b0a8	0.050949723
132	0x3d93c16f	0.07214629
133	0x3cd33a58	0.025784656
134	0x3d9f0684	0.07764915
135	0x3db92337	0.0903992
136	0xbdbcdd68	-0.092219174
137	0x3d67cbc1	0.0565908
138	0xbd7c9d03	-0.061673176
139	0xbd39b647	-0.04533985
140	0xbc3798ad	-0.011205834
141	0x3d7769f0	0.060403764
142	0x3d09afec	0.033615038
143	0x3dee974e	0.11649953
144	0x3d3ec6bd	0.04657625
145	0xbd966cbe	-0.0734496
146	0xbd827701	-0.063703544
147	0xbdd272fa	-0.10275836
148	0xbdc5b048	-0.096527636
149	0xbce03c14	-0.027372397
150	0xbd744721	-0.059638146
151	0xbd2a91e9	-0.041643057
152	0xbd6ed89d	-0.058312047
153	0x3c76ddfe	0.0150675755
154	0x3d69399a	0.0569397
155	0x3d804029	0.062622376
156	0xbcdf7c08	-0.027280822
157	0xbd65fdb1	-0.056150142
158	0x3d01884c	0.031624123
159	0x3c46e2b8	0.012139015
160	0x3da436a7	0.080182366
161	0x3d74fef3	0.05981345
162	0x3cf93d67	0.030424787
163	0xbda1903d	-0.078888394
164	0x3d25cdbd	0.04047941
165	0xbdac6e90	-0.084195256
166	0xbce64ebd	-0.028113717
167	0xbc95b2c0	-0.018273711
168	0x3cf0e385	0.029405365
169	0x3d373e00	0.044736862
170	0x3dc06b07	0.09395414
171	0x3d6e4b07	0.05817702
172	0xbcc94623	-0.024569577
173	0x3d2d755d	0.042348254
174	0xbdb0b861	-0.086289175
175	0x3d8e1fbe	0.06939648
176	0x3d8e070d	0.069349386
177	0xbd85dcb1	-0.06536234
178	0x3db4a259	0.08820028
179	0xb96ecea5	-0.0002277443
180	0xbcb3c45c	-0.021944217
181	0xbd88630a	-0.06659515
182	0x3c480b4b	0.012209724
183	0xbc70e492	-0.014702933
184	0x3d60d362	0.05488909
185	0xbd8b3013	-0.06796279
186	0xbccc1c52	-0.024915848
187	0x3dc32382	0.09528257
188	0xbd5d3d06	-0.054013275
189	0xbd98beff	-0.074583046
190	0xbc15e2cc	-0.009148311
191	0x3d0ac4ef	0.033879217
192	0xbd030bee	-0.0319938
193	0xbd405463	-0.046955477
194	0xbcb4488e	-0.022007253
195	0x3c998274	0.018738963
196	0xbd31fab2	-0.043451972
197	0x3d8c5b87	0.06853395
198	0xbc27deec	-0.01024602
199	0xbda5ae4c	-0.08089885
200	0xbc0aa898	-0.008463047
201	0xbca93d76	-0.02065919
202	0x3d88cb7b	0.06679436
203	0x3daaca6a	0.08339389
204	0xbb2980d2	-0.0025864136
205	0x3d0f0066	0.03491249
206	0x3cacfb94	0.021116056
207	0x3d12895f	0.03577554
208	0xbc79d5a6	-0.015248692
209	0x3d732452	0.05936081
210	0x3d28dc57	0.041225757
211	0xbd9bf8d0	-0.076158166
212	0xbd04950d	-0.03236871
213	0x3cf8ca1d	0.030369813
214	0x3d93a91b	0.07209989
215	0x3b46462b	0.0030254226
216	0x3d662818	0.05619058
217	0x3baa0c51	0.0051894565
218	0xbbcb89dd	-0.006211503
219	0xbd119bd3	-0.035548996
220	0xbc9f04a0	-0.019411385
221	0x3d8f8161	0.07007099
222	0x3ae8d01b	0.0017762216
223	0xbda60bab	-0.08107694
224	0x3c84494e	0.016148236
225	0x3ba90869	0.0051584733
226	0x3d6ca09f	0.057770368
227	0xbd91ed63	-0.07125356
228	0x3d06b510	0.03288752
229	0x3db2d82b	0.08732637
230	0xbcf7055e	-0.030153926
231	0xbd66fc80	-0.056393147
232	0xbd43a67c	-0.047766194
233	0x3dd2e503	0.10297587
234	0xbd908117	-0.07055872
235	0x3d7b7f5b	0.061400753
236	0xbc3c9e33	-0.011512327
237	0xbdaa2e08	-0.08309561
238	0xbda4d4f2	-0.080484286
239	0xbd547837	-0.05187246
240	0x3d920058	0.07128972
241	0x3da03e4a	0.07824381
242	0xbd2bdd1c	-0.041958913
243	0x3d62f4e1	0.055409316
244	0x3c422ff6	0.011852255
245	0xbc95b60c	-0.018275283
246	0xbd828f67	-0.06375008
247	0xbda0c0fe	-0.0784931
248	0x3bfa12ac	0.0076316204
249	0x3cf104ba	0.0294212
250	0xbc59f6d6	-0.013303479
251	0xbcd6b365	-0.026208589
252	0xbd9c41b1	-0.07629717
253	0xbc421179	-0.011844986
254	0xbd1105dd	-0.035405982
255	0x3d424011	0.04742438

fc.2.bias f4 [128]
0	0x3cdee685	0.02720953
1	0x3dae58f2	0.08513059
2	0xbc6e839c	-0.014557745
3	0x3cb83917	0.02248816
4	0x3d55c1b0	0.052186668
5	0xbd26a861	-0.040687922
6	0x3d4aeb4f	0.049540814
7	0xbc928877	-0.017887337
8	0xbd3c28c3	-0.04593731
9	0x3d74dc62	0.059780486
10	0xbd36fac9	-0.04467276
11	0xbd84f76f	-0.06492507
12	0xbda571c7	-0.08078342
13	0x3ce1e255	0.027573744
14	0xbc8526aa	-0.016253788
15	0xbd3c1827	-0.04592147
16	0xbd89de20	-0.0673182
17	0x3d093db9	0.03350613
18	0xbd5eb435	-0.054371078
19	0xbd449dee	-0.048002176
20	0x3da1e09d	0.0790417
21	0xbd92b6dd	-0.07163785
22	0x3dae36b8	0.085065305
23	0x3ccd15be	0.025034782
24	0x3d990c10	0.07473004
25	0xbc9e1797	-0.019298358
26	0xbd04c792	-0.032416888
27	0xbdab3d2c	-0.08361277
28	0xbd9da8a7	-0.076981835
29	0x3d5af062	0.053451903
30	0x3d401b6d	0.046901155
31	0x3cd530dc	0.026024275
32	0xbc90f92b	-0.017696938
33	0x3db74f2a	0.08950646
34	0xbd91a709	-0.071119376
35	0xbd581377	-0.052752938
36	0xbd4a472a	-0.049384274
37	0xbd048d71	-0.03236145
38	0xbd328736	-0.04358598
39	0x3cbf4518	0.023348376
40	0xbd4fa1ae	-0.0506913
41	0x3cf9acb3	0.030477857
42	0xbc40474b	-0.011735748
43	0xbd4dee5d	-0.05027615
44	0xbcfd618f	-0.030930309
45	0xbda77026	-0.081756875
46	0xbd199c82	-0.037502773
47	0xbd3cd683	-0.04610301
48	0xbcc3576c	-0.023845397
49	0xbd72ac1b	-0.059246164
50	0xbd31ff07	-0.043456104
51	0xbd0e8456	-0.034794174
52	0xbda1012a	-0.0786155
53	0x3d961420	0.07328057
54	0x3d7d6fd8	0.06187424
55	0xbd9a5aab	-0.07536825
56	0xbd51c3a0	-0.051211953
57	0x3d81738e	0.063208684
58	0x3d61a71d	0.055091012
59	0x3c8b55fa	0.01700877
60	0x3c45ff55	0.012084802
61	0xbbac0292	-0.00524933
62	0xbd7ddc4f	-0.06197768
63	0x3bb81831	0.005618118
64	0x3c34d093	0.011036056
65	0xbb0d1106	-0.002152504
66	0xbd6a1256	-0.057146393
67	0xbd612ddb	-0.05497537
68	0xbd1a25f5	-0.037633855
69	0x3d2d6c24	0.04233946
70	0xbb0f1c40	-0.0021836907
71	0xbc010040	-0.007873595
72	0xbd27589e	-0.040855996
73	0xbd929863	-0.07157972
74	0xbd45405a	-0.048157074
75	0x3da231cd	0.07919655
76	0xbda5e085	-0.08099464
77	0x3d70dfba	0.058807112
78	0xbd1085a0	-0.035283685
79	0x3d0b8b7d	0.034068573
80	0xbdaa7b2f	-0.08324277
81	0x3c26b154	0.010174114
82	0xbc1d87cf	-0.009614899
83	0xbd9c4820	-0.07630944
84	0x3d612a5c	0.054972038
85	0xbd3e4444	-0.046451822
86	0xbd65845b	-0.056034427
87	0x3cdce1df	0.026963172
88	0xbbfa0415	-0.007629881
89	0x3d89b0ca	0.06723173
90	0xbc71917f	-0.014744162
91	0xbcca8800	-0.024723053
92	0x3d6745fe	0.056463234
93	0xbc3bff81	-0.011474491
94	0x3ca77dc2	0.020445708
95	0x3d1f8aa7	0.03895059
96	0xbd6bd94c	-0.057580277
97	0xbd84a90d	-0.064775564
98	0xbd9ef0e0	-0.07760787
99	0x3c759fe5	0.014991735
100	0xbda6ddc1	-0.08147765
101	0xbbfc0d83	-0.0076920404
102	0x3d7b40ae	0.06134098
103	0x3d18ccab	0.03730456
104	0xbca74a8e	-0.020421293
105	0xbc0be2a0	-0.008537918
106	0x3d3a1cd7	0.04543766
107	0xbbfc96cd	-0.0077084065
108	0xbdadfd72	-0.084956065
109	0xbdab8199	-0.08374328
110	0x3d156fd0	0.036483586
111	0x3d7a725e	0.061144225
112	0x3b6916c3	0.0035566546
113	0x3d4f79cf	0.050653275
114	0xbc777d69	-0.015105584
115	0xbc26d734	-0.010183144
116	0xb9112acb	-0.00013844219
117	0x3d0769f6	0.033060037
118	0x3ca28fd8	0.01984398
119	0x3cc77f57	0.024352713
120	0xbcfe926a	-0.031075675
121	0xbd33cf49	-0.043898854
122	0x3dade875	0.08491603
123	0xbd211ef0	-0.039336145
124	0x3cdb252d	0.026751125
125	0x3c8843f5	0.016633967
126	0x3d3c898e	0.04602962
127	0xbd4037d0	-0.046928227

fc.4.weight f4 [2, 128]
0	0x3da898cf	0.08232271
1	0x3ad1e230	0.0016012844
2	0x3dd74f9a	0.1051323
3	0x3d7f0b2f	0.062266525
4	0x3db8c032	0.09021033
5	0x3d978b4c	0.07399616
6	0xbd51e044	-0.051239267
7	0x3dc834e9	0.09775717
8	0x3d4dfbef	0.05028909
9	0xbccf092d	-0.02527293
10	0xbca22526	-0.019793104
11	0x3cb19adb	0.021680286
12	0xbda6155e	-0.08109544
13	0xbd8e6605	-0.069530524
14	0x3b9b9308	0.004747752
15	0xbd7e3f18	-0.06207189
16	0xbd217449	-0.03941754
17	0xbd022fb2	-0.031783767
18	0x3dd6dd84	0.104914695
19	0x3d6adb75	0.057338197
20	0xbc4b09dc	-0.012392487
21	0x3cad09c9	0.02112283
22	0xbc9d4278	-0.019196734
23	0xbcf9a1a2	-0.03047258
24	0xbda2afc0	-0.07943678
25	0xbde73d8f	-0.11291038
26	0x3d7eabbd	0.0621755
27	0xbceb012d	-0.028687084
28	0xbda5c71c	-0.08094618
29	0xbc0964f7	-0.008385888
30	0xbb9b3752	-0.0047368193
31	0x3bab8e23	0.00523545
32	0x3d18999a	0.03725586
33	0x3d7ba079	0.061432336
34	0x3b40b66e	0.0029405612
35	0xbd9e1985	-0.07719711
36	0x3cbc3f71	0.02297947
37	0x3dc10352	0.094244614
38	0x3d286b3f	0.041117903
39	0xbd156153	-0.03646977
40	0xbd4d6673	-0.05014653
41	0xbdb96164	-0.09051779
42	0x3dae481d	0.08509848
43	0x3d377dfb	0.04479788
44	0xbdb60b3c	-0.088888615
45	0xbc8a8642	-0.016909722
46	0x3d427019	0.047470186
47	0x3cacc90b	0.021091959
48	0x3dea7d6f	0.11449706
49	0xbb539a42	-0.003228799
50	0xbde1fe5a	-0.11034842
51	0x3d146a35	0.0362341
52	0x3b58164a	0.003297227
53	0xbd79c82a	-0.060981907
54	0x3df11a65	0.117726125
55	0xbda6efd0	-0.08151209
56	0x3c1bd52b	0.009511272
57	0xbd1c1627	-0.038107064
58	0x3d45b8b3	0.048271846
59	0xbdd566fd	-0.10420034
60	0xbdcf1f17	-0.10113352
61	0x3dac9c6f	0.08428275
62	0x3d7d1f1b	0.061797243
63	0xbd40643a	-0.046970583
64	0xbb3d2a75	-0.0028864418
65	0x3d126baf	0.035747226
66	0xbd7dc3ac	-0.061954185
67	0x3d516716	0.0511237
68	0x3ce17d0c	0.027525447
69	0x3d2efbe1	0.04272068
70	0xbda7fe4b	-0.082027994
71	0xbdfb1c79	-0.1226129
72	0xbcdfbb9d	-0.02731114
73	0x3cd32389	0.02577378
74	0xbc7eaf8b	-0.015544782
75	0x3da6444b	0.081184946
76	0xbd431462	-0.04762686
77	0x3ce345c4	0.027743228
78	0x3b32c475	0.0027277742
79	0xbbb6b168	-0.0055753477
80	0xbc694321	-0.014237196
81	0x3deead7d	0.11654184
82	0xbc7bc43e	-0.015366612
83	0x3be5b634	0.0070102457
84	0xbdc64506	-0.09681134
85	0xbd83ee4a	-0.064419344
86	0xbde4d94d	-0.11174259
87	0x3d8c5d3b	0.0685372
88	0xbd039685	-0.03212597
89	0xbde52b62	-0.11189915
90	0x3db46aa0	0.088093996
91	0x3d79deba	0.061003424
92	0xbdbb100c	-0.0913392
93	0xbce7962d	-0.028269852
94	0x3d12ad99	0.035810087
95	0xbdfbd0f2	-0.122957125
96	0xbdeb2419	-0.114814945
97	0x3c3cef16	0.011531612
98	0x3bd222c8	0.0064128377
99	0xbc3bbbb2	-0.011458324
100	0xbd19017d	-0.037354935
101	0x3d7b4e6c	0.061354086
102	0xbdbc74bb	-0.09201952
103	0x3dc4764b	0.09592875
104	0x3cb0b04e	0.021568444
105	0x3d81e8b4	0.06343213
106	0xbd173a54	-0.03692086
107	0xbd659118	-0.056046575
108	0xbd889f52	-0.06671013
109	0xbdf9cb5b	-0.1219699
110	0xbd87858e	-0.066172704
111	0x3bb78964	0.005601095
112	0xbd2f557c	-0.042806134
113	0xbdaa8a91	-0.08327211
114	0xbdc00daf	-0.0937761
115	0xbd883342	-0.06650402
116	0x3ac9a8a3	0.0015385341
117	0x3d1bd3ed	0.038043905
118	0x3de6d0af	0.11270272
119	0xbd955ee4	-0.072934896
120	0xbd0a3574	-0.033742383
121	0x3da2f24b	0.0795637
122	0x3dca21c1	0.09869719
123	0xbd5b4324	-0.053530827
124	0xbd4c8199	-0.04992828
125	0xbbaf0af6	-0.005341883
126	0xbcd8b621	-0.026454033
127	0xbda0fc8f	-0.07860672
128	0xbb177b23	-0.0023114167
129	0xbda71cb9	-0.08159775
130	0xbdaed8d0	-0.085374475
131	0xbc09fac3	-0.008421603
132	0xbd669b36	-0.056300364
133	0xbd17ff77	-0.037108865
134	0x3dedf046	0.11618094
135	0xbd3ad16a	-0.04560987
136	0x3ceec0fd	0.029144758
137	0x3dcccfa5	0.100005426
138	0xbc2a5fc2	-0.010398807
139	0x3dcfdb45	0.10149244
140	0x3dbf2db8	0.09334892
141	0x3d5f5487	0.05452397
142	0xbd348075	-0.04406782
143	0x3d9593ba	0.07303567
144	0xbd791379	-0.060809586
145	0x3d9b5fb7	0.075866155
146	0xbd9796f2	-0.074018374
147	0xbc868fd4	-0.016426004
148	0xbd6e7f4f	-0.05822688
149	0x3dd3d436	0.103432104
150	0x3d5a5edd	0.053313125
151	0x3db1ad67	0.08675652
152	0x3de3ff5e	0.11132692
153	0x3d422e9c	0.04740773
154	0xbcd6a2ee	-0.026200738
155	0x3d6086d2	0.054816075
156	0x3d85fd18	0.065424144
157	0xbd0b94b4	-0.03407736
158	0x3d884dbc	0.06655452
159	0x3dae31c5	0.085055865
160	0x3dfd62bf	0.1237235
161	0xbcc4a7b7	-0.024005754
162	0xbd58f6b9	-0.052969668
163	0x3d8736f9	0.06602282
164	0xbd1e19b2	-0.038598724
165	0xbdbe08a8	-0.09278995
166	0xbcdde759	-0.027087854
167	0x3d1eeff7	0.038803067
168	0x3d097cb8	0.033566207
169	0x3d602d1a	0.054730512
170	0xbd3b885e	-0.045784347
171	0xbda5027a	-0.08057113
172	0xbba9579b	-0.005167914
173	0x3cb91557	0.022593183
174	0xbda7bbc1	-0.08190108
175	0xbd4db354	-0.05021985
176	0xbc61223f	-0.013741075
177	0xbc2931dd	-0.01032683
178	0x3d89d98f	0.06730949
179	0x3dbf0d75	0.093287386
180	0x3c9bb049	0.019004958
181	0xbd8e445a	-0.06946631
182	0xbdd73207	-0.10507589
183	0xbbefeeec	-0.007322183
184	0xbdce96c2	-0.100873485
185	0xbd3f8047	-0.046753194
186	0xbdb41cf5	-0.087945856
187	0xbd52190a	-0.05129341
188	0x3d6661ae	0.0562455
189	0xbd9bce36	-0.07607691
190	0xbd9c430e	-0.07629977
191	0x3cc3edb1	0.023917051
192	0x3d382ec0	0.04496646
193	0xbcca0049	-0.02465834
194	0xbd25c278	-0.040468663
195	0xbd7044c2	-0.058659323
196	0xbdc74a8e	-0.09731017
197	0xbb8d94b9	-0.0043207076
198	0x3d084443	0.033268224
199	0x3de97fd1	0.11401332
200	0x3dca1ec6	0.09869151
201	0xbb4f490c	-0.0031629233
202	0x3db6c02c	0.089233726
203	0xbba0c968	-0.004906822
204	0x3d8cee34	0.06881371
205	0x3d86c64b	0.0658079
206	0xbd83f108	-0.064424574
207	0x3ceec4c1	0.029146554
208	0xbd89cc2d	-0.067283966
209	0xbdcf7c94	-0.10131183
210	0xbdab329a	-0.08359261
211	0xbdc12d80	-0.094325066
212	0x3d8ab52f	0.06772839
213	0xbd0009ea	-0.031259455
214	0x3d01faf2	0.03173346
215	0xbbda85c6	-0.006668779
216	0x3daf50b8	0.08560318
217	0x3d3b5e89	0.045744453
218	0xbc435584	-0.011922244
219	0xbdaad412	-0.083412305
220	0x3d401744	0.046897188
221	0x3c451e54	0.012031157
222	0x3d92cd06	0.07168011
223	0x3dc536e8	0.09629613
224	0x3dd05b36	0.10173647
225	0x3d70a8da	0.05875478
226	0x3d1703ba	0.03686879
227	0x3da27ba3	0.07933738
228	0x3dbcbce5	0.09215716
229	0xbda715b4	-0.081584364
230	0x3d4cbd48	0.0499852
231	0xbaa4a68b	-0.0012561841
232	0x3dbd0e81	0.09231282
233	0xbc9e66c3	-0.01933611
234	0x3d88f720	0.0668776
235	0x3de61dc7	0.11236148
236	0x3d30b87f	0.0431447
237	0x3dd1355c	0.102152556
238	0xbb6363f4	-0.0034697028
239	0x3be342da	0.0069354596
240	0x3d5833e9	0.05278388
241	0xbcaab46c	-0.020837985
242	0xbc26e291	-0.010185854
243	0xbd3db368	-0.046313673
244	0xbd6fff5d	-0.058593143
245	0xbdf1170c	-0.11771974
246	0xbd11be11	-0.035581652
247	0x3d9f06fc	0.07765004
248	0xbcad1ef6	-0.021132927
249	0xbd37f8dd	-0.04491507
250	0xbd4b20cf	-0.049591836
251	0x3a9fcfa7	0.0012192623
252	0x3d52e4af	0.05148762
253	0xbd8e0557	-0.06934612
254	0x3cda6b83	0.026662594
255	0xbcbe52fa	-0.023232926

fc.4.bias f4 [2]
0	0xbcab6e18	-0.02092652
1	0x3d2ab277	0.041674104
