2.REINFORCE/ckpt/CartPole-v1_episode_3051_reward_479.pth (torch, 72736 bytes, 6 tensors)

fc.0.weight f4 [128, 4]
00000000: 1b94 29bd f2c9 dbbe ed67 673e fa40 0fbe
00000010: 760e eb3e 7dc4 ee3d 99e6 7f3d 8f2c f63e
00000020: 0e0d 173c 1b13 a33e 8d08 eebd b52d 043f
00000030: a496 bf3e 5fe9 673e b58a 07bd b2a8 61bd
00000040: 506e ab3e d6ab 763e c7b7 833e c54b 65be
00000050: cf96 dbbd 9a60 00bf 040f 8fbe 03c4 c1be
00000060: 0558 2ebe 52d9 883e 4391 8b3e 9158 873e
00000070: 4066 c5bd 9011 16be bb4f 44be 8841 9abe
00000080: 73f4 72be 2043 3c3e 7835 6c3d e02e 9abe
00000090: 6b02 6a3e ba18 92be 3656 12bf baa1 fabe
000000a0: 3f48 f73d 7043 dcbe d97c b5be 47f1 763e
000000b0: a3d3 f2bd 4c88 ba3e ff0a f9be 2be0 fcbe
000000c0: e5c9 f2be 3006 b93e 0d0c 0d3f 6c44 063f
000000d0: 6d1f b93e 5bea 02be 9524 abbe a57c c6be
000000e0: f8f9 9abe 7de1 9bbe d35e d9be d5f2 99be
000000f0: 688f e23d 0267 fb3e b812 67be a4c3 ad3e
00000100: 70c8 debe 7359 ab3e 0b5c ae3e 13ee de3d
00000110: 7d34 ebbd 3934 8cbe a0e9 07bf 74dd d83e
00000120: 5578 653e b9ee a9be 8133 673e b533 fbbe
00000130: bfc3 bebd eaf7 313e 7521 613e caf0 c0bb
00000140: 8f5f eebd f23b 16bc 656b 84be 13e7 63be
00000150: 690a c03b 32c8 dbbe 7c76 e63e d06f 7b3e
00000160: 4fb9 c83b 9dea 843d efc1 36be bd8f 923e
00000170: 5625 423e 0244 babe 978f d33d a662 e73e
00000180: 194a 27be 89cc f13e aeb6 cdbe 1a0a 9dbe
00000190: 04f8 21be f2cb 10bd abe8 5f3e 3843 31be
000001a0: 67f0 613d b811 033e 6201 033f b738 e03e
000001b0: d20f 143e 3a96 f4be d89a a93e dde8 ca3e
000001c0: 9731 b73d 8f9d c73d b337 1fbd 3f03 e4be
000001d0: 8521 15be 0288 d23d f2a4 14be db41 773d
000001e0: 03ce 4c3e 0541 b63e ab12 c73b dbf7 993d
000001f0: 0782 923e a551 8ebe fa8f c33e 14e3 733e
00000200: f42c 813e 943a 97be 72cf 963e 0660 903e
00000210: 5ac9 883e 49ee b03e 51f8 ec3e 5cd6 d2be
00000220: 42a3 673e c223 ec3d 66b2 d83e cc1d d93d
00000230: c96e ca3e d538 ccbd ef68 1f3e a00f 8bbe
00000240: b040 453e 599c b33e ff09 ffbd e36c d5be
00000250: 635b 8e3e 4c78 613d 4801 c93e ced3 a5be
00000260: 7374 b43a 788c a93d ec72 493e 5476 003f
00000270: 886d b9be f1b1 783e 5202 7bbe 3864 b7be
00000280: f511 6d3e b6b0 513e 823d 0bbe a253 a5be
00000290: e5a8 aa3e 0eb0 fd3d 3882 833d b041 0cbe
000002a0: d869 9ebe e1ee e43c 05df da3d 2db9 eabe
000002b0: 7232 25be 4fdf e53a aaaf ec3e dee4 d23e
000002c0: 1fd5 e23e fdbc 0dbe 15b3 193e e638 ddbe
000002d0: cd01 ba3e 6e74 c33e 41dd b8be 6369 04bf
000002e0: 8054 97bd 0657 833e 3213 54be d23f 8dbe
000002f0: 8320 d43e aa81 883e 9517 00be 61de 023f
00000300: a5eb 3c3e dc6b debd 07fd ce3e 8bcf c13e
00000310: 2f9e 0ebe b959 ae3e 8dfc 73be 756a 8a3e
00000320: 3592 c83e 3e8c b83d 4f92 a33e 7dbc 303e
00000330: f7b5 9cbe ad56 d23e 08f0 d93e c98f 68be
00000340: 1401 f03e ca1f f5be 7b66 81be 1fcd 0abf
00000350: 4c51 e23e c6de 92be b9df dbbd dbb0 cdbe
00000360: 9237 943e 6724 f83e 7d93 a4be 5577 833e
00000370: 67e3 083d 8e59 f43d 680e 883e ed84 093e
00000380: a6dc debe 44ad dbbd e661 a63e 49b3 8c3e
00000390: 4653 cebe 3832 b0be d54e 6e3e da80 20be
000003a0: 04e7 723e 2c78 a8be eb23 3dbe 710a 793d
000003b0: 6f57 47be 4a91 07be 4d2e c53d 3f18 99be
000003c0: 4da8 96be e474 bf3e 23f7 833e 846a f0be
000003d0: b25f a33d 90ff 183e 81d1 aabe dcce 0fbe
000003e0: ce94 0b3e b1d1 b3be a336 ad3e cf41 a53a
000003f0: 9928 953e b46a e63e 50bd d0be f846 da3e
-0.04140101 -0.4292751 0.22598238 -0.1398963 0.4590947 0.11658571 0.062475774 0.4808087
0.009219421 0.31850514 -0.11622725 0.51632243 0.37419617 0.22647618 -0.033091266 -0.05509252
0.334826 0.24088988 0.25726148 -0.22392185 -0.10722124 -0.501474 -0.27941144 -0.37844858
-0.17025764 0.26728302 0.27259263 0.26434758 -0.09638643 -0.14655137 -0.1917104 -0.3012812
-0.23726062 0.18384981 0.05766818 -0.30113888 0.22852485 -0.2853449 -0.571628 -0.48951513
0.12074327 -0.430202 -0.35446814 0.24115478 -0.11856773 0.3643211 -0.48641202 -0.49389777
-0.47419658 0.36137533 0.55096513 0.52448153 0.36156788 -0.12784712 -0.33426347 -0.3876697
-0.30268836 -0.3044547 -0.42455158 -0.3006808 0.11062509 0.49102026 -0.22565734 0.33938324
-0.43512297 0.33466682 0.34054598 0.10885253 -0.11484621 -0.27383593 -0.5309086 0.42356455
0.22409184 -0.33189943 0.22578241 -0.49062887 -0.09314679 0.17379728 0.21985419 -0.0058880793
-0.1163932 -0.0091695655 -0.25863186 -0.22256117 0.005860616 -0.42926174 0.4501227 0.24554372
0.006125606 0.064900614 -0.17847417 0.2862529 0.18959555 -0.3638001 0.10330122 0.4519245
-0.1633686 0.4722636 -0.40178436 -0.3067177 -0.15817267 -0.035350747 0.218661 -0.17310798
0.055160906 0.12799728 0.51173985 0.4379327 0.1445916 -0.47770864 0.3312595 0.39630786
0.089450054 0.09746849 -0.03887148 -0.44533727 -0.14563568 0.10279848 -0.14516047 0.06036554
0.20000462 0.3559648 0.0060752234 0.07517978 0.28614828 -0.27796665 0.38195783 0.23817092
0.2522961 -0.2953688 0.29455143 0.2819826 0.2671612 0.34556797 0.462832 -0.41179168
0.22620872 0.11530258 0.42323607 0.106013864 0.39537647 -0.09971777 0.15567373 -0.27160358
0.19262958 0.3508022 -0.124530785 -0.41684636 0.27804098 0.055046365 0.3925879 -0.32388157
0.0013767615 0.082787454 0.19672745 0.50180554 -0.36216378 0.2428663 -0.24512604 -0.35818648
0.23151381 0.20477566 -0.13597682 -0.3229037 0.3333198 0.123870954 0.06421322 -0.13696933
-0.30940127 0.027945938 0.10687069 -0.45844403 -0.16132525 0.0017537865 0.4622777 0.41190237
0.44303223 -0.13841625 0.1500972 -0.43207473 0.363295 0.38174766 -0.36106303 -0.5172331
-0.07389164 0.2565233 -0.20710447 -0.27587754 0.41431054 0.26661426 -0.12508996 0.51120573
0.18449266 -0.10860416 0.4042742 0.37853655 -0.1392753 0.34052828 -0.23826809 0.27034345
0.39174047 0.09011124 0.31947562 0.17259403 -0.30607578 0.41081753 0.42565942 -0.227111
0.46875823 -0.47875816 -0.252735 -0.5421924 0.4420265 -0.28685588 -0.10736031 -0.40173993
0.28948647 0.48465273 -0.32143775 0.2567698 0.033419993 0.11931144 0.2657349 0.13429613
-0.43527716 -0.10726407 0.32496566 0.27480534 -0.40297908 -0.34413314 0.2327226 -0.15674153
0.23720938 -0.32904184 -0.18470733 0.060800973 -0.19466947 -0.13239017 0.09627972 -0.2990131
-0.29425278 0.37393868 0.25774488 -0.46956265 0.07977237 0.1494124 -0.33362964 -0.14043754
0.13630983 -0.3512092 0.33830747 0.0012608113 0.29132536 0.45003283 -0.40769434 0.4263227

fc.0.bias f4 [128]
00000000: 4992 033e 1caf 77be c8de cc3e b2bc 8bbe
00000010: c978 cbbe a309 1ebe a62a 8e3e 86bd abbe
00000020: fce4 af3d a749 81be a303 d63e 6a3a de3e
00000030: a0b2 e23d d36d 97be 0c8b 013b 86c7 c43d
00000040: 6430 813e 4bcb 7a3e 0411 f33e e097 b03e
00000050: 36ee eabe 8d64 6d3d a481 56be 5df1 ca3e
00000060: 5f86 84be 9521 973e 932d 043d 4b32 e13e
00000070: d8ec 50be 08d5 92bc 4096 c3bd b223 4e3e
00000080: b20d cb3e 5a0c e33e 0cff 9c3d c104 d53e
00000090: 93e4 08be 4ad8 0e3e f8f4 f63e 6782 ae3e
000000a0: 87cc 20be ea58 f03e 39a7 d0be 13e6 f0be
000000b0: e302 b4bc 4bb1 b6bc 52f3 d53c 2d0f cc3e
000000c0: 878b 48be 5f92 ac3d de8f 81be 0c35 d73e
000000d0: 4801 efbc b32e 8bbd d373 e53e 8510 99be
000000e0: 28ab 523c 81f0 983e f2af 40be 180d dc3e
000000f0: d831 523e 5776 473e e1dd a53e cc81 d03e
00000100: 52a2 73be e273 a2bd 68df e5be 8dde bdbe
00000110: 76e4 973e 50eb 3a3e 5e23 babd babe c33e
00000120: 5c2c aa3e a6a9 e6be 2cb8 d9bd 5043 6ebc
00000130: 970e ce3e 0a9d aebe c3a5 0cbd 579d 22bd
00000140: 6016 aabd 0e10 d83d ebe2 99bd fb9d e83e
00000150: 4cbc eb3e 58c2 c13e afb7 123e 138e 8ebe
00000160: 04d7 d93e 6539 b43d b19e 8d3e 312a a43e
00000170: 3c68 8d3e d796 7b3d 7405 23be 034a f23e
00000180: 563a 8d3b 8b49 13bd fdcd 13be 3b18 49be
00000190: 5684 b6bc 5aa0 2e3d d557 b9bd 488f f63e
000001a0: 83f2 9fbe 7d3c a2bd d874 f43e 8060 c53e
000001b0: 6093 b9be e9c8 9e3e 1339 dd3e 9620 173c
000001c0: 73a2 09be f33d d4bd d618 68be eff0 d33e
000001d0: ee75 813e c5de 733e 53b2 30bc a436 283e
000001e0: 94a5 523e cff0 f5be f640 4c3e 297e 4fbe
000001f0: 4295 443e ec6d 85be 7739 75be 9bca e63e
0.12848772 -0.24187893 0.4001372 -0.272924 -0.3974059 -0.15433364 0.27766913 -0.33543032
0.08588597 -0.25251505 0.4179965 0.4340394 0.11069226 -0.29575977 0.0019766716 0.096083686
0.25232232 0.24491613 0.4747392 0.3449087 -0.45884866 0.05795722 -0.20947891 0.3963727
-0.25883767 0.2951781 0.032270025 0.43983683 -0.20402849 -0.017923847 -0.09550142 0.20130804
0.39658886 0.4434536 0.07665834 0.4160519 -0.13368444 0.13949695 0.4823377 0.34083864
-0.15703021 0.46942836 -0.4075258 -0.47050533 -0.021974033 -0.022301337 0.026117 0.39855328
-0.19584475 0.084263556 -0.25305074 0.4203266 -0.029175416 -0.067960165 0.4481493 -0.29895416
0.01285819 0.2987099 -0.18817118 0.4297874 0.20526826 0.19478737 0.32395843 0.40724027
-0.23792389 -0.07932259 -0.44897008 -0.37083855 0.2966649 0.18253827 -0.09088777 0.3823145
0.3323697 -0.45051306 -0.10630831 -0.014542416 0.40245506 -0.34104186 -0.03433777 -0.039700832
-0.08305049 0.10549937 -0.07513984 0.4543303 0.46042097 0.37843585 0.14327882 -0.2784277
0.42546856 0.0880001 0.27660134 0.3206344 0.27618587 0.06142315 -0.15920049 0.4732209
0.0043099327 -0.035958808 -0.14434047 -0.1963815 -0.0222799 0.042633392 -0.09049956 0.4815619
-0.3123971 -0.079216935 0.47745395 0.38550186 -0.3624525 0.31012657 0.43207607 0.009224078
-0.13440876 -0.103633784 -0.22665724 0.41394755 0.25285286 0.23815449 -0.010784703 0.16427094
0.20570976 -0.48035285 0.19946656 -0.2026297 0.19197562 -0.26060426 -0.23947702 0.4507645

fc.2.weight f4 [128, 128]
00000000: b148 acbd 5a4f 853d 3d1b b03d 3bb5 533b
00000010: 1694 a93d 7b77 0e3d 93df 35bd 6c94 28bd
00000020: 8aca a2bd cf8f 173d d0c9 d53c 8aad 22bd
00000030: 0456 203d 8c26 54bd 610d 79bd 59ef 3a3d
00000040: c0d1 44bc 5e77 84bd fd40 7fba d129 7abd
00000050: d5ca 863d 9006 4ebd 9d48 46bd 770f 9c3c
00000060: 4ee9 43bd f79c 2dbd 6572 743b e912 063c
00000070: 9e3e 94bc bf98 c83c ce34 023d 89dd 81bb
00000080: 426d 17bd 1f44 22bd b5a4 953d b619 f73b
00000090: b76a f33c 1342 a4bd 12a8 3ebd b9d4 05bd
000000a0: bac9 933c 6ae4 6f3d f2ae 633d c5b4 733c
000000b0: dbab b7bd 1f09 963d a2a8 1b3c da78 f1bc
000000c0: ff34 0a3d 2093 9c3d 2c53 253a d065 28bd
000000d0: f6c8 f6ba f121 09bb 64ba df39 4fc9 1ebd
000000e0: 00f2 213d 5e71 4ebd 244c 663d 9aab bdbd
000000f0: 75ca 863d 166a 123d eb79 963d 0517 883c
00000100: 748f 7dbd ad6f 74bd 6726 c8bc f038 64bd
00000110: 170f 21bc 5127 523c c820 3bbd 4786 89bc
00000120: 724d 99bd 387a a03c 69b0 fabc 97ba bcbc
00000130: 22c7 9a3d b9d4 8d3d fe53 88bb ac2c 753d
00000140: efb8 0e3d 39a8 243d a458 343c 4606 cfba
00000150: 243c 0ebd 3935 94bd 913c a7bd b5f5 b33d
00000160: a85b 513c 5ea3 bf3d 55ea 313d 98ed c43c
00000170: 420f 52bd 6b2d f0bc 93e4 f93c b45b 98bd
00000180: d449 573d 1d50 ac38 ed5e e9bc 2b3e 5bbd
00000190: 564b 393d 3380 873b 5713 22bd 058a b3bb
000001a0: 2a01 89bd 0193 05bc 4563 543d 803f 91bd
000001b0: 2baf 583d 3682 31bd b117 863d ef73 873d
000001c0: b39a a2bc 4334 33bd 7486 57bd 2f16 fc3c
000001d0: 3da2 bcbd bec2 ca3c 529f b63d bce4 16bd
000001e0: d965 803d c31c debc 2f5a 473d 3194 9bbd
000001f0: ead9 a73d e933 8f3c f63a 703d de65 8fbd
00000200: 6ae3 b6bd 6537 263c 567e c43d e499 703d
00000210: 3072 b33c b1cf 9abc df39 4fbd 8da8 30bd
00000220: 0c7c d6bc 5bdb f9bd 2c77 91bd 7250 1fbd
00000230: eb23 e0bc e819 7e3d 6637 923a db7c cabc
00000240: 901e 3dbd b151 10bd 3416 613d 7c69 89bd
00000250: 397a 07bd d6b3 853a 203e 83bd 9d47 23bd
00000260: 409f 923d 7a8f 023d 0dd4 053e c8d0 a2bc
00000270: a43a 4a3c 25f3 863d 49ea 59bc f79b 7a3d
00000280: b6d6 28bd 521f e53c 567b 90bc 3839 64bd
00000290: d647 1bbd 2896 63bd d76e af3d ff17 1c3d
000002a0: 7b10 a63c 5ec3 b03c 75fe ebbc ea18 0c3d
000002b0: 9e32 943c de7c 67bd f980 02bd 5639 4f3c
000002c0: 8bad c13d f48a a73d f951 7dbd 8f7e d63c
000002d0: 7338 e1bd 6441 143d 1323 653d bfbd bfbb
000002e0: 091a a5bc 8460 523d 5e8c ac3d 2f73 923d
000002f0: f245 83bd 0b5a b23c c6dc 8cbd 6059 9bbd
00000300: e616 04bc cd54 97ba 5da9 353d 85d5 babd
00000310: 9d89 cabd bc9f f53d cbb2 70bd 54c8 9cbd
00000320: 024b eabb e265 4c3d ed36 5dbd dbc3 483c
00000330: ecb8 80bd d783 efbb 548d af3d 33eb d53c
00000340: 4b29 cdbb bd46 e4bd 5f0e 663c c466 45bb
00000350: 0d76 4d3b 39ab 5fbc 1c7f 75bd c07c 99bd
00000360: 9561 b33d 71e6 91bc 4c0d 373b a7e1 bcbd
00000370: a05e 913d 0b23 053c 39d1 3f3d fc1a 7abd
00000380: 94ce 403d c29f d73d dc97 24bd c8e9 143d
00000390: 16fe 513d 1cbd 1d3d 78dc c63d 0a96 8e3d
000003a0: 06a5 b1bd 9274 69bd ab2c 693d 5448 52bd
000003b0: d426 ac3d 87d1 8a3d 7d09 75bb cca9 16bd
000003c0: fcb6 9a3d aaa6 233d 2162 0abd 2740 d1bd
000003d0: 51cd ffbc fb79 913c b391 593c d05f e3bd
000003e0: 2e29 53bd bfd7 12bc 5eb9 783c 06a1 b23a
000003f0: 73ff 9d3d 4db5 81bc 712d 023c 61eb 8e3d
-0.08412302 0.06509276 0.08598945 0.0032304067 0.08280198 0.034781914 -0.04440267 -0.04115717
-0.079487875 0.03700238 0.026097208 -0.03971628 0.03914453 -0.051794574 -0.060803775 0.045638416
-0.012012899 -0.0646808 -0.0009737162 -0.061075035 0.06581656 -0.050299227 -0.048409093 0.019050343
-0.04782992 -0.04238602 0.003729963 0.0081832195 -0.018096264 0.024486898 0.03178864 -0.0039631766
-0.03696943 -0.039615747 0.07306806 0.007540907 0.029713972 -0.08020415 -0.046547003 -0.03267357
0.018040527 0.058567442 0.055586763 0.014874642 -0.08968326 0.073259585 0.009500654 -0.029476572
0.033741947 0.07645249 0.0006306644 -0.04111272 -0.0018828202 -0.0020924772 0.00042672746 -0.0387662
0.03953743 -0.050401084 0.056224957 -0.09261246 0.06581584 0.035745703 0.07347473 0.016612539
-0.061904386 -0.059676815 -0.024432374 -0.055718362 -0.009830258 0.012826757 -0.04568556 -0.016787661
-0.07485475 0.019589528 -0.030601697 -0.023038192 0.07557513 0.06925339 -0.0041604033 0.059857056
0.034844335 0.040199492 0.011007462 -0.0015794716 -0.034725323 -0.07236714 -0.08165849 0.08787099
0.0127782 0.09357332 0.043436367 0.024039075 -0.051284082 -0.029318532 0.0305045 -0.07439366
0.052560642 8.2165214e-05 -0.028487647 -0.053526085 0.04523786 0.0041351556 -0.039569225 -0.0054790997
-0.06689675 -0.008152724 0.051852483 -0.0709219 0.05290143 -0.04333707 0.065474875 0.066139095
-0.019849157 -0.043751013 -0.05261846 0.030772297 -0.09210632 0.024751063 0.08917107 -0.03683923
0.06269426 -0.027113324 0.04866999 -0.07596625 0.08195861 0.017480807 0.05864998 -0.070018515
-0.089300945 0.010145043 0.09594409 0.05874051 0.021905035 -0.018897863 -0.0505923 -0.043129493
-0.026182197 -0.12200042 -0.07102808 -0.038895078 -0.027360877 0.062036425 0.0011155426 -0.024717739
-0.046171725 -0.035234157 0.054952815 -0.06709573 -0.033075545 0.001020069 -0.06408334 -0.039863218
0.07159281 0.03187511 0.13069172 -0.019874945 0.012343083 0.06589345 -0.013300487 0.061183896
-0.04122039 0.027969036 -0.017636936 -0.05571863 -0.037910305 -0.055563122 0.08566063 0.038108822
0.02027153 0.021577533 -0.028807858 0.034203447 0.018090542 -0.056515567 -0.03186128 0.012647947
0.09456929 0.081808 -0.061845753 0.026183395 -0.10997095 0.036195174 0.055941653 -0.005851477
-0.020154016 0.051361576 0.084252104 0.07150876 -0.064098254 0.021771451 -0.06878047 -0.07585406
-0.0080621 -0.0011545658 0.04435097 -0.09122757 -0.09889529 0.119933575 -0.05876426 -0.07655397
-0.007150055 0.04990185 -0.05400746 0.012253727 -0.06285271 -0.0073094177 0.08571878 0.026113128
-0.006261026 -0.11146305 0.014041512 -0.0030121068 0.0031350881 -0.0136516625 -0.059935674 -0.07494497
0.08758847 -0.017810078 0.002793151 -0.09222727 0.070981264 0.008126031 0.04683039 -0.06106089
0.04707201 0.10528518 -0.040183887 0.036355764 0.051267706 0.038510427 0.0971002 0.069622114
-0.08674054 -0.056995936 0.056927364 -0.05133851 0.084058434 0.067782454 -0.0037389689 -0.036783025
0.07554433 0.039953865 -0.03378499 -0.10217314 -0.031225832 0.01775836 0.013279366 -0.11102259
-0.051552944 -0.008962571 0.015180914 0.0013628311 0.07714739 -0.015833521 0.007945404 0.06978489

fc.2.bias f4 [128]
00000000: dd29 703d a477 e2ba 0f13 a7bb d30a 8ebd
00000010: 032a 3d3c 676b 2b3d 9688 09bd 7e40 803d
00000020: b310 6fbd 6bd9 10bd 5d27 d13c b092 d6ba
00000030: 5ff0 443d 9d11 48bd 5fb2 2cbd fefd 9d3d
00000040: bade 04ba 14c5 32bc 0a5a 31bd 6552 783d
00000050: 7caa a33d b11c 963d 3fa9 62bd e67c 90bd
00000060: b31f a0bd 6907 2d3d 7fb6 17bd bd53 d8bc
00000070: ff2e 4cbd 5e4c 6f3d abce e7bc 4344 d13c
00000080: e2f1 aa3d 7daa e6bc da1b 233d d507 7c3d
00000090: 1f46 4b3d e6f4 9eba b4d3 a13d c880 b2bb
000000a0: 9e05 d63c 7ab5 513d 3fb3 763d 9292 03bd
000000b0: 7ffe fb3b 5c48 0ebd 82f0 44bd c217 c63c
000000c0: 1670 183d b107 773d 732b e43c a291 d2bb
000000d0: c763 9b3d 453a 31bc 4471 2ebd 2b94 9dbd
000000e0: 40f2 3a3d fc77 3b3d 06e3 d8bb 84bc 7ebd
000000f0: 30e9 8a3d dea9 013d 1229 533d 9d98 a23b
00000100: 19b0 97bd fa00 43bd ed7b ad3d 92e7 5bbc
00000110: ff65 8ebd ad87 73bd b654 c93c 9686 8fbd
00000120: 099f afbd 0c4a 9fbd bf65 983d 3d84 ec3c
00000130: 21f3 3fbc b186 9f3d ed5f 643d 2e96 61bd
00000140: 64f4 1f3d 5b74 073d 689b 223d 930a 2c3d
00000150: 15ba 3fbd 508b a33d d60b 0e3d 0b2b 4cbc
00000160: c020 ac3c 726a bbbc 9c86 15bd cdf4 b2bc
00000170: bfea 16bb 06ad ad3c 806f 61bd 4b1c aabd
00000180: 8085 94bc 3fc6 af3a 055c 63bc 848f 823d
00000190: 8514 583d ba18 903d 1f75 a5bc 132f d23c
000001a0: e2dd 92bc 54d2 343c 2f3b 43bd 6066 953d
000001b0: b209 c2bc 4df0 ecbc 4d69 6b3d 17cd a83d
000001c0: 2fcd 5fbb daba b93c 0887 abbd b1da a03c
000001d0: effd 953c 29da be39 919c e7bc 32cf 923c
000001e0: c37c bdbc eac6 76bd 9243 c1bc cb77 55bd
000001f0: ddfc 163d 83f9 503c 6f85 973d f6c5 e1bc
0.058633674 -0.0017278087 -0.0050987075 -0.06935658 0.011545661 0.041850474 -0.033577524 0.06262301
-0.058365535 -0.035363596 0.025531465 -0.001637062 0.0480808 -0.048844922 -0.042162295 0.07714461
-0.0005068589 -0.010911245 -0.04329876 0.060625453 0.07991502 0.07329691 -0.055337187 -0.070550725
-0.07818546 0.042243395 -0.037039276 -0.026407117 -0.049849506 0.05842244 -0.02829679 0.025545245
0.08346917 -0.028157467 0.039821483 0.061530907 0.04962742 -0.0012127429 0.07901707 -0.005447481
0.026125725 0.05119846 0.060229536 -0.032122202 0.0076902504 -0.034736976 -0.04808093 0.02418125
0.03721627 0.06031007 0.02785275 -0.006426052 0.075873904 -0.010817115 -0.042588487 -0.076942764
0.045641184 0.045768723 -0.00661886 -0.0621915 0.06782758 0.03165614 0.05155284 0.0049620406
-0.07406635 -0.047608353 0.084709026 -0.01342191 -0.06953048 -0.059455562 0.024576526 -0.07008092
-0.085752554 -0.07777795 0.074412815 0.02887165 -0.011715681 0.07789362 0.055755544 -0.055074863
0.03905143 0.03306995 0.03969899 0.04200227 -0.04680832 0.07985556 0.034679256 -0.012461434
0.02101171 -0.022877906 -0.036505327 -0.021845246 -0.0023028103 0.021200668 -0.055037975 -0.08306178
-0.018130064 0.0013410522 -0.01387692 0.0637503 0.052753944 0.07035966 -0.02019745 0.025657212
-0.017928068 0.011036474 -0.047663864 0.07294917 -0.023686264 -0.028923178 0.05747347 0.08242243
-0.0034149399 0.022672106 -0.083753645 0.01963553 0.018309562 0.00036402166 -0.028272899 0.017921064
-0.02313078 -0.060248293 -0.02359179 -0.052116197 0.036862243 0.012754801 0.07398497 -0.027560215

fc.4.weight f4 [2, 128]
00000000: 8520 4dbd 1131 8dbd c99d afbd e30f 943d
00000010: aad9 ec3d 8c3d 343c 7a4e 893d 9a76 3d3d
00000020: a2b3 d3bd 49ec b9bd 2dc4 b93c 553e 78bd
00000030: 678d 023c 53f5 a5bd 3177 25bd 29f0 29bd
00000040: c2b3 bcbd 215c bfbd 8544 8c3d 0ba7 aebd
00000050: f601 923c bee7 863d d498 183d 860d ec3d
00000060: 3a97 c03d cdd0 5e3c cf03 f1bd d4ed dbbd
00000070: 8186 5ebd 864d 51bd 0687 c2bd c951 88b9
00000080: b964 aabb f606 c4bd 7289 67bd 2077 85bd
00000090: 1efc 57bd 25c9 f7bc 5a7a 86bd 58d9 b53d
000000a0: 273c f7bc 86f5 4bbd 35bc 013c 8240 9fbd
000000b0: 9c60 d93d 6f49 85bd ab95 243d 30f7 423d
000000c0: 4fec 04bd d7d2 863b e3cb 82bd 42e1 fe3c
000000d0: 3d08 bb3d e4ad 88bd 1b79 27bd cbb2 c13d
000000e0: 1051 c6bc 93f2 2dbd 6f63 4c3d 18c3 ad3d
000000f0: 126f eabd bb51 b2bc b014 113c 0d0e b3bd
00000100: d37a f8bd 0750 ca3d f6ad 0e3d ac7d 0abd
00000110: 8ff0 8f3d 5288 20bb dea4 413d 266c 963d
00000120: 2b5d bdbd ae7a be3d 5370 613c 87d2 2d3b
00000130: 58b7 4fbd e081 a7bd f906 52bc 02d1 93bb
00000140: 7688 993c 791b 35bd 8ecd a23d bccb a83d
00000150: 3b1f a1bd 1338 7d3d 0d10 893d 10a7 cfbd
00000160: dadf 0c3d 6e00 d7bd 5217 223d 8aab 983d
00000170: 62bb 88bd 5056 873d 0f79 13bd 9b89 cdbc
00000180: 75bf 813d 8a87 333d f897 25bd c1bb a23d
00000190: d83b 193c c99e bcbd a7e2 93bd 83b0 c4bd
000001a0: fe3b 8bbd bab9 8d3d 4264 96bd 869b cd3d
000001b0: 5568 803d 31a4 333d 0a50 c4bd 34d4 d4bb
000001c0: 0185 823d 2bd5 713d 66af 943d 44c0 48bd
000001d0: 3ae5 e13c 9b43 ae3d 771f 953b 925a 043d
000001e0: 5f23 963d 2f1e abbb 925d 303d 8581 81bc
000001f0: e49e 76bd 4e36 293c baac 19bd 6ef4 bcbd
00000200: 1c0a 4c3d d485 bf3d a031 df3d 2b4f b33c
00000210: 299b a03c 121e b6bd 6f87 d0bd 36e0 e7bd
00000220: ab88 c93d 6917 5dbd 2751 6e3d 8621 823d
00000230: 926f 8abd a888 f73d 68ee d83d bd19 053d
00000240: 13f8 a43d ccea 98bd fa83 a0bd 9a48 b03c
00000250: d7e4 acbd e977 87bd af08 93bb 5057 4a3d
00000260: a4ae 9abd 134e aa3d 39b0 c83d c289 ea3b
00000270: 31c9 113d b707 7c3d 43d9 28bd c9e5 2c3d
00000280: 8540 babd d334 d03c 75ac b03c 1ca7 ee3d
00000290: 8ab4 aa3d f00c c5bd 269e 9d3d ae6c 1ebb
000002a0: 9dcf 883d 5cfc e93d 5b8e e43d 5a60 1f3d
000002b0: 3666 25bd ee08 c3bd d8b5 c5bd 5a07 a93c
000002c0: 25a1 433d ef25 8d3d e3df 943d 58d7 93bc
000002d0: 3132 dabd bffa c43b ef17 c33c 0ea2 d5bd
000002e0: 4b25 ed3d 52b7 d738 d743 8cbd fcbc 8c3c
000002f0: 0553 22bd 7826 b7bd 17e6 ddbd 8028 3bbd
00000300: 0f57 643d 0563 43bd 8bbf c7bc d8a3 d43d
00000310: e28c 71bb 4e1e ae3d 0746 673d 0647 79bd
00000320: a5a3 11bc 1aef c7bd 1d64 96bd 5d8e 80bd
00000330: 09f3 3e3d cfd5 a0bc 44b9 bebd f225 733d
00000340: 3585 b83d 78e0 8c3d 23e2 c9bb 2760 80bd
00000350: a500 253d 93df b1bd 073b 12bd 7304 ed3d
00000360: 3e03 b93d a292 543d 7e00 c73d 88d2 d9bd
00000370: 1719 bbbb 9891 e6bc 4fdb e43c dd60 c93d
00000380: baf5 fabc 564b dabd 187f ec3c 79bb 94bb
00000390: 7031 8c3d 991a 5abd 4c2f 8c3d fd51 e73d
000003a0: e0e3 bd3d 9a65 4cb9 236f 50bc 2856 d9bd
000003b0: ddbd f3bc 62aa fa3d ce1a cc3d 9802 65bd
000003c0: ee7b 73bd bcf1 c0bc fc84 01bd fe91 c9bd
000003d0: d38f f7bc f157 26ba 1d9f 5fbd 518e 09bd
000003e0: 3d44 cdbd 89f4 abbd bd67 c4bd 9b46 05bd
000003f0: c8cd 2b3d 7041 123d a6ec 8fbd e291 8fbc
-0.05007984 -0.06894124 -0.08575017 0.07229593 0.115649536 0.011001002 0.06704421 0.046255685
-0.103369966 -0.09078271 0.022676552 -0.06060632 0.007968283 -0.081034325 -0.040396873 -0.0414888
-0.092139736 -0.09343744 0.068490066 -0.08527955 0.0178232 0.0658717 0.037255123 0.11526017
0.09403844 0.013599587 -0.117683046 -0.107387215 -0.05432749 -0.051099323 -0.0949841 -0.00026000876
-0.0051999954 -0.0957164 -0.056527562 -0.06516862 -0.052730672 -0.03024728 -0.065663055 0.08879346
-0.03018005 -0.049794696 0.007918407 -0.07775976 0.1061413 -0.06508147 0.040181797 0.047599018
-0.032451924 0.0041144895 -0.063865446 0.03111327 0.09132431 -0.06673792 -0.04088698 0.0945793
-0.024208575 -0.042467665 0.049899515 0.08484477 -0.11446966 -0.021767488 0.00885503 -0.08742914
-0.12132802 0.09878545 0.03483387 -0.033811256 0.07028305 -0.0024495316 0.04727637 0.073448464
-0.09246286 0.09300743 0.01375969 0.002652319 -0.05071196 -0.081790686 -0.012819045 -0.0045109997
0.018741827 -0.044215653 0.07949363 0.08241984 -0.07867285 0.061821055 0.066925146 -0.101392865
0.03439317 -0.10498129 0.03957302 0.074545935 -0.066763654 0.0660826 -0.036004122 -0.02509003
0.06335346 0.043830432 -0.04042813 0.079459675 0.009352647 -0.09209973 -0.07220965 -0.096039794
-0.06798552 0.0692019 -0.073433414 0.10039429 0.062699 0.043857757 -0.09585579 -0.006495023
0.06373025 0.059041183 0.07260017 -0.049011484 0.027575124 0.085089885 0.00455087 0.032312937
0.07330965 -0.005222104 0.043057986 -0.01580883 -0.060210124 0.010327889 -0.03751824 -0.09226309
0.04981433 0.093516976 0.10898137 0.021888336 0.019605236 -0.08892454 -0.10182082 -0.11322062
0.098405205 -0.053977404 0.05818286 0.0635405 -0.067595616 0.12086612 0.105923474 0.03249525
0.08055129 -0.07466659 -0.078376725 0.021518994 -0.08442085 -0.06614668 -0.004487119 0.049399674
-0.07552841 0.08315673 0.09799237 0.0071575353 0.03559226 0.061530795 -0.041222822 0.042211328
-0.090943374 0.025415814 0.021566609 0.11652967 0.08335216 -0.09621608 0.0769618 -0.0024173665
0.06680224 0.11425087 0.11159965 0.038910247 -0.04038068 -0.095231876 -0.096538246 0.020633388
0.0477611 0.06892001 0.072692655 -0.01804702 -0.106541045 0.0060113366 0.023815123 -0.104313
0.11579379 0.00010286145 -0.06848877 0.017179959 -0.039629955 -0.08942884 -0.10834902 -0.04569292
0.055747088 -0.047701854 -0.024383327 0.10382813 -0.0036857654 0.08501874 0.056463268 -0.06085875
-0.008889114 -0.09762402 -0.07343314 -0.06277154 0.046618495 -0.019633202 -0.0931268 0.05936236
0.09009782 0.068787515 -0.006160991 -0.062683396 0.040283818 -0.086852215 -0.035700824 0.11573114
0.090338215 0.051897652 0.09716891 -0.10635859 -0.005709778 -0.028145596 0.027936606 0.09832928
-0.03063475 -0.106589004 0.028869197 -0.00453895 0.06845367 -0.05324802 0.06844959 0.11294935
0.09271979 -0.00019492806 -0.01272181 -0.10612136 -0.02975362 0.12239529 0.0996605 -0.055910677
-0.05944436 -0.023552768 -0.031620964 -0.09842299 -0.030219948 -0.0006345502 -0.0545951 -0.03358299
-0.10022781 -0.08396251 -0.09590099 -0.032538038 0.041944295 0.035706937 -0.07027559 -0.017525617

fc.4.bias f4 [2]
00000000: 4e1d dfbb 260d 373d
-0.0068089133 0.044690274
