2.REINFORCE/ckpt/InvertedPendulum-v5_REINFORCE_episode_6643_reward_953.pth (torch, 8616 bytes, 8 tensors)

fc.0.weight f4 [16, 4]
0	0x3ea9ed67	0.33188936
1	0x3df1bd08	0.11803633
2	0x3d04a790	0.032386363
3	0xbd31c7c4	-0.043403402
4	0x3d92dfca	0.071715906
5	0x3f2055ec	0.62631106
6	0xbd0c2ae4	-0.03422059
7	0x3f0fafeb	0.56127805
8	0xbe4f190c	-0.20224398
9	0x3eb4148d	0.3517193
10	0x3bf54102	0.007484556
11	0x3eaebef1	0.34130052
12	0x3e8e6f81	0.27819446
13	0x3f0499a3	0.5179693
14	0x3ed00873	0.40631446
15	0x3e5d8fab	0.21636836
16	0xbe60e4ea	-0.21962324
17	0xbdde33a1	-0.10849691
18	0x3dba4b46	0.090963885
19	0x3e85f48d	0.2616314
20	0x3ed54732	0.4165588
21	0x3eee074a	0.46489936
22	0x3f0142e3	0.50492686
23	0x3f0ad410	0.5422983
24	0xbe375b7a	-0.1790599
25	0xbeb6e4ac	-0.35721338
26	0xbb9c7055	-0.004774133
27	0xbcb5380e	-0.022121456
28	0xbe386255	-0.1800626
29	0x3f2f265e	0.6841792
30	0x3ed2275e	0.4104566
31	0x3e3cb375	0.18427832
32	0xbe3daf2b	-0.18523853
33	0x3e21aebd	0.15789314
34	0x3ea44af6	0.3208844
35	0x3eafbb28	0.34322476
36	0xbdc11bcf	-0.09429132
37	0xbe134c3d	-0.14384551
38	0xbd4de845	-0.050270338
39	0x3ed7f6b4	0.42180407
40	0x3eba498b	0.36384234
41	0x3f090a5a	0.5353142
42	0x3ed556ea	0.41667873
43	0x3ef6e695	0.48222795
44	0x3dbc519e	0.09195255
45	0x3f3601fb	0.7109677
46	0xbe5aa2c9	-0.2135116
47	0xbc8bc960	-0.017063797
48	0xbeec79a6	-0.4618656
49	0x3e27b29d	0.1637673
50	0x3e1a4248	0.15064347
51	0x3f09a010	0.5375986
52	0xbee72466	-0.45144957
53	0x3e35be48	0.17748368
54	0x3ec62be2	0.38705355
55	0xbeff8816	-0.49908513
56	0x3ebef9d2	0.37299973
57	0xbeb13191	-0.3460813
58	0x3b5a9760	0.0033354387
59	0xbe966bed	-0.29379216
60	0x3e3c5bd8	0.1839441
61	0x3f333669	0.700049
62	0x3e204249	0.15650286
63	0x3efdc036	0.49560708

fc.0.bias f4 [16]
0	0xbe27537f	-0.16340445
1	0xbc2aa424	-0.010415111
2	0xbe687870	-0.22702193
3	0xbed26b9a	-0.41097718
4	0xbebfb8e5	-0.3744575
5	0x3d1ce4cc	0.038304135
6	0xbe093c3a	-0.13401881
7	0x3ea4c7c9	0.32183674
8	0x3e8058c4	0.25067723
9	0x3c69f692	0.014279978
10	0xbec6d1fc	-0.3883208
11	0x3e0c9c0a	0.13731399
12	0xbdb3913b	-0.08767935
13	0xbe10f8bb	-0.14157383
14	0xbeba5184	-0.36390316
15	0x3ea136a5	0.31487003

fc.2.weight f4 [32, 16]
0	0xbd951f54	-0.07281366
1	0x3d921ae6	0.07134037
2	0xbd91c363	-0.07117345
3	0xbdc922af	-0.098210685
4	0xbe0bbd58	-0.13646448
5	0xbe68db22	-0.22739843
6	0x3e29e17c	0.16589922
7	0x3d904eb8	0.070462644
8	0x3c9b08c6	0.018925082
9	0xbe44d9d2	-0.19223717
10	0x3e52dfae	0.2059314
11	0xbe9a11c9	-0.30091694
12	0xbe2c2ffe	-0.16815183
13	0x3b9199a1	0.004443363
14	0x39e4a36f	0.00043609316
15	0xbe8ce45f	-0.27517983
16	0xbda6e462	-0.08149029
17	0x3e81bd7e	0.25339884
18	0xbd754922	-0.059884198
19	0x3e070185	0.13184173
20	0x3da46447	0.08026939
21	0x3dfa72ea	0.12228949
22	0xbc428598	-0.011872672
23	0xbbea3e4b	-0.007148539
24	0xbcc98337	-0.0245987
25	0xbe359b9e	-0.17735144
26	0xbe2ffa16	-0.17185244
27	0x3ea48072	0.32129246
28	0xbdb25393	-0.08707347
29	0xbe637d9b	-0.22215883
30	0xbd3d576c	-0.04622595
31	0x3d4f59e8	0.05062285
32	0x3e119946	0.14218625
33	0xbe308a2b	-0.17240207
34	0xbe236aa9	-0.15958656
35	0xbe866b45	-0.26253715
36	0x3e351615	0.17684205
37	0xbdc735bd	-0.09727047
38	0xbc513183	-0.012768152
39	0xbe6c0b55	-0.23051198
40	0x3ce23a86	0.027615797
41	0x3d84fbaf	0.06493317
42	0xbc16d684	-0.009206418
43	0xbe8fbd83	-0.28074273
44	0xbe604645	-0.21901806
45	0x3ce1f9cd	0.027584935
46	0xbe2da5c7	-0.1695777
47	0x3db9cea4	0.09072617
48	0x3d0393b0	0.032123268
49	0xbd24622d	-0.04013269
50	0xbdb93edb	-0.09045192
51	0x3e58a299	0.21155776
52	0x3d3b34e4	0.045704737
53	0x3eac1106	0.33606738
54	0xbe59ab17	-0.21256672
55	0x3da60e4c	0.08108196
56	0xbc8c3496	-0.017114919
57	0xbde90c27	-0.11379271
58	0x3df779a2	0.120837465
59	0x3e4acd00	0.19804764
60	0x3e61eca9	0.22062935
61	0x3daae412	0.08344282
62	0xbda46c32	-0.08028449
63	0x3d2b59fd	0.041833866
64	0xbdbdda54	-0.092701584
65	0x3e743b39	0.23850717
66	0xbd9f85c3	-0.07789185
67	0xbe2b579f	-0.16732644
68	0x3e71fad5	0.23630841
69	0x3e06ba7e	0.13157079
70	0xbe2cc0d3	-0.16870432
71	0x3d78d869	0.06075326
72	0xbd808dbf	-0.06277036
73	0xbcb5e0cd	-0.02220192
74	0xbdf8eb3a	-0.12154241
75	0x3d613b67	0.05498829
76	0x3dc029d4	0.09382978
77	0xbe06c4f2	-0.13161066
78	0xbe86161f	-0.26188752
79	0x3e2d28ef	0.16910146
80	0x3d07814a	0.033082284
81	0x3ea1e085	0.31616607
82	0x3e370db3	0.1787632
83	0xbd998afd	-0.07497213
84	0x3d061b3a	0.03274081
85	0x3e9a7aea	0.301719
86	0xbe18124b	-0.14850728
87	0xbdba6f95	-0.09103314
88	0x3e164fe0	0.14678907
89	0xbe022e81	-0.12713052
90	0x3e3953af	0.18098329
91	0x3e0f463b	0.13991635
92	0xbd8fadc2	-0.070155635
93	0x3e5b3a23	0.21408896
94	0xbe64c25d	-0.22339769
95	0x3e13e1cf	0.14441608
96	0xbe01fbee	-0.1269376
97	0x3da635a2	0.081156984
98	0xbe6b3cfc	-0.22972482
99	0x3de72286	0.11285882
100	0xbe546877	-0.20742975
101	0xbccf8aeb	-0.025334796
102	0x3cea3cce	0.028593447
103	0x3e53de62	0.20690301
104	0xbcb813aa	-0.022470314
105	0xbdd17a2b	-0.1022838
106	0xbe4778fb	-0.19479744
107	0xbe7622f4	-0.24036771
108	0x3ce007ab	0.027347406
109	0xbcf27322	-0.029595915
110	0xbd521365	-0.051288027
111	0xbe67ad03	-0.22624592
112	0xbe6159b4	-0.22006875
113	0x3e7e69ba	0.24845019
114	0x3e3fc029	0.18725647
115	0xbd54cc37	-0.051952567
116	0xbe304628	-0.17214262
117	0x3cab1127	0.020882202
118	0x3e04259a	0.12904969
119	0xbddcee28	-0.10787612
120	0xbe19d867	-0.15023957
121	0x3e130626	0.14357814
122	0xbde86abd	-0.11348484
123	0x3c300b50	0.010744885
124	0x3ddd1d60	0.107966185
125	0xbe737ccf	-0.2377808
126	0xbe93bba1	-0.28854087
127	0x3e6d5d34	0.23180085
128	0xbe0f6f78	-0.14007366
129	0xbea06c0c	-0.31332433
130	0xbda5070f	-0.08057987
131	0xbe8f810b	-0.2802814
132	0x3e316461	0.17323448
133	0xbe4ba2e2	-0.19886354
134	0xbe1e8087	-0.15478717
135	0xbe33615a	-0.17517605
136	0xbe46939e	-0.19392249
137	0x3c495c92	0.012290137
138	0x3e1bf96f	0.1523187
139	0xbe8413dd	-0.25796404
140	0xbe4d0378	-0.20020854
141	0x3d82dadf	0.063894026
142	0x3e6e3c4f	0.23265193
143	0xbe37022b	-0.17871921
144	0x3e382593	0.17983083
145	0x3d74ed2e	0.059796505
146	0x3e4c90aa	0.1997706
147	0x3dd38dd6	0.103297874
148	0xbe2c413d	-0.16821761
149	0x3e7fc5d4	0.24977809
150	0x3e4e0857	0.20120369
151	0xbd17453b	-0.036931258
152	0x3e518d42	0.20464042
153	0x3da52efb	0.080656014
154	0x3d2b76ce	0.041861348
155	0x3e7225cd	0.23647232
156	0x3cbcbab2	0.023038242
157	0xbe8075c2	-0.25089842
158	0xbe1d4a26	-0.15360317
159	0xbd9728c9	-0.07380826
160	0xbd2b7d68	-0.041867644
161	0x3e290cb7	0.16508757
162	0xbe2abba7	-0.16673146
163	0xbe05661b	-0.13027231
164	0xbced6b0b	-0.028981706
165	0xbd24f7b4	-0.04027529
166	0xbe5ddf33	-0.21667175
167	0xbc9543d8	-0.018220827
168	0xbcce6928	-0.025196627
169	0xbd14c89a	-0.03632412
170	0x3da5d40f	0.080970876
171	0x3e1cd6d9	0.15316333
172	0x3e97d227	0.2965252
173	0xbe608743	-0.21926598
174	0xbd8f8e3f	-0.07009553
175	0x3e4cf7cf	0.20016406
176	0x3d97f1d5	0.07419173
177	0xbe1dac4d	-0.15397759
178	0xbd8a2cd7	-0.06746834
179	0xbe17741f	-0.1479039
180	0x3e71747d	0.23579593
181	0xbe5089b6	-0.20365033
182	0x3e54c00a	0.20776382
183	0x3d1a6c02	0.03770066
184	0xbe320942	-0.17386344
185	0xbdc54151	-0.09631599
186	0x3d8fa672	0.07014169
187	0xbc761767	-0.015020228
188	0x3d1cb68c	0.038260028
189	0xbdf417a1	-0.11918569
190	0xbcdce54e	-0.02696481
191	0xbd5f38a2	-0.05449737
192	0x3e514556	0.20436606
193	0x3d1eabc2	0.03873802
194	0x3e8731d5	0.26405206
195	0x3c88aaa9	0.01668294
196	0x3d63453e	0.055485956
197	0x3e0978d4	0.13424999
198	0xbd6b0259	-0.057375286
199	0xbce8a634	-0.028399564
200	0x3e7e4e43	0.24834542
201	0x3e49cd50	0.19707227
202	0xbdb4b4f9	-0.0882358
203	0x3e091b6c	0.13389367
204	0x3e8ba135	0.2727143
205	0x3c7df32c	0.015499871
206	0x3d544998	0.051827997
207	0x3e0bc241	0.1364832
208	0x3e0bd8df	0.13656949
209	0x3e499d39	0.19688882
210	0x3e612ca7	0.2198969
211	0xbe0c2e28	-0.13689482
212	0x3e4acd51	0.19804884
213	0xbcc5c2c9	-0.024140732
214	0xbd84bad8	-0.0648095
215	0x3dfea190	0.12433159
216	0x3dfd7490	0.12375748
217	0x3da960a8	0.08270389
218	0xbd53970a	-0.051657714
219	0xbca3a360	-0.019975364
220	0xbd9f3e07	-0.07775503
221	0x3e357d83	0.1772366
222	0xbdb3112d	-0.087435104
223	0xbe641e15	-0.222771
224	0x3d04872d	0.032355476
225	0x3dba77a8	0.09104854
226	0xbd0723cc	-0.032993123
227	0xbe021eb1	-0.1270702
228	0x3e15dd8f	0.14635299
229	0xbe9d3e26	-0.30711478
230	0x3e9a8b1a	0.3018425
231	0xbe4bf262	-0.1991668
232	0x3cd17ef8	0.025573239
233	0x3d0bf00b	0.03416447
234	0x3dc86604	0.09785083
235	0xbc40702a	-0.011745492
236	0xbde5bdaa	-0.11217816
237	0xbe2ee3b0	-0.17079043
238	0xbcd4911b	-0.025948098
239	0xbe40129b	-0.18757097
240	0xbd88a543	-0.06672146
241	0x3e8596b6	0.26091546
242	0xbd43c000	-0.047790527
243	0xbd2c3474	-0.04204221
244	0xbc9c514d	-0.019081736
245	0xbd40f898	-0.047112077
246	0x3e788895	0.24270852
247	0xbd8f9387	-0.070105605
248	0xbca1a84d	-0.019733572
249	0xbe3f28b7	-0.18667875
250	0x3d995ddc	0.074886054
251	0x3e439c21	0.19102527
252	0xbd3d5e50	-0.04623252
253	0xbd10e683	-0.035376083
254	0xbe57d9ea	-0.21079221
255	0x3e5cd2c8	0.21564782

fc.2.bias f4 [32]
0	0xbe8e218d	-0.27759972
1	0xbda18947	-0.07887512
2	0xbdb25222	-0.08707072
3	0xbe42a7e1	-0.19009353
4	0x3dc41649	0.09574563
5	0xbd9e8ef9	-0.077421136
6	0x3e2829fe	0.16422269
7	0x3deb8b41	0.1150117
8	0xbdc67e60	-0.09692073
9	0xbe364298	-0.17798841
10	0xbe5191c4	-0.20465761
11	0x3e3bdf08	0.18346798
12	0xbda60f8d	-0.08108435
13	0x3e14312c	0.14471883
14	0xbe2af224	-0.16693932
15	0x3d38f8e1	0.045159224
16	0xbe0f7cb4	-0.14012414
17	0xbe345c18	-0.17613256
18	0x3dd1acde	0.1023805
19	0x3e6b96f2	0.230068
20	0x3da0296f	0.07820403
21	0xbdafe9e7	-0.08589535
22	0x3e50b5a6	0.20381793
23	0x3cd6cef8	0.026221737
24	0xbd1c9745	-0.0382302
25	0xbe8504da	-0.25980264
26	0x3e071bf1	0.13194253
27	0x3e6082a9	0.21924843
28	0xbe4d4aa2	-0.20048001
29	0xbd6fc181	-0.05853415
30	0x3e1790ca	0.14801326
31	0x3df0e67b	0.11762711

fc.4.weight f4 [16, 32]
0	0xbd880bc5	-0.0664287
1	0xbe3db85a	-0.18527356
2	0x3d9138d2	0.07090916
3	0x3d950a37	0.07277339
4	0x3dfc005c	0.12304756
5	0xbe3b2f92	-0.18279865
6	0x3e4bcd41	0.19902517
7	0xbd74d7c2	-0.059776075
8	0xbd6fa16b	-0.05850355
9	0xbe0e7f76	-0.1391581
10	0xbddaa2fb	-0.10675617
11	0x3db47293	0.08810916
12	0xbe74475d	-0.23855348
13	0xbe1fdd4c	-0.15611762
14	0x3ce1b2a9	0.027551012
15	0xbd56b112	-0.05241496
16	0x3d45c28d	0.04828124
17	0xbe1dd09d	-0.15411611
18	0xbdbf955f	-0.09354662
19	0x3df89ebb	0.121396504
20	0xbc358c8e	-0.011080874
21	0xbe91e77a	-0.28496915
22	0x3db0b376	0.086279795
23	0xbe7a6722	-0.24453405
24	0xbd0c7190	-0.03428799
25	0xbd5575a5	-0.052114148
26	0x3d072263	0.032991778
27	0xbe3cdeb6	-0.18444332
28	0xbe064687	-0.13112842
29	0xbc7bd427	-0.015370405
30	0x3e3d0676	0.18459496
31	0xbd884a12	-0.06654753
32	0xbdff311d	-0.124605395
33	0x3c968f29	0.018378811
34	0xbded3193	-0.11581721
35	0x3de713e2	0.11283089
36	0xbc68329d	-0.014172223
37	0x3e99dad0	0.30049753
38	0xbb39205b	-0.0028248045
39	0x3d44d0f6	0.048050843
40	0xbcd58227	-0.026063038
41	0x3e208959	0.15677394
42	0xbd8431bd	-0.06454799
43	0x3d454086	0.048157237
44	0x3e0ab2ee	0.13544819
45	0x3e18b0a4	0.14911133
46	0xbe2a8ebd	-0.16656013
47	0xbc28edc1	-0.010310591
48	0x3e209f97	0.15685879
49	0xbdcd412e	-0.10022198
50	0x3d6dbc10	0.05804068
51	0xbe5cac35	-0.21550067
52	0x3c799a2e	0.015234513
53	0xbcff6992	-0.03117827
54	0xbcaf6178	-0.021408781
55	0x3dca8737	0.098890714
56	0x3d6e0a95	0.05811556
57	0x3de65cb1	0.11248148
58	0xbe2c593a	-0.16830912
59	0xbce44409	-0.027864473
60	0xbd2db55b	-0.042409282
61	0x3dba868f	0.09107696
62	0xbe97f00e	-0.29675335
63	0x3e779904	0.24179465
64	0x3daf1ba5	0.08550195
65	0x3d1c265d	0.038122524
66	0x3e4362a0	0.19080591
67	0xbdebffde	-0.11523412
68	0xbe087f07	-0.13329707
69	0xbcdd831b	-0.027040055
70	0x3db8f72b	0.090315185
71	0x3dae0927	0.084978394
72	0x3e39e9aa	0.18155542
73	0x3da77f7d	0.08178613
74	0xbe022230	-0.12708354
75	0x3bbb24b7	0.005711164
76	0xbd8f87ba	-0.0700831
77	0xbe190771	-0.14944245
78	0x3e3a2885	0.1817952
79	0x3c66fbca	0.014098117
80	0xbe6ee202	-0.23328403
81	0x3e2b8098	0.16748273
82	0xbdf64f63	-0.120268606
83	0x3e31e0ab	0.1737086
84	0xbd1600d7	-0.036621895
85	0xbe3ab6b9	-0.18233766
86	0x3e9096c4	0.28240025
87	0xbe05e73a	-0.13076487
88	0xbdf400cb	-0.11914214
89	0xbdc5b5f8	-0.096538484
90	0x3dfb4a0d	0.122699834
91	0xbe39b12b	-0.1813399
92	0x3de69e25	0.112606324
93	0x3dd094aa	0.101846054
94	0x3dbc9209	0.092075415
95	0x3bbfc50a	0.0058523463
96	0xbdf547e6	-0.11976604
97	0x3d504ea4	0.050856248
98	0x3e4580e8	0.19287455
99	0x3c95ecf2	0.01830146
100	0xbd8dc2c0	-0.06921911
101	0xbe503652	-0.20333222
102	0xbcfe01bb	-0.031006685
103	0xbe3d42d1	-0.1848252
104	0xbd0b9674	-0.03407903
105	0xbe5fdb67	-0.21861039
106	0xbcf0838f	-0.029359607
107	0x3e2cd9a7	0.16879903
108	0xbde2387c	-0.1104593
109	0xbde2f043	-0.110809825
110	0xbdc0c945	-0.09413389
111	0x3d839c37	0.0642628
112	0xbdff7a0e	-0.12474452
113	0xbe06eb7a	-0.13175765
114	0x3c51973a	0.012792403
115	0xbd85b7d6	-0.065292045
116	0xbd1ebb1b	-0.038752656
117	0xbe142e8b	-0.1447088
118	0x3e1cd11d	0.15314145
119	0xbe02915a	-0.1275076
120	0xbe5181d7	-0.20459686
121	0xbc555954	-0.013021786
122	0x3e79559d	0.24349065
123	0x3d2da62f	0.042394813
124	0x3e041ce8	0.12901652
125	0xbd79ccf4	-0.060986474
126	0x3d15fa59	0.036615703
127	0xbda7ebcc	-0.081992716
128	0x3d17e3f6	0.037082635
129	0xbd4233c8	-0.047412664
130	0xbde32d10	-0.11092579
131	0x3e469722	0.1939359
132	0xbdf14358	-0.11780423
133	0x3da795d5	0.08182875
134	0xbe65b5e5	-0.22432669
135	0xbe51bbb7	-0.20481764
136	0xbdc621ed	-0.096744396
137	0xbd40dd82	-0.047086246
138	0x3e2050f7	0.15655886
139	0x3d88a014	0.066711575
140	0xbdc2a5c1	-0.09504271
141	0x3dbcab26	0.092123315
142	0xbde2e74d	-0.110792734
143	0x3ce95548	0.028483048
144	0xbdc7f45a	-0.09763403
145	0x3e6aa217	0.22913395
146	0x3c4d5b84	0.012534026
147	0xbe6ba955	-0.23013814
148	0x3dcf4836	0.10121195
149	0x3d8f3805	0.06993107
150	0x3e3da049	0.18518175
151	0x3c4af8d9	0.0123884315
152	0xbc230c0d	-0.009951604
153	0x3d869860	0.06572032
154	0xbe4b57b9	-0.19857682
155	0xbdadf9e7	-0.08494931
156	0xbd0ee57b	-0.03488682
157	0xbe076972	-0.13223818
158	0xbb05f4ea	-0.002044017
159	0xbcadc2c8	-0.021211043
160	0x3afb1ee3	0.0019158985
161	0xbe3247f8	-0.17410266
162	0xbbc9d596	-0.0061594946
163	0xbd973d64	-0.07384756
164	0xbd8b4c91	-0.06801713
165	0xbe01f25f	-0.12690113
166	0xbe0f0bc8	-0.13969338
167	0xbe6a8f39	-0.22906198
168	0xbd278525	-0.04089846
169	0xbe6b2898	-0.22964704
170	0xbdd00a4a	-0.101582125
171	0x3d073ed5	0.033018906
172	0xbd40bafd	-0.047053326
173	0x3d9c8ac2	0.076436535
174	0x3e4d77f9	0.20065297
175	0xbd5b1720	-0.05348885
176	0x3d67ec5b	0.05662189
177	0x3cf318f5	0.029674986
178	0xbda88eb0	-0.082303405
179	0xbda01fe9	-0.078185864
180	0x3da84ffd	0.082183816
181	0xbd2150bd	-0.03938364
182	0x3e466b5c	0.19376892
183	0xbe1d382b	-0.15353458
184	0x3d45dfb3	0.04830904
185	0x3e0ded9d	0.13860174
186	0x3e179757	0.14803825
187	0xbe3b798c	-0.18308085
188	0xbd79c80b	-0.06098179
189	0x3e26a6f4	0.16274625
190	0xbc004790	-0.007829562
191	0xbe9a4b2b	-0.30135474
192	0x3e318363	0.17335276
193	0x3df4606a	0.11932452
194	0xbe258660	-0.16164541
195	0x3e774f94	0.2415145
196	0xbbcf6f36	-0.006330396
197	0x3dc7e565	0.097605504
198	0xbe0f9470	-0.14021468
199	0xbdbfbbf2	-0.093620196
200	0x3d1e8c1a	0.03870783
201	0x3e10e22a	0.14148775
202	0xbe0ed5af	-0.13948701
203	0x3dada344	0.08478406
204	0x3e496e5f	0.1967101
205	0x3c9d574a	0.019206662
206	0x3e02cc57	0.12773262
207	0x3cef136a	0.029184062
208	0x3d0aa8cf	0.033852395
209	0x3e4870a9	0.19574226
210	0x3da68bd5	0.081321396
211	0xbe56d9f0	-0.20981574
212	0x3cca7d0a	0.024717826
213	0x3e32e239	0.1746911
214	0x3cad6049	0.021164076
215	0x3e6defb6	0.23235974
216	0x3e640c46	0.22270307
217	0x3e13158a	0.14363685
218	0x3da29e2c	0.07940325
219	0xbe0de0b7	-0.13855253
220	0xbc3d9144	-0.011570279
221	0xbe528fb1	-0.20562626
222	0x3cce3deb	0.02517601
223	0xbd2d9730	-0.04238051
224	0x3e3d0507	0.18458949
225	0xbdbc06d2	-0.09180988
226	0xbc63b3a5	-0.013897811
227	0xbe5f60ca	-0.21814266
228	0x3cc2d343	0.023782378
229	0xbe28d349	-0.16486849
230	0x3e01927b	0.12653534
231	0xbe196db8	-0.1498326
232	0x3e79385b	0.24337904
233	0xbe4e470b	-0.20144288
234	0xbe5e0b40	-0.21683979
235	0x3e18589d	0.14877553
236	0xbe5a3926	-0.21310863
237	0x3dd960e3	0.10614183
238	0xbdaffe2a	-0.085934
239	0x3de0ed80	0.109827995
240	0x3d44109e	0.04786741
241	0xbd7ea338	-0.062167376
242	0xbe5101d9	-0.20410861
243	0x3de65e52	0.11248459
244	0xbdc5882a	-0.09645112
245	0xbe8e3553	-0.27775058
246	0xbd484d12	-0.048901625
247	0xbe5a236e	-0.21302578
248	0x3cc770f3	0.02434585
249	0xbd091739	-0.033469412
250	0x3c0606cf	0.008180334
251	0xbd7e55b8	-0.062093467
252	0x3d9536a0	0.072858095
253	0x3e0edbef	0.13951086
254	0x3e5e4804	0.2170716
255	0xbe278090	-0.16357636

fc.4.bias f4 [16]
0	0x3d36e3bf	0.04465079
1	0x3d619c43	0.055080663
2	0x3d46217e	0.048371784
3	0x3e4da401	0.20082094
4	0xbe7b7eb7	-0.24560057
5	0x3da3071f	0.079603426
6	0xbe5ac5d5	-0.2136453
7	0x3c8272f3	0.015923953
8	0x3e029e74	0.12755758
9	0x3db6609e	0.08905147
10	0xbcb84bb5	-0.022497037
11	0x3de75c35	0.11296884
12	0xbddf4ed4	-0.10903707
13	0x3d69bd0f	0.057065066
14	0x3b05c8da	0.0020413906
15	0xbe3d6354	-0.18494922

fc.6.weight f4 [2, 16]
0	0xbe808bba	-0.25106603
1	0x3e1396af	0.1441295
2	0xbe39cca3	-0.18144469
3	0xbe66ce00	-0.2253952
4	0x3d9e9723	0.07743671
5	0xbe953b32	-0.29146725
6	0x3de8b69c	0.11362955
7	0xbe477ea1	-0.19481899
8	0xbe22215d	-0.1583304
9	0xbde412d7	-0.11136406
10	0x3e31f9ad	0.173804
11	0x3e97aa0e	0.2962193
12	0xbe502a15	-0.20328553
13	0xbea6ffed	-0.3261713
14	0x3e220148	0.15820801
15	0x3e967e52	0.2939325
16	0xbd860389	-0.06543643
17	0x3cf849d0	0.030308634
18	0x3e1f2906	0.15542993
19	0xbdfd45fe	-0.123668656
20	0x3e749629	0.23885407
21	0x3e604b3b	0.21903698
22	0x3e41e857	0.18936287
23	0x3cbacd6f	0.022803036
24	0xbe5da7e0	-0.2164607
25	0xbd40a53b	-0.047032576
26	0xbe7b4c1d	-0.24540754
27	0xbd50c368	-0.050967604
28	0x3d721eb1	0.0591113
29	0x3db4e56a	0.0883282
30	0xbe2ee781	-0.17080499
31	0x3e60ba32	0.21946028

fc.6.bias f4 [2]
0	0x3e206acf	0.15665744
1	0x3da775af	0.08176743
