3.A2C/ckpt/CartPole-v1_A2C_off-policy_episode_123_reward_478.pth (torch, 8568 bytes, 8 tensors)

fc.0.weight f4 [16, 4]
000000 c7 2e 02 bf 84 90 3e be 75 63 b1 3e 4d 71 c8 3e
       -0.50852627 -0.18609816 0.34646192 0.39148942
000010 6c bc 0c 3f 3f 83 97 3e ff d9 1e bf 67 4c fd be
       0.5497501 0.2959232 -0.62051386 -0.49472353
000020 72 11 06 be 66 19 83 3d f9 09 70 3f 23 47 fb 3e
       -0.13092592 0.06401329 0.9376522 0.4907771
000030 3e 6c f8 3e c3 3c 49 3e c0 01 7e bf 85 50 58 be
       0.48520082 0.19652085 -0.9922142 -0.21124466
000040 fc ad e9 be 18 ae e6 3d 8c 56 9e 3f 87 fd 13 3f
       -0.45640552 0.112636745 1.2370162 0.5780873
000050 29 48 b9 3e 87 ab da bd e8 d3 27 3e d8 00 09 3f
       0.36187866 -0.106772475 0.1638943 0.5351691
000060 f8 70 08 bf 1c 90 81 3e 7a 6e 4f bf 3a 14 fd 3d
       -0.53297377 0.2530526 -0.8102795 0.123573735
000070 02 77 6a 3d b3 9d 17 3f fb 2f 1d 3f b6 58 07 3f
       0.0572424 0.59225005 0.6140134 0.5286974
000080 5d f4 d3 bd dc 13 09 bf b3 03 a1 bf 47 0c 03 bf
       -0.10349343 -0.5354593 -1.2579254 -0.5119061
000090 af fc c7 3d a7 5c b1 3e 0a 74 12 be 75 0a 20 bf
       0.097649924 0.34641 -0.14302078 -0.62515956
0000a0 d3 10 a7 be 9e cf e0 be 64 54 99 bf 4d 5b 6c be
       -0.32630023 -0.439084 -1.1978879 -0.23081703
0000b0 52 37 9a be f9 df 8b 3e 51 4b 11 bf d8 b3 ed be
       -0.3012033 0.27319315 -0.5675555 -0.46426272
0000c0 f4 93 7c 3e 66 df 04 bf 90 4f f7 bd 75 0f 2f 3e
       0.24665815 -0.5190338 -0.12075722 0.1709574
0000d0 12 2e ac bc 03 c7 41 3f 9b 2f a2 3f 89 69 9a 3e
       -0.021018062 0.7569429 1.2670778 0.30158642
0000e0 aa d7 a7 be e0 97 93 bd 75 1a 7d be 03 4d d1 3e
       -0.32781726 -0.07206702 -0.24717124 0.40879068
0000f0 3e 36 1e 3f e4 7b b4 be 8a 3a 11 bf 9f 85 8a 3e
       0.61801517 -0.3525077 -0.5672995 0.2705507

fc.0.bias f4 [16]
000000 8f e1 1c be a0 6b 4c 3e f5 c3 46 be c3 6b be 3e
       -0.15320419 0.1996293 -0.19410689 0.3719159
000010 c7 ce 39 3e b3 59 dd 3e 8a 35 01 be a1 4c 85 be
       0.18145286 0.43232498 -0.1261808 -0.26035026
000020 a9 79 9f 3e 06 c9 b0 3c 00 f2 0b 3e 38 59 0c bd
       0.31147507 0.02158023 0.13666534 -0.034264773
000030 ca 61 f2 3d df a7 af 3e 3b 7a da bc c0 c5 94 be
       0.11835058 0.34307763 -0.026669612 -0.2905712

fc.2.weight f4 [32, 16]
000000 5c 59 23 3e 43 76 6e bd b7 b3 8d 3d d8 84 2d be
       0.15952057 -0.058218252 0.069190435 -0.16945207
000010 78 e0 b3 3e a4 33 22 3e e5 1e 1e be ea fe a0 3e
       0.35132194 0.15840012 -0.15441473 0.31444484
000020 74 49 dd be 98 64 81 3e f5 26 fe be 78 43 6e be
       -0.43220103 0.2527206 -0.49639097 -0.23267925
000030 a6 80 98 be d7 b7 a8 3d 89 34 27 3e 29 a3 60 be
       -0.2978565 0.0823819 0.16328634 -0.2193724
000040 98 ae 4b 3e 19 9d 20 3d 0e e4 31 3e aa 67 f7 bd
       0.19890821 0.03921232 0.17372152 -0.12080319
000050 f4 07 d3 3e 4b 4c c8 bd 7f 68 a3 be 85 1e c5 3d
       0.41217005 -0.09780177 -0.31915662 0.09624962
000060 a2 fa ba be 0f a6 86 3e 49 58 01 be 32 4c 00 be
       -0.36519343 0.26298568 -0.12631334 -0.12529066
000070 96 e1 dc 3d 6a 56 e1 3e f4 4b b4 3d 3d 51 eb 3d
       0.107852146 0.4401124 0.088035494 0.11490104
000080 76 dc 87 be e5 28 41 3d a7 28 5e 3e 20 e4 3f be
       -0.26535386 0.04715814 0.21695195 -0.18739367
000090 50 a8 e1 bd 36 93 06 be 37 ff 79 3b 01 02 8f 3e
       -0.11018431 -0.13142094 0.0038146505 0.27931216
0000a0 6d 2c 09 3c df 27 16 3d e1 7f d2 be 25 36 21 be
       0.008372408 0.036659118 -0.4111319 -0.15743311
0000b0 61 8a 1e be 10 32 26 3b 28 7b 5d be 56 80 6f 3e
       -0.15482475 0.002535943 -0.21629012 0.233888
0000c0 c3 6b 6f be d9 8b 5a 3d 37 b9 a6 be 06 a9 06 be
       -0.23380952 0.053356025 -0.32563183 -0.13150415
0000d0 74 3f 57 be cb 92 14 be c4 39 ac 3e 3d f7 a3 3c
       -0.21020299 -0.14509122 0.33637822 0.020015353
0000e0 b9 20 08 3e c4 2b 39 3e 83 c2 e1 3e cf 0b 80 3e
       0.13293733 0.18083102 0.44093713 0.2500901
0000f0 bb 67 1d be 1d 72 e0 be a2 83 31 3d 51 72 93 3d
       -0.15371601 -0.43837062 0.043338425 0.071995385
000100 45 ba 5f be c2 4f 13 be 55 d0 f9 3b 60 f2 8a be
       -0.218484 -0.14385894 0.007623712 -0.27138042
000110 94 51 ae bd e9 b5 08 be 68 fb 52 be 5b 6a e9 bc
       -0.085116535 -0.13350643 -0.20603716 -0.028493097
000120 87 b9 05 be ff da e7 bc 35 43 bb be 33 b9 52 bd
       -0.13059054 -0.028302668 -0.36574712 -0.05144615
000130 f4 43 b3 bd d6 bb f5 3e 0d 63 0b 3e 75 96 96 bc
       -0.087531954 0.4799487 0.13612004 -0.01838229
000140 61 c1 33 be 71 db 91 bd 82 2d 64 bd 24 61 93 bc
       -0.17554237 -0.07121933 -0.055707462 -0.017990656
000150 07 0b 3b be 92 96 30 3e 30 a2 39 be e6 e7 8b be
       -0.18265925 0.17244938 -0.18128276 -0.27325362
000160 fd de f2 3e ff c8 15 3d e9 8c 5b 3e b8 b0 a8 bd
       0.47435752 0.036568638 0.21440472 -0.082368314
000170 c7 07 81 3e 64 69 ef be 7c 85 b7 3e ed 56 b8 3d
       0.25201246 -0.46760094 0.35844028 0.09000955
000180 cf 7a 67 3e ea 74 0f 3e 6e 64 ca 3e c3 96 2e 3e
       0.22605442 0.14009443 0.39529747 0.17049699
000190 79 fa df 3e b1 81 49 3e ce 65 dc bd b5 a6 09 3d
       0.43745783 0.1967838 -0.10761605 0.03360625
0001a0 37 64 a8 bd 2e c8 4c 3e 2d ed 93 be a9 99 8e bc
       -0.082222395 0.19998237 -0.28891888 -0.017407255
0001b0 4d 52 b4 bd 3f d3 fb 3d f7 e0 c5 bd 68 13 ac bd
       -0.0880476 0.12296151 -0.09662049 -0.08402139
0001c0 82 a3 3a 3e f8 5d 58 3e de 2b c2 bd 39 a6 7b 3e
       0.18226436 0.21129596 -0.09481023 0.24575128
0001d0 2e 29 b3 be 90 de 42 be bb 2c f8 3d dd b0 3f be
       -0.34992355 -0.19030213 0.12117907 -0.18719812
0001e0 2a 14 a0 3e e9 5b fd 3d 72 8a 07 3f 46 06 38 3e
       0.31265384 0.12371046 0.52945626 0.17971143
0001f0 9b bb 65 bd 39 80 d7 be b4 10 cc bd 66 9f 9a 3d
       -0.056087118 -0.42090014 -0.09964123 0.07549934
000200 60 a6 04 3e b1 9c fe bd 7f 8b d3 3e 5e 6d a4 be
       0.12954092 -0.1243223 0.41317365 -0.3211469
000210 d1 ef d9 3e ab 3c 63 be a5 ea 0a be 27 66 b3 bc
       0.42565778 -0.22191112 -0.13566072 -0.021899296
000220 3d f1 d1 be eb ac 36 3d c6 1f 6c bd 05 0e 6a bb
       -0.41004363 0.0445985 -0.05764749 -0.0035713923
000230 ea 2e 0e 3d 35 41 c9 3e e2 f4 32 be 28 cd 6b be
       0.03471271 0.39307562 -0.17476228 -0.2302748
000240 77 c6 9b bd be 4c ee 3d 7f 01 42 bd 95 35 36 bc
       -0.076062135 0.11635731 -0.047364708 -0.011121173
000250 bb c7 c4 bd f6 31 2b 3e 3a 28 b9 3e fb e5 75 be
       -0.09608408 0.16718277 0.36163503 -0.24013512
000260 f3 db 29 3e 4e 40 68 be f3 e8 b9 3d fc 0b 06 3e
       0.1658781 -0.2268078 0.09077635 0.13090509
000270 7c bb 65 be 38 a6 f6 bc b4 7e 0f 3e a7 bc 8a be
       -0.22434801 -0.030108556 0.14013177 -0.27097055
000280 6e b2 ea bd 47 0e 40 be 6d 13 0f 3e 94 f5 90 bd
       -0.11459814 -0.18755446 0.13972254 -0.0707809
000290 79 9d f8 3e e9 43 66 3e 55 9b 3d bd 6f db d5 3e
       0.48557642 0.22486843 -0.046290714 0.41768977
0002a0 9b bb e2 be 8b c9 86 3e e1 4d ef bd 14 27 97 3d
       -0.44283757 0.2632564 -0.11684776 0.073805004
0002b0 c9 07 50 be 71 48 0b 3f 1f ba 70 be 21 4b 0f 3c
       -0.2031547 0.5440741 -0.235085 0.0087459395
0002c0 43 49 67 3d 38 da 3f be 53 bd a3 3e 4e fb e9 bb
       0.056466352 -0.18735588 0.3198038 -0.0071405536
0002d0 69 a1 b3 3e 70 a7 6e 3e 56 9f 37 bd 25 51 44 3e
       0.35084084 0.2330606 -0.04482969 0.19171579
0002e0 7a 5e 82 bd 90 e4 6a 3e 04 2d 47 be 09 11 3e 3e
       -0.06365676 0.22938752 -0.19450766 0.18561186
0002f0 f7 12 bb 3b bb ca 81 3e b4 a5 24 3e 3c 64 b4 bc
       0.005709048 0.25349984 0.16078836 -0.022020452
000300 c8 1f 2e 3d 48 f6 ab 3d f9 57 21 3e 9e 8b 74 be
       0.042510778 0.08396584 0.15756215 -0.23881385
000310 be 8e cc 3e c3 69 6f 3e 8f 89 72 3d 50 a8 db 3e
       0.39952654 0.23380189 0.059213217 0.4290185
000320 e0 4b c7 be f8 f3 f8 3d ef 5b e2 be 14 b1 85 be
       -0.38925076 0.12155908 -0.44210765 -0.26111662
000330 9b 45 ff bd 98 4a e7 3e 27 d3 9f 3d 57 ef 55 be
       -0.12464448 0.45174098 0.07803946 -0.20892082
000340 1c 7d b8 bd 76 fe ef 3d d0 49 8f be 40 30 7a bd
       -0.09008238 0.117184564 -0.27986002 -0.06108117
000350 de 74 c8 be 5c 22 16 be c1 66 bd 3d 52 1f eb bd
       -0.39151663 -0.14661545 0.092481144 -0.11480583
000360 e0 e2 b9 3e 5e 3a 02 3e ff d6 b5 3e 80 ab b3 3d
       0.36305904 0.12717578 0.35515592 0.087729454
000370 ca 9e 17 be e7 44 60 be a8 ea 34 3d f4 95 73 3e
       -0.14806667 -0.21901284 0.0441691 0.23787671
000380 e6 1e 28 3c 35 51 f4 3d 62 d1 93 be ac 4c 3f be
       0.010261273 0.119295515 -0.28870684 -0.18681592
000390 d3 ff 36 be 86 66 bc bd 13 60 8a bd 5d 50 af be
       -0.17871027 -0.09199242 -0.06756606 -0.34241
0003a0 e9 9a e7 3e 00 19 ff 3d 4e 79 9c 3d 40 fc aa bc
       0.45235375 0.1245594 0.076403245 -0.020872235
0003b0 44 c7 c0 bd c4 6f 69 be 6d 8e 6a 3e 96 3d 2f be
       -0.09413007 -0.22796541 0.22905894 -0.17113337
0003c0 da 5f 3e 3e 1b 8c c2 3c 8d 03 aa 3d 91 e6 86 3e
       0.18591252 0.023748448 0.083014585 0.26347783
0003d0 f1 b3 cb be e5 c1 32 be 17 a4 e3 bd 98 a2 3f be
       -0.39785722 -0.17456777 -0.11115282 -0.18714368
0003e0 78 5f 5e 3b a7 ea 16 be d4 48 cf 3e c9 26 e9 bd
       0.0033931416 -0.1473795 0.4048525 -0.11384351
0003f0 e2 b4 5e 3e 89 59 ec be 9f 05 00 3e 8b ec 98 3c
       0.21748689 -0.4616206 0.12502144 0.01866748

fc.2.bias f4 [32]
000000 b4 be fa 3d d6 5b 97 bc 1d ee 3c bd 36 04 b5 3d
       0.12243405 -0.018476408 -0.04612552 0.08838694
000010 f6 c6 67 3e 03 01 3f be 75 ff 3d 3b 34 39 27 bd
       0.22634491 -0.1865273 0.0028991376 -0.040826038
000020 8c ac 7d 3e d6 83 c3 3b 85 cb f0 ba a9 10 35 3d
       0.24772853 0.005966644 -0.00183712 0.04420534
000030 64 4c 83 3d b9 1c 1d 3e 55 80 67 bd 32 3a 57 3e
       0.06411055 0.15342988 -0.05651887 0.21018293
000040 ab e8 8b be d8 5d 9a 3d 8d 17 31 bd ac bc 5c 3e
       -0.2732595 0.075374305 -0.04323535 0.21556348
000050 1e 7f 1f bd 87 37 2d bd 0f 05 18 3e 2f f2 93 bd
       -0.038939588 -0.042289283 0.1484568 -0.07223927
000060 ab 97 8e be e6 7c a2 bd 3c ae ed bd b6 40 46 3d
       -0.27850088 -0.07933979 -0.11605498 0.048401557
000070 87 96 c3 bd 81 e0 da bd c1 b5 17 be 37 9b 11 3e
       -0.09550195 -0.10687352 -0.14815427 0.14219366

fc.4.weight f4 [16, 32]
000000 80 9c 1b bf 67 9b c3 be b5 ec cc bc 84 ce 0d 3d
       -0.60785675 -0.382045 -0.025015214 0.034620777
000010 32 60 c8 be 79 35 97 3e 47 f2 0f be 57 56 c4 3e
       -0.3913589 0.29532984 -0.14057265 0.38347122
000020 1e f5 34 be f8 45 b9 bd b1 c0 0b bf 0b 40 ac be
       -0.1767163 -0.090465486 -0.545909 -0.3364261
000030 7e 08 0b bf b6 ee d4 3e 82 74 95 3e 8f 5d 18 3e
       -0.54309833 0.41588372 0.2919045 0.1487944
000040 1f 49 c8 3e c1 7f 85 3e 17 0d 1f 3f 4e 43 06 bf
       0.39118287 0.2607403 0.6212935 -0.5244645
000050 41 42 82 3d 71 a6 dd 3e 3c 7d 91 be 29 4c 88 3e
       0.06360293 0.43291047 -0.2841586 0.26620606
000060 f1 63 83 3e 5f da 1d 3f 1c 5f c8 be a1 43 b6 3e
       0.25662187 0.6166133 -0.39135063 0.35598472
000070 a8 f2 fc be 9a b8 30 3e ce 62 8e 3e 61 64 94 be
       -0.49403882 0.1725792 0.27809757 -0.28982833
000080 56 e9 a3 be 9e 5f 98 be 95 27 0f be 3d 98 f1 3b
       -0.3201396 -0.2976045 -0.13979943 0.0073728845
000090 93 d9 92 be 72 d9 85 3e ca 6e 49 be 8d 71 a3 3e
       -0.2868162 0.2614246 -0.19671169 0.3192257
0000a0 4c a8 48 be 3e 59 43 3e 54 76 75 be da 2f 8f be
       -0.1959545 0.19077012 -0.2397092 -0.27966195
0000b0 c7 46 d2 be b7 18 d2 3d 87 28 7f 3e 08 f1 9d 3e
       -0.41069624 0.1025862 0.24917804 0.30847955
0000c0 fa 44 94 3d f9 d3 71 3e fc 19 2c 3e d6 38 48 be
       0.07239719 0.23616017 0.16806787 -0.19552931
0000d0 f2 f1 73 be f6 f4 89 3e aa 6e af bd 90 d0 ae 3e
       -0.23822764 0.26944703 -0.08566029 0.34143496
0000e0 98 be 7b bb 68 05 9c 3e d9 26 79 be 7c 00 68 3e
       -0.0038413163 0.30472875 -0.24331225 0.22656435
0000f0 78 b5 68 bd c3 36 77 3e 07 3e b9 3c 5e 7c d4 be
       -0.056813687 0.24141984 0.022612585 -0.41501135
000100 a3 ba 16 be 8a 1d 47 be 45 22 93 bb 9c 57 82 3e
       -0.14719634 -0.19444862 -0.004490169 0.25457466
000110 1f c6 86 be db 53 8e 3e b6 2f 96 be c7 8e ae 3e
       -0.2632303 0.27798352 -0.29333276 0.34093305
000120 c7 4f d6 be 19 54 c5 3d 4e cb 0a bf b7 b7 a0 bd
       -0.4185774 0.09635181 -0.5421647 -0.07847541
000130 aa a5 70 be a6 2b c9 3d ff 18 78 3e 90 df e9 3e
       -0.23500696 0.098227784 0.24228285 0.45678377
000140 4e 4f 30 3e c4 9b b0 3e eb 4c 39 3e b7 dd ed be
       0.17217752 0.3449384 0.18095748 -0.46458218
000150 8e c1 26 be 86 82 d3 3e a7 44 54 bd c3 33 f3 3e
       -0.16284773 0.4131052 -0.051823284 0.4750043
000160 9a 8b 00 3e e1 d2 03 3f 45 37 02 bf 3d da d4 3e
       0.12553254 0.5149365 -0.50865585 0.41572753
000170 dc 2e 0b be d8 02 a6 3e 7a 4c 06 3d 25 a5 6c be
       -0.13592094 0.32424045 0.032787777 -0.23109873
000180 75 e6 c1 be 41 e8 82 be ab 93 34 be c0 4b 28 3e
       -0.37871137 -0.2556782 -0.17634456 0.16435146
000190 58 5b 8e be 95 8b ab 3e 0f 10 08 3c 50 20 97 3e
       -0.27804065 0.3350493 0.00830461 0.2951684
0001a0 5d f5 aa be e0 7e ab 3d 81 0a e9 be 31 6d 17 3d
       -0.33390322 0.08373809 -0.45515826 0.036969367
0001b0 26 42 93 be 04 8a 99 3e d4 9e 27 3e e3 4b 6d 3d
       -0.28761405 0.2998811 0.16369182 0.0579337
0001c0 7e 64 cd 3d 5e 26 43 3d ab 83 d8 3e 2f 73 c1 be
       0.10028933 0.04764401 0.42287955 -0.3778319
0001d0 a9 63 d7 bd 5e 0d a0 3e 71 91 36 bb 11 8d 0b 3e
       -0.105170555 0.31260198 -0.0027857686 0.13628031
0001e0 75 8b 90 3e 47 28 30 3e e4 56 c4 be f8 27 aa 3e
       0.28231397 0.17202865 -0.38347542 0.3323362
0001f0 c3 aa a8 be c7 a8 9b 3e a5 b4 a4 bb 50 51 e3 be
       -0.3294278 0.30402204 -0.0050264173 -0.44397974
000200 68 95 02 3e 9e 31 da 3e 6b a4 9a 3c 32 1f aa bb
       0.12752306 0.4261598 0.018877229 -0.005191707
000210 d6 95 2d 3e 55 55 37 be 66 93 29 3e 4f 8c 5c be
       0.16951689 -0.17903645 0.16560134 -0.21537898
000220 19 ad 95 3e 5d 28 7c 3d fa a9 08 3f b6 e4 74 3e
       0.29233626 0.06156193 0.53384364 0.23915371
000230 03 d4 2c 3e b3 a8 9f be 86 f9 fe bd b4 a7 58 be
       0.16877751 -0.31183395 -0.124499366 -0.21157724
000240 f0 f2 d3 be ae c4 97 be fa f9 09 be 05 ec c0 3d
       -0.41396284 -0.29642242 -0.13474265 0.09420017
000250 b8 c4 4b 3e 02 a3 65 be 0b 62 93 3e 37 c1 44 be
       0.19899261 -0.22425464 0.28785738 -0.1921433
000260 5e 58 28 be a5 ff ec be 24 dd a3 3e 85 ab e9 bd
       -0.1643996 -0.4628879 0.32004654 -0.11409668
000270 a8 46 c5 3e 20 1a ac bc bf dc 5e bd ee 3a 9a 3e
       0.3853047 -0.021008551 -0.05440974 0.30123085
000280 20 fe 52 3e a4 8d 56 3e 6d 59 05 3e 46 23 9c be
       0.20604753 0.20952469 0.13022394 -0.30495661
000290 03 60 1b 3e e3 6a d5 be fa 1e 0b 3e 71 9a 4b be
       0.15173344 -0.4168311 0.13586035 -0.19883133
0002a0 c5 e1 9a 3e bc b7 8d 3d 3d 7b a8 3e 06 c2 9f 3e
       0.30250373 0.0691981 0.32906523 0.31202716
0002b0 26 11 e0 3e 4d 4f 5b be 78 95 ff bd 0f 53 91 be
       0.43763083 -0.2141697 -0.12479681 -0.2838368
0002c0 c2 90 9f be 02 dd ac be d6 df c0 be 7b dd 91 3e
       -0.3116513 -0.33762366 -0.37670773 0.2848929
0002d0 9b 33 49 bd 97 09 2c bd 3f d1 6c 3e 04 61 2f be
       -0.04912148 -0.042001333 0.23126696 -0.17126852
0002e0 52 12 3c bc 41 ad ae be 99 3a b9 3e ac dc 79 be
       -0.011478977 -0.34116557 0.3617752 -0.24400586
0002f0 f6 46 ac 3e f5 0b bb 3c 79 5f 58 bd 94 3c a8 3e
       0.3364789 0.02283285 -0.052825425 0.32858717
000300 3d b1 d9 3d b7 ed 1d 3e bd 2e fe 3d 83 ac 77 be
       0.10629509 0.15422712 0.12411258 -0.24186902
000310 21 08 4b 3c b0 60 64 be 7f c6 bc ba 46 3c f4 bd
       0.012392075 -0.22302508 -0.0014402418 -0.11925559
000320 d6 70 95 3e a3 da c0 b9 2d 5a 98 3e 0a c2 7b 3e
       0.2918765 -0.0003678399 0.297563 0.24585739
000330 6a 26 3d 3e 3a 43 16 3d d0 20 bb bc 37 e3 72 be
       0.18471685 0.036685206 -0.022842795 -0.23719488
000340 25 96 b4 be 26 4d d1 bd 1a fb d2 be f1 89 68 3e
       -0.352708 -0.10219793 -0.412072 0.2270887
000350 3d 58 02 3e ef d9 23 be 2a ea 8e 3e 69 27 60 be
       0.12728973 -0.16001104 0.27913028 -0.21890034
000360 78 af a4 be b7 4a d8 be c5 f2 96 3e 84 a9 bc be
       -0.32165122 -0.42244503 0.29482093 -0.3684808
000370 4f 55 80 3e 41 bb 82 be 8e ee 33 bd ea b6 81 3e
       0.25065085 -0.25533488 -0.043928675 0.25334865
000380 c2 18 45 3e 55 16 eb 3e bc 87 ee 3d 2f 52 a7 be
       0.19247726 0.45915475 0.11646983 -0.3267989
000390 da 04 a7 3e 30 a1 d2 be 70 a8 80 3e fa 15 97 be
       0.3262089 -0.411386 0.25128508 -0.29508954
0003a0 4c 0e ec 3d df 94 2e be 44 db 03 3f 4f 56 a5 3e
       0.115261644 -0.17048977 0.5150645 0.3229241
0003b0 34 ad 3c 3e 26 b4 7f bc 34 df 03 bd 05 81 84 be
       0.18425447 -0.015606916 -0.032195285 -0.25879684
0003c0 af ec c2 be 33 9f a2 be b2 ac e5 be 19 be b6 3e
       -0.380712 -0.31762084 -0.4485832 0.35691908
0003d0 61 a8 eb 3d 6e 0e 00 be 8b 3e 65 3e 70 52 d7 bd
       0.11506725 -0.12505504 0.2238714 -0.105137706
0003e0 38 3d 90 be a5 56 c7 be 87 ad ac 3e 39 2d a8 bd
       -0.28171706 -0.38933292 0.3372614 -0.082117505
0003f0 20 34 c7 3e fc 9e 12 bc 39 3f c7 ba a2 7a 46 3e
       0.38906956 -0.008949038 -0.0015201337 0.19382718

fc.4.bias f4 [16]
000000 bf ce b1 bd eb e0 b0 bd 88 88 d4 bd 55 b7 0e be
       -0.08682012 -0.0863665 -0.10377604 -0.13937123
000010 64 c4 13 bd 56 75 6f 3d 1f f2 9d bd 3a 60 77 3d
       -0.036075965 0.05846151 -0.077121966 0.060394503
000020 8c 2d 93 3d 97 c0 32 3e fa dc 29 bc 36 74 22 3d
       0.07186422 0.1745628 -0.010367626 0.03966161
000030 37 d1 df 3c 83 f5 82 3d 50 5a dd bd 2c 98 8e b7
       0.027321441 0.06394484 -0.10808241 -1.699858e-05

fc.6.weight f4 [2, 16]
000000 d0 65 02 3f 33 55 f0 3e be f4 59 3e d2 44 c7 3e
       0.50936604 0.46940002 0.21284768 0.38919693
000010 ff 59 19 bf 71 a7 16 bf c1 dd d0 be 6c 68 be be
       -0.5990295 -0.58849245 -0.40794185 -0.37189043
000020 50 b7 0a bf 5d 7a 06 bf 37 b6 17 3f 20 b2 c1 3e
       -0.5418596 -0.5253046 0.5926241 0.3783121
000030 f6 fa 0a bf 2f 1f ef be 88 c4 f0 3e 95 59 75 3e
       -0.54289186 -0.4670348 0.4702494 0.23959954
000040 1c ae 52 bf 63 f0 14 bf d8 b8 1d bf 78 79 de be
       -0.8229692 -0.581793 -0.61610174 -0.43452048
000050 91 91 9d 3e 2d a9 bc 3e f1 92 03 3f 4d 13 0a 3f
       0.3077512 0.3684782 0.5139609 0.539357
000060 7b 64 19 3f 5f 7e bb 3e f5 82 84 be ea b1 ca be
       0.59918946 0.3661985 -0.25881162 -0.39588863
000070 2a d6 c4 3e 16 2d f4 3e 3b 37 fb be ad 87 0a bf
       0.38444644 0.47690648 -0.49065575 -0.54113275

fc.6.bias f4 [2]
000000 34 84 75 be e5 78 67 bd
       -0.23976213 -0.05651178
