3.A2C/ckpt/CartPole-v1_A2C_episode_266_reward_477.pth (torch, 8436 bytes, 8 tensors)

fc.0.weight f4 [16, 4]
00000000: 15d8 c43e ead7 e2be 9b84 85bd 2b33 d7be
00000010: 9fa1 babe 73ca f8be 226f c7be 3f1c f3be
00000020: d545 dcbd cf5c 4dbe f589 b4be 5c55 ecbe
00000030: 6e22 b23d dbaf d5be 971f ef3e 630b 4bbe
00000040: 3116 89be 728c 593e 9b3f 07be 003c 23bf
00000050: f2fd a63c 2b92 553e 68c5 c0be e69d 85be
00000060: 80e7 863e eb88 cdbe bf51 903e edca d83e
00000070: e16c a33e 6094 c73d 0b2a 0cbf 56dd f9bd
00000080: efd4 b6be ca03 02bc 8f3d ed3e de2c f13e
00000090: 3e02 703e 88d9 f33e 458e 6a3e dcdc 8c3e
000000a0: 2724 033c 1327 b23e d27a 75bd 2b0c 043f
000000b0: 4f22 b33e 2810 24be ed08 7fbd 054b a0be
000000c0: 36f1 8d3e 5e04 e4be d025 d9be 6be7 e7be
000000d0: fdd7 55be 8e6d a6be c39b 2dbf 61b4 4b3d
000000e0: f66c 91be 75c1 ed3e 1a0e 003f d810 0e3e
000000f0: 7929 863e 3dab 74be d431 0ebf 0fe1 063c
0.38446108 -0.44305354 -0.06519433 -0.42031226 -0.36451432 -0.48591956 -0.38951975 -0.47482488
-0.10755507 -0.20054935 -0.35261503 -0.46158874 0.08697973 -0.4173573 0.4670379 -0.19828562
-0.26774743 0.21244982 -0.13207857 -0.6376343 0.020384762 0.2085654 -0.3765061 -0.2609703
0.26348495 -0.40143523 0.28187367 0.4234232 0.31919006 0.09745097 -0.5475165 -0.122004196
-0.3570933 -0.007935474 0.46336028 0.47104543 0.23438355 0.476269 0.22905834 0.27512252
0.008004225 0.34795436 -0.059931584 0.51581067 0.34987113 -0.16021788 -0.06226437 -0.31307235
0.27723092 -0.44534582 -0.4241166 -0.45293745 -0.20883174 -0.3250546 -0.678158 0.04973257
-0.28403443 0.46436659 0.5002152 0.13873613 0.26203516 -0.23893447 -0.5554478 0.008232369

fc.0.bias f4 [16]
00000000: 9816 78be 3ed0 ac3e 3959 4a3e 7f46 e23e
00000010: 05d4 d33d c679 1c3e 279e 17be b209 db3e
00000020: c5ae d83d b1c8 9d3e 3bd7 f5bd 7416 bbbc
00000030: cf07 d3be 9c4c c3be 87e2 98be 8a08 99be
-0.24227369 0.33752626 0.19760598 0.4419441 0.10343174 0.15280828 -0.14806424 0.42780834
0.1058021 0.30817178 -0.120039426 -0.022837855 -0.41216895 -0.38144386 -0.29860327 -0.29889327

fc.2.weight f4 [32, 16]
00000000: e209 11be 4362 c53e babc bf3e a7e9 d8bd
00000010: 6064 143e 309a 4e3e f1b7 af3b 4459 51bd
00000020: 850d fdba aafe e23d ae1e a73c 2551 37bd
00000030: 7d1f f13d c18b 863e 1b77 8dbe aecf 373d
00000040: 9247 9bbe 60c7 8bbd 3594 9ebe c164 0abe
00000050: 0f4e 3dbe 9f16 edbd e1b7 78bd 9b3a 6f3e
00000060: 3e2a 413e c4ab 21be 8e9a d23e 0e80 3fbc
00000070: 7a53 41bc 82c7 5ebe d7bc a13b bb67 abbd
00000080: 1ae6 e73c bc69 a23b 012b 5dbe 6fe2 313e
00000090: c7dd 44be 9ad7 513e f9f2 7f3e c9e0 82be
000000a0: 883a 0bbe 25a6 313e 6719 983d c8a6 0bbe
000000b0: 6820 66bd e5d3 51be 0eb3 793e 4f24 5cbe
000000c0: 079b af3d 9568 0f3e 767f 87bc 0872 b5b9
000000d0: 117e 3cbe 3104 253d 3dfa 2abd b4d5 5cba
000000e0: e2aa bdbd 383d 14bd cbd2 a0be 38ab a6bd
000000f0: 8d8a 843e ec40 d43d e359 25be a345 30be
00000100: be03 14be 990a 13be b5df 823c 9e20 bdbd
00000110: a47b 5fbe 3638 79be 1297 d8bd 2add 19bd
00000120: 0c12 a43d 11ff 06be 99ad a03e 401f 1fbe
00000130: 73d6 aebe 97e0 16be e0e3 afbc 84d8 1bbe
00000140: ebc9 dfbd 88d2 56bd dc6a 1bbe a530 29be
00000150: 6808 53be e76a 17bd 34d2 a83c 27bb 6b3e
00000160: 4cfb 653e cce4 9f3d 2720 793e f0e4 eebc
00000170: 76b1 80bc 423e 6a3d ed72 e5bc f8e0 113e
00000180: 9ae1 3e3e 218f 813e 0c28 b13d cee2 4e3e
00000190: 1ad3 893e d1c9 de3a 50ac 6dbe d1f6 573c
000001a0: 29a4 91ba 52c0 45bd 16c6 2a3d b0f3 0a3e
000001b0: 9091 daba 4f52 5b3e cb67 223e ed1d 3fbd
000001c0: 5d66 1dbe 79fb 6d3d c576 af3c afe2 253d
000001d0: 8c6c 523e 8689 a8bd b489 3dbe e3e5 36be
000001e0: a6e1 b2bc bfec 27bd 73f3 a1be 5cec 303e
000001f0: e1e7 1e3e 3fec f23d 80cc a7bd 6e44 70bd
00000200: 6d31 3a3b 222f 9bbe 780c e6b9 fc9d dfbd
00000210: aa37 b73d a954 6e3d 4a7e 043e ffe0 203d
00000220: 4d62 58bd b860 37bd 4c0b c83e 3415 b4bd
00000230: 890b 82be e74b 913d 153a 743e ee9f 11bd
00000240: d001 88bd 342c 6ebe 7ea3 d2be 1520 803d
00000250: ba81 7bbe 1d32 75bd efb0 443e b3e5 063e
00000260: b446 a03e a8b7 64bd c1e1 d63e 599c 0b3e
00000270: 6178 b5be ed33 f53c 086c 273d 3662 05bd
00000280: 5550 9d3e 2fc0 653e 1fae 893e cf79 6cbd
00000290: c4db 6f3d ae2b 7c3e 0226 6e3e 8a6c 5c3e
000002a0: 7365 62be d8ae 063e 08c3 ccbd cc15 873d
000002b0: 56bf 133d aceb 8f3c 4d16 9dbe 3aa9 6c3e
000002c0: d277 04be 6ec4 47bd 2968 8c3d c862 1cbe
000002d0: bf6f f7bd 9b78 84bd 5c20 46bd bbd8 93bd
000002e0: 14c2 1ebe f729 63be 14f0 783c a637 563c
000002f0: ed03 803e e030 c6bd bd72 a0be bc39 a93c
00000300: 2048 0bbe 3c73 7b3b 3e44 503e 5dcf bc3c
00000310: 37f5 cfbd 5357 453e efcf f3bd 99cc 3f3e
00000320: 67d8 80be 272a 323e d1a5 30be ea8d 0f3e
00000330: 9001 a73e 36fe d3bd 7d96 9bbe 4732 803e
00000340: 37d2 3eb9 22d5 b7be f093 81be 366b 84be
00000350: 3eed e73d 5d41 7f3d 6ba2 45be 9f5e 63be
00000360: 3872 023d db8d 613e 3953 873e 4868 8cbd
00000370: ab73 b1be 2454 ed3c 878a 1a3c a11d f6bd
00000380: 5e8f 9dbd 56a7 80bd 50bd 25be edf8 4bbe
00000390: b2d3 0cbe d322 59be 7da0 77be 96e8 dcbd
000003a0: e501 343e f350 4f3e 1d50 d43e df48 e93d
000003b0: b82b 44be 90c2 5ebd 5f46 b43d c865 023e
000003c0: 80f5 483d 19b8 31bd 7365 d13d 658f 8bbe
000003d0: 354a 603c 8214 ec3c 78da 023e ccac 41be
000003e0: 6b22 343d 0590 5c3e 7c5f ae3e 7e44 233e
000003f0: a98c 05be e04d 4bbe 540b af3d 38bf ffbd
-0.14163926 0.3855153 0.37448674 -0.10591441 0.14491415 0.20176005 0.0053625037 -0.05111052
-0.0019306397 0.110837296 0.020400371 -0.04475512 0.11773584 0.262785 -0.27629933 0.044875793
-0.3032804 -0.06825137 -0.30972448 -0.13514997 -0.18486808 -0.1157658 -0.060722236 0.233622
0.1886377 -0.1578818 0.4113354 -0.011688245 -0.0117996875 -0.21755794 0.0049358415 -0.083693944
0.028307963 0.004956452 -0.21598436 0.17371534 -0.19225226 0.20492402 0.2499503 -0.25562122
-0.13596547 0.17348535 0.0742672 -0.13637841 -0.05618325 -0.20490988 0.2438471 -0.21498226
0.08574491 0.14004739 -0.01654027 -0.0003460797 -0.18407466 0.0402872 -0.041742552 -0.0008424178
-0.09261109 -0.036191195 -0.31410822 -0.08138126 0.25886956 0.10363945 -0.1614757 -0.17214064
-0.14454553 -0.14359511 0.015975812 -0.09234737 -0.21824509 -0.24337849 -0.105756894 -0.037564434
0.08011255 -0.13183238 0.31382445 -0.15539265 -0.34147987 -0.14734112 -0.021470964 -0.15219313
-0.10927185 -0.052446872 -0.15177482 -0.16522463 -0.20608675 -0.036967184 0.020608045 0.23020612
0.22459143 0.078073114 0.24328671 -0.0291619 -0.01570962 0.05718828 -0.028008902 0.14245975
0.18640748 0.2530451 0.086502165 0.20203707 0.2691887 0.0016997402 -0.23210263 0.013181404
-0.0011111546 -0.048279114 0.041692816 0.13569522 -0.0016675461 0.21418117 0.15859906 -0.0466594
-0.1537108 0.05810115 0.021418938 0.040499385 0.2054922 -0.082293555 -0.18509561 -0.17861132
-0.021836113 -0.040997263 -0.3163105 0.17277664 0.15518142 0.118614666 -0.08193302 -0.05865901
0.0028410808 -0.30309397 -0.00043878308 -0.10918805 0.08946164 0.058186207 0.129388 0.039277073
-0.052828122 -0.044769973 0.3907112 -0.08793107 -0.25399426 0.07094555 0.23850282 -0.03555291
-0.06640971 -0.2325905 -0.4114036 0.06256119 -0.24561206 -0.059862245 0.1920812 0.13173561
0.31303942 -0.05583921 0.41969112 0.1363386 -0.35443404 0.029931987 0.04087451 -0.032564364
0.3072535 0.22436593 0.26890656 -0.057733353 0.058559194 0.24626037 0.23256686 0.2152578
-0.22109012 0.13152635 -0.09998137 0.06595954 0.036071144 0.017568432 -0.30681077 0.2311143
-0.12936333 -0.048771314 0.068558045 -0.15272057 -0.12081861 -0.06468316 -0.048370704 -0.072190724
-0.15503722 -0.22183977 0.015193958 0.013074791 0.25002995 -0.09677291 -0.31337538 0.020657413
-0.13601732 0.0038368246 0.20338532 0.023048097 -0.10154193 0.19271593 -0.119048946 0.18730392
-0.25165102 0.17398892 -0.17250754 0.1401898 0.3261838 -0.10351221 -0.3038825 0.2503836
-0.00018198123 -0.35904795 -0.2530818 -0.25863045 0.11324547 0.062318195 -0.19300239 -0.22204064
0.03184721 0.2202677 0.2643068 -0.068558276 -0.3465856 0.028970785 0.009432442 -0.1201737
-0.07693361 -0.06281917 -0.16185498 -0.19919176 -0.1375263 -0.2120469 -0.24182315 -0.1078655
0.17578848 0.20245723 0.41467372 0.11390852 -0.19157302 -0.054384768 0.08802485 0.12734139
0.049062252 -0.04338846 0.10224428 -0.2725784 0.013689567 0.028818373 0.12778652 -0.18913573
0.043978136 0.21539314 0.34057224 0.15944096 -0.13041939 -0.19853926 0.085470825 -0.12487644

fc.2.bias f4 [32]
00000000: fd87 58be 7647 19bd 2486 453e a114 13be
00000010: e2a6 d5bd 717d 243e 4616 e23d c89e 2abe
00000020: 1b1a 133e d222 2e3d 4028 893c 8e60 d13c
00000030: 76b1 1cbd 76d1 743e dc39 d8bc c6b3 87bd
00000040: 4886 f9bd ed00 65be 30a8 30bb 0f79 2bbe
00000050: 2c4f 31be 06fe b13d c007 e6bd f7f0 83bd
00000060: b85f 5f3e 6d1a 8ebd 5665 873d 90d4 e2bd
00000070: c712 2b3e bcd1 2c3e bea0 083c 62ff c83d
-0.21145625 -0.037421666 0.19289452 -0.14363338 -0.10432221 0.16063477 0.110394046 -0.16662133
0.14365427 0.042513676 0.016742826 0.025558736 -0.038255177 0.23908028 -0.026394777 -0.06626086
-0.12183815 -0.22363634 -0.0026955716 -0.16745399 -0.17315358 0.08691029 -0.11231947 -0.06442445
0.21813858 -0.06938634 0.06611125 -0.11075699 0.16706382 0.16876882 0.008339105 0.098143354

fc.4.weight f4 [16, 32]
00000000: 8e1e 50be 8612 7b3e 8c7b 383d 9033 2abe
00000010: 0ce7 3b3e aa7f 2e3e 9777 73be 94eb f73d
00000020: e767 b53e e67b 5c3e e189 46be 296f 0e3e
00000030: 15ad fb3d 3d15 933d bbc7 563e b888 453e
00000040: eca0 46bd 3ca7 283d bc8d 5e3e 0fe8 c2bd
00000050: ccce a5bd a168 093e 9408 123e 28a2 69be
00000060: 776f 283e 2c8a d8bc f9cc 6a3e e7ed cbbd
00000070: 178a 1abe bc44 ff3d f5f2 373d 8447 a53e
00000080: 9e38 0c3e 7fcf 9bbe ba7a c23d fe40 91bd
00000090: 4a11 d93a 9ea2 45be d32a 243e 7e74 c2bd
000000a0: a486 44be 5cfc 47be cef5 823e 435e 1c3e
000000b0: 5a96 c3bd 7c8b b1bd ca13 9fbe cd76 1dbe
000000c0: 01a8 203e c856 8d3e fb30 08be d217 723e
000000d0: d90f 623d c906 683d 923a 4c3c 2096 733e
000000e0: d768 80be 4817 a83d a3ee 7abe b4b9 94bd
000000f0: 6d6d 463e a2c0 06bd 8dd1 833e cd1e 9cbe
00000100: 60b1 523e 698f acbe fa91 b53d e820 ab3c
00000110: 5e70 58bd 36a8 883d e6b3 af3d f23d d53d
00000120: 3df2 56be 324d 143d 94b2 693d 9cd4 b9bd
00000130: dbb0 b23d c5b1 90be b680 2fbe 91d4 0ebe
00000140: a0d5 26bd 4b3f 6e3e c309 bdbd 73bd 14bd
00000150: 1c25 68be f67f 46bd 9a5a adbd 4a29 a33d
00000160: e2cb c9bc 64ee a53d 3ab6 2cbe 54b0 84bc
00000170: ff44 a23e 914f 1fbe ebaf a63c c377 e2bc
00000180: ed59 57bc 6b8f b1be 4dbc 71be 6c96 f1bc
00000190: 4895 9cbc 20be 433d 068f 82bd ab4b 343e
000001a0: 8909 59be df0e 84be a229 f23c fb39 9bbd
000001b0: 88d8 593e bb4e 13be 2af7 8bbe 6e1b 6bbe
000001c0: bfc0 6a3c 708e 833e 1ac9 83be 21c7 183e
000001d0: a0a8 14be 6e42 11bd 5c88 c73d 3510 6d3e
000001e0: 59a3 5fbe 2456 e53d fb04 87be 6597 80bd
000001f0: 8d62 8e3e 1ddb 39be 71db ca3d a4c4 8abe
00000200: 1196 ba3d c9d7 5abe f9ae 74be 3802 4b3e
00000210: bdc2 70be e407 cdbd 509f bb3d 9554 743d
00000220: ace5 bcbd 035c b1be 5e2e 323d c1d0 c6bd
00000230: 687a e13d bffd 57bd fd00 aebe af89 cabb
00000240: 0237 d1bd 6607 5d3e cfba 5bb9 71ba 29bd
00000250: 2ceb 69be c396 55bd 507e 26bd 480f 7f3e
00000260: 8078 2fbe 856e 7d3c 178f 71be 81f0 a4bd
00000270: 4a60 073e c636 94be b79e a4bc be5e 6dbe
00000280: 09a7 b3bc add7 00be 4ccc 33be ecdf 473e
00000290: 7575 3fbe 46b7 913d ce02 f63d 94c5 203e
000002a0: 8755 28be 194b 02be ecdc c23d 2731 fb3d
000002b0: 7804 593e f7b6 1bbe 7f8b 05be 881e 0bbe
000002c0: 230e 2f3e 9697 523e 7958 09be 8dad 843e
000002d0: 2b67 20be 9f19 2e3e 3394 a63b 1cab 5f3e
000002e0: bc96 22be 0ccb ea3d e4b4 b3bd eceb 0c3e
000002f0: 9c5a 6c3d f78e c2bd 53f9 2c3c 3a65 80bd
00000300: 41d8 62be 702c b63e 5638 ec3d 901e d1bd
00000310: ed9c 853e 7393 6c3d 9032 4fbe 7cab 2cbe
00000320: 6043 e53d 033b 23bc c9f7 73be bf88 903d
00000330: 13d2 41be 0d0d f53d 6182 aabc ed07 6fbc
00000340: 2c50 3dbd 8972 c13d 72be 7b3e 2a96 17bd
00000350: a0ce b5bc 6a10 243e 6bd3 1b3e 21d5 5abe
00000360: 1bc7 873e 9589 86be 0920 7fbd 7123 77bd
00000370: 98a4 93bd 977a 2d3d ffcd c5bd e34a fe3d
00000380: c564 013c ca6c 65be 7398 67be 94ad 183e
00000390: ef5c 24be d16c 48be c4c7 863d 9286 cbbd
000003a0: 5e74 15bd f9b8 17be e9cc 7a3e 8fe6 1c3e
000003b0: b636 5dbc d1d7 f8bd b83e 87be 9666 84bd
000003c0: 9670 91bd 1ff9 e13d 788a dd3c 4a39 143e
000003d0: d300 b33d 3f14 b2bd ac3e 35be 23ba 8d3e
000003e0: 4f19 3ebe 7eb0 493e d1c1 083d 9ad7 6c3d
000003f0: a929 363e e16a 2dbe 8f04 b03d b847 b4bd
-0.20324156 0.24518785 0.0450397 -0.16621232 0.18349856 0.17040887 -0.23776089 0.1210548
0.35430834 0.21531639 -0.19388534 0.13909592 0.12288872 0.07181785 0.20974629 0.19290435
-0.04849331 0.041175112 0.21733755 -0.09516918 -0.08096084 0.13418819 0.14261085 -0.22815764
0.1644877 -0.026433073 0.22929753 -0.09957486 -0.1509174 0.12464282 0.044909436 0.32281125
0.13693473 -0.30431744 0.094960645 -0.070924744 0.0016560939 -0.19300315 0.16031961 -0.09494875
-0.19191986 -0.19529861 0.2557816 0.15270333 -0.09550162 -0.08669183 -0.31069785 -0.1537735
0.15689088 0.2760527 -0.13299935 0.23641899 0.055190895 0.056647096 0.012465136 0.23787737
-0.25079986 0.082075655 -0.24505095 -0.072619826 0.1937768 -0.032898553 0.25745812 -0.3049225
0.20575476 -0.33703163 0.088657334 0.020889714 -0.052841537 0.06672709 0.08579235 0.10412206
-0.20990844 0.03620643 0.05705507 -0.09073755 0.08725139 -0.28260627 -0.17138943 -0.13948275
-0.040731072 0.23266332 -0.092303775 -0.036313485 -0.22670406 -0.048461877 -0.084645465 0.0796686
-0.024633352 0.0810211 -0.16866389 -0.016197361 0.31693265 -0.15557696 0.020347556 -0.027644997
-0.013143999 -0.34679732 -0.23606987 -0.029490672 -0.019114152 0.04778874 -0.06374936 0.1760699
-0.21195044 -0.25792596 0.029560868 -0.07579418 0.21274006 -0.14385502 -0.2733701 -0.22959682
0.014328181 0.2569461 -0.25739366 0.14919712 -0.1451745 -0.035463743 0.09742805 0.23150714
-0.21839656 0.11198071 -0.26370987 -0.06278876 0.27809563 -0.18149991 0.099051364 -0.2710315
0.09110654 -0.21371378 -0.23894872 0.19825065 -0.23511787 -0.10011271 0.09161246 0.059650976
-0.09223494 -0.34640512 0.04350125 -0.097077854 0.11009675 -0.052732226 -0.3398513 -0.006180964
-0.1021557 0.21584854 -0.00020955059 -0.04143757 -0.22843617 -0.05214573 -0.040647805 0.24908173
-0.17135811 0.015468244 -0.2358974 -0.08053685 0.13220325 -0.2894804 -0.020095212 -0.23180673
-0.021930235 -0.12582274 -0.17558402 0.19519013 -0.1869715 0.07115035 0.12012254 0.1570037
-0.16438876 -0.1272396 0.09514794 0.122652344 0.21193111 -0.15206514 -0.13041495 -0.13585865
0.17095236 0.20565638 -0.13412656 0.2591366 -0.15664355 0.17001961 0.0050835847 0.21842617
-0.15877813 0.11464509 -0.087747365 0.13761872 0.0577036 -0.09499925 0.01055749 -0.062693074
-0.22152807 0.35580778 0.11534183 -0.102109075 0.26096287 0.057757806 -0.20234132 -0.16862291
0.111944914 -0.0099628 -0.23824991 0.07057332 -0.18927793 0.1196538 -0.020814123 -0.014589292
-0.046219036 0.09445674 0.24584368 -0.037008442 -0.022193253 0.16021886 0.15217368 -0.21370365
0.26519093 -0.26276842 -0.06228641 -0.060336534 -0.07209128 0.04235324 -0.09658431 0.12416627
0.0078975605 -0.22404781 -0.22616749 0.14909965 -0.16051076 -0.1957276 0.06581071 -0.099377766
-0.03648793 -0.14816655 0.2449223 0.15322326 -0.013501814 -0.12150539 -0.26415038 -0.06464879
-0.07101552 0.11033844 0.027043566 0.14474979 0.087403916 -0.08695268 -0.17699689 0.27681074
-0.18564342 0.19696233 0.033387963 0.0578228 0.1778933 -0.16935302 0.085946195 -0.08802742

fc.4.bias f4 [16]
00000000: eca1 0e3d bdaa acbd 4237 36bd c1c6 5d3d
00000010: bae3 963b bed5 033e e667 c0bd ed4e 1dbd
00000020: e167 603d b8fe e3bd f169 69bc 0f01 8abd
00000030: c040 b63c c9ef 313e 82bf 473e e403 33bd
0.03482239 -0.08431003 -0.04448629 0.054144625 0.004604784 0.12874505 -0.09394817 -0.038405348
0.054786567 -0.11132568 -0.01424645 -0.06738483 0.022247672 0.17376627 0.19506648 -0.043704882

fc.6.weight f4 [2, 16]
00000000: 48d5 d7bd 4779 193e ac5f 9f3d 5451 e53e
00000010: b0ff 853e 6039 ad3e ce96 d3be 0f02 713e
00000020: 7b23 903e 16fe 98be ba2e a2be bba8 74be
00000030: 059c ea3e 3cab 54be 81d8 7b3b 06f5 403e
00000040: afd6 cc3e 2eb0 c0be 0e92 79be 86e4 a5bc
00000050: 32bc 0ebe 4f02 99be f46c 043e 051d e3be
00000060: d772 b7be 9cb3 db3e 4a13 c83e d1ee 693e
00000070: 0bf4 50bd 0579 113e 7168 e73e b466 dabe
-0.10538727 0.1498767 0.0778192 0.4478861 0.26171637 0.33832836 -0.41325992 0.23535942
0.2815207 -0.29881352 -0.31676275 -0.2389249 0.45822158 -0.20768446 0.0038428607 0.18843469
0.4000754 -0.37634414 -0.24372122 -0.02025057 -0.13938978 -0.29884574 0.12932187 -0.44358078
-0.35829803 0.4291047 0.39077216 0.22845007 -0.051013988 0.14206322 0.4519687 -0.4265648

fc.6.bias f4 [2]
00000000: f10f 043e e46d 4f3d
0.12896706 0.05064191
