5.DDPG/ckpt/InvertedPendulum-v5_DDPG_episode_342_reward_954.pth (torch, 21336 bytes, 5 tensors)

fc.0.weight f4 [64, 4]
000000 74 71 b9 3e 0b 6a 32 40 7c 5d 14 3f 67 84 01 3f
       0.3621937 2.7877223 0.57955146 0.50592655
000010 76 f9 9f 3d f3 fd 0c 3e b2 63 24 be 35 67 16 bc
       0.07811253 0.13768749 -0.16053656 -0.00917988
000020 b7 88 5d be fa 29 36 3f ef c8 20 3d ea f2 7d be
       -0.21634184 0.711578 0.039254125 -0.24799696
000030 f1 03 14 3f 25 4c 28 bf a4 6b 29 be da f7 23 be
       0.57818514 -0.6574119 -0.16544968 -0.16012517
000040 bd 16 dd 3e ff 0f b1 bf 4e 4c bf bd 69 c2 c5 be
       0.4318141 -1.3833007 -0.09340726 -0.38624886
000050 ac fd 59 be 84 00 b6 be c2 dc 89 be ae fe 1b bd
       -0.21288174 -0.35547268 -0.26926237 -0.03808468
000060 e3 1b 8f 3e dc dd d1 be a1 3d c7 be ad a5 42 bd
       0.27950963 -0.40989578 -0.38914207 -0.047521282
000070 3d 14 1e be 37 72 54 3d 92 14 5b 3e 4d 17 9a 3e
       -0.15437408 0.051866736 0.21394566 0.30095902
000080 86 b9 3c 3e 4f 3f bc bf 95 53 a1 be 03 a7 3d be
       0.18430147 -1.470682 -0.3150908 -0.18520741
000090 39 a7 b2 bd c3 55 36 be f4 bf a1 3e 1e 33 cb 3b
       -0.087233014 -0.17806153 0.3159176 0.006201162
0000a0 e3 19 a6 bd 3b 60 92 3e 2c 16 ca bd 70 3f 71 3e
       -0.08110406 0.28589043 -0.0986751 0.23559356
0000b0 fc a3 92 bd e6 4f af 3e 0f be c0 be 0e 27 17 3e
       -0.07160184 0.34240645 -0.37645003 0.14760992
0000c0 b5 7e 82 3f 28 96 d4 3f bd 60 d5 3e 2c fa 2e 3e
       1.0194918 1.6608324 0.41675368 0.1708762
0000d0 f8 57 0f 3f 58 ed 7e 3f 35 7d d6 3e 33 45 3b 3e
       0.55993605 0.9958091 0.418924 0.18288116
0000e0 fd 29 0b bd c2 12 cc bf ac 6f 07 bf 84 b4 a1 be
       -0.03397559 -1.5943224 -0.5290477 -0.31583035
0000f0 e1 33 31 3f f6 ea a1 bf cd c0 84 bc c7 6e dc bd
       0.69219786 -1.2649829 -0.016205216 -0.107633166
000100 97 de a4 3f 87 7f c2 3f 96 6e 23 3f 93 6e 86 3e
       1.2880429 1.5195168 0.63840616 0.26256236
000110 ff 84 67 be cb 99 86 3e d0 2a 95 3e a5 cd 14 bc
       -0.22609328 0.2628921 0.29134226 -0.009082233
000120 d6 42 d8 bd 8a a8 73 bf 02 23 d4 be bd 94 69 be
       -0.10559623 -0.95179045 -0.4143296 -0.22810645
000130 03 ea 94 be 2a 8c a8 3e d2 d4 be bd 37 be ad bd
       -0.29084787 0.32919437 -0.09317936 -0.08483546
000140 16 75 83 bf a5 73 89 3f b9 78 64 3e bf 05 79 3e
       -1.0270107 1.0738417 0.22311677 0.24318598
000150 6b 9f 19 3e 89 1a 54 3e d0 8d 9e be 56 12 a7 3e
       0.1500222 0.20713247 -0.3096757 0.32631177
000160 da 9b 26 3e d8 05 90 bf c1 5d dd 3d c9 38 20 be
       0.1627039 -1.1251783 0.10808898 -0.15646662
000170 b6 8f 5a 3e a8 43 90 bf 93 e1 df be 25 f2 9a bd
       0.21343884 -1.1270647 -0.43726787 -0.07565717
000180 11 f2 a0 be 1c 60 58 be 96 06 8b be 5a 51 02 3d
       -0.31434682 -0.21130413 -0.27153462 0.031815864
000190 d9 a1 2e 3e 4a 7a 8c 3f 84 03 db 3e 4e c4 c0 3e
       0.17053927 1.097482 0.4277612 0.3764977
0001a0 9b 70 1b bd 45 95 30 3f f1 30 6e be a9 b7 5a bd
       -0.037949186 0.6897777 -0.23260857 -0.05339781
0001b0 2b ec d3 be 27 7b 84 3f 3e 7a 93 3e f2 1a 97 3e
       -0.4139112 1.0350083 0.288042 0.29512745
0001c0 9e 92 d3 bf 00 6d 91 3e ec de dc 3d 62 87 6e 3c
       -1.6529119 0.28403473 0.107847065 0.014558645
0001d0 3e ca 04 bf 57 a9 63 3f 65 74 2f 3d 3d 30 73 3d
       -0.518711 0.8893027 0.04283561 0.059372175
0001e0 22 3e b8 bd 16 63 b7 be 54 5b 4f bd 0d f8 d5 bd
       -0.08996226 -0.35817784 -0.050624207 -0.104477026
0001f0 a3 0f 8f 3e c6 f6 b8 3f 43 16 05 3f 6d db b7 3e
       0.27941617 1.4450309 0.51987094 0.35909596
000200 7f eb 33 bf 63 2e 16 bf 11 bc f9 bd 71 b6 01 be
       -0.70281214 -0.5866453 -0.12194074 -0.12667252
000210 f0 69 9e 3e ef f3 b6 bf c4 7d 67 3e e9 8e c1 bc
       0.309402 -1.4293193 0.2260657 -0.023627715
000220 e9 c0 83 3e c0 52 6e bf ab fc ad be 85 36 8e be
       0.25733116 -0.93095016 -0.33981833 -0.2777597
000230 1f d7 49 bf 38 15 ab 3f 1f b2 0c 3f 7d e3 51 3e
       -0.78843874 1.336585 0.5495929 0.20496936
000240 d7 3c 87 be 7d 16 87 3e d1 c0 14 3e c1 eb d1 3d
       -0.26413605 0.26384345 0.14526679 0.102500446
000250 97 2a 4d bd 12 d1 a2 bf 13 ea 1c bf 71 fc 52 be
       -0.050089445 -1.2720053 -0.6129467 -0.20604111
000260 2b 35 0a 3f 71 94 9d bf 8f 63 be bd 0c 67 bb bd
       0.5398738 -1.2310926 -0.09296333 -0.09150514
000270 f5 4b 36 3e 29 29 26 bf 53 61 8f 3d 26 56 9b bd
       0.17802413 -0.64906555 0.07000985 -0.07584791
000280 61 0e 6d be 8b b2 d4 3f 86 12 9b 3e 2b db 40 3e
       -0.23150016 1.6616987 0.3028757 0.18833606
000290 8e b3 c5 bc d9 64 b1 3d 7c 8e 1c be d4 9d 52 bb
       -0.02413347 0.08661813 -0.15288728 -0.003213753
0002a0 a2 9f 8f be cd 10 72 bd c4 52 e5 be a9 5c 63 be
       -0.28051478 -0.059098054 -0.44789708 -0.22203316
0002b0 de 96 86 bf a9 28 d1 be a6 02 64 be f5 de 0f 3d
       -1.0514791 -0.40851334 -0.22266635 0.035124738
0002c0 e7 82 29 be 9f 39 f0 3d 37 06 f3 be ab 57 da be
       -0.16553842 0.1172974 -0.4746568 -0.4264501
0002d0 28 10 30 3f 08 3a a7 bf 84 fc b0 bc b9 a9 d7 bd
       0.6877465 -1.3064585 -0.021604784 -0.10530419
0002e0 3e 6e da 3e 0f 82 d7 bf 5e 8b 7e be 53 1f 77 be
       0.42662233 -1.6836566 -0.24857852 -0.24133043
0002f0 f2 ae 4d 3f 19 c2 1e 3f 9d 4c bd 3e d7 e7 13 3e
       0.8034507 0.6201492 0.36972514 0.14443909
000300 c7 fc 7d bc 33 1b 2f 3f f1 56 8c be 9a 08 eb 3d
       -0.015502161 0.6840088 -0.2741008 0.1147625
000310 11 4a 0e be 55 10 64 bf b8 82 12 bf 4e c9 66 be
       -0.13895442 -0.8908742 -0.5723071 -0.22537729
000320 46 fd 1d 3f c2 6d ab bf 7d f9 f7 be 86 d5 a2 be
       0.6171459 -1.339287 -0.48432532 -0.3180353
000330 53 ab ab 3e 6f 4f db 3d ca 9b 46 3e 88 7f 8d 3d
       0.33529148 0.1070851 0.19395366 0.0690909
000340 7c ce 03 bf 2f bf 4c 3f ea c5 5f 3d 56 b4 83 3e
       -0.51486945 0.79979223 0.054632105 0.25723523
000350 b5 e3 89 bf 7e 6a 39 bf 85 40 4d be da 4b 4f be
       -1.0772616 -0.7242812 -0.20044143 -0.20243779
000360 b2 32 41 3e a3 55 c8 bf cb cf b0 3e cf 04 ed be
       0.18866995 -1.5651134 0.34533533 -0.4629273
000370 c0 b4 ae 3e c3 f9 95 3f 48 d9 64 3f a4 77 b7 3e
       0.34122276 1.1716846 0.89394045 0.35833466
000380 76 1f 01 bf 8c 87 1e bd c4 0d 9f 3d 70 f4 b1 3d
       -0.5043863 -0.038703486 0.077662975 0.08689201
000390 99 f0 bf 3d d8 8d b8 bf a4 95 35 3e a0 22 b5 be
       0.09372062 -1.4418287 0.17732865 -0.3537798
0003a0 c2 56 39 3f 75 db 35 3f a3 29 20 bd 54 d2 1f 3d
       0.72398007 0.7103799 -0.039102208 0.039018944
0003b0 2d f8 11 be f8 c1 33 3f 8b 64 b1 be 4f ef 86 3e
       -0.14254828 0.7021785 -0.3464702 0.26354453
0003c0 09 78 25 3e db e8 cc be 19 8b 78 3e d5 11 5c 3c
       0.16159071 -0.40021405 0.24271812 0.013431986
0003d0 be ca 57 be 57 7c 25 bf d8 83 e1 bd cc dc bc bb
       -0.21073434 -0.6464285 -0.11011475 -0.0057636257
0003e0 ae ac 70 3f 29 6a 94 bf 3b 83 a6 be 9d 85 9a be
       0.9401349 -1.1594898 -0.32521996 -0.30180064
0003f0 b2 1e e7 be 0b 04 33 bf 3a e9 e8 be 09 20 75 be
       -0.45140606 -0.69928044 -0.45490438 -0.23938002

fc.0.bias f4 [64]
000000 a6 cb b7 be a2 c5 b5 be 18 b8 0b bf 29 45 0b bd
       -0.3589756 -0.35502344 -0.5457778 -0.034001503
000010 eb ab c9 be f9 82 2c bf a6 53 03 bf f8 56 1b bf
       -0.39388976 -0.6738735 -0.5129951 -0.6067958
000020 47 42 85 be d7 42 fe be 35 43 1a bf 10 72 b3 be
       -0.26027128 -0.4966037 -0.602588 -0.3504796
000030 78 cf 6e bd ac 12 f1 3d 5c 27 23 bd 59 ca 12 bf
       -0.058303326 0.117711395 -0.039832458 -0.5734001
000040 f1 98 91 bd a1 66 0f bf ba 8a 19 be 19 45 01 bf
       -0.071092494 -0.56015974 -0.14994326 -0.5049606
000050 9b 5b 01 be 54 f9 5e bf b7 f2 e0 be 48 70 74 bd
       -0.12632601 -0.87099195 -0.43935177 -0.059677392
000060 51 e3 01 bf bc 82 03 bf a7 76 f2 be ab 7f 54 be
       -0.5073748 -0.5137136 -0.4735615 -0.20751826
000070 b1 7e 43 3d 00 d4 97 be 50 76 12 bf f8 26 a8 be
       0.047728244 -0.2965393 -0.5721178 -0.3284223
000080 64 fd ec 3e 8d 7c bc 3d f0 78 2e bf 6d 0f 82 3d
       0.46287072 0.09203444 -0.68153286 0.063505985
000090 25 b0 a8 be 7e b3 86 3d 7b dc aa be f9 97 8a be
       -0.32946888 0.06577204 -0.33371338 -0.2706907
0000a0 36 af b8 bc c2 09 e1 be c4 09 33 be c4 78 3a be
       -0.022544485 -0.43952757 -0.17484194 -0.18210131
0000b0 e2 d8 1c bf f7 ac 12 bf 21 b4 01 3e ab 33 2a 3e
       -0.61268437 -0.57295173 0.1266637 0.16621272
0000c0 e2 0c 3a 3e d1 93 ab bd 5d 78 31 3e a8 74 19 bf
       0.18168977 -0.08377803 0.17331071 -0.5994363
0000d0 8b 65 6d 3e 3e 21 36 3f 89 7a 8e be 9d 52 89 be
       0.23183267 0.71144474 -0.27827862 -0.2682084
0000e0 89 02 06 bf d5 2f 25 3d 7d 3d 83 be 4e 05 fe be
       -0.5234762 0.04032882 -0.2563285 -0.49613422
0000f0 5f 37 fb be 8f d8 ed be ec 19 00 3e cb 23 10 bf
       -0.49065682 -0.46454284 0.12509888 -0.56304616

fc.2.weight f4 [64, 64]
000000 d3 47 37 3d 2f ee a2 3b bd 71 cd 3d 77 07 4f bc
       0.04474623 0.0049722414 0.100314595 -0.012636057
000010 20 3b c0 bd 0c b3 3c 3d ca 45 82 bd 2d 6c 56 bd
       -0.09386277 0.04606919 -0.063609675 -0.05234926
000020 30 7a f6 3b 38 9d ce 3c 24 5c 3c bc 84 dc 25 bd
       0.00752189 0.025221452 -0.011496577 -0.040493503
000030 05 81 78 3d 75 96 fb bd e4 e7 27 bc f7 c5 0c 3d
       0.060669918 -0.12284557 -0.010248158 0.03436848
000040 e0 df 80 3d dd 58 c0 3d 86 94 55 3d 82 d6 f1 3c
       0.06292701 0.09391949 0.052143596 0.02952123
000050 3f 08 55 bd 89 fc 0b be e7 d2 75 3e 78 48 03 bd
       -0.052009817 -0.13670553 0.24006234 -0.032051533
000060 b0 42 e4 bc d2 c3 62 bd c3 ad 31 bd 02 cf 05 be
       -0.02786383 -0.05536253 -0.043378603 -0.13067248
000070 4f 2a 1d 3d d1 a7 4d 3d 22 f8 8b 3d 12 cd d5 bc
       0.038370427 0.05020887 0.06834437 -0.026098762
000080 51 7e be bd 0b 7b c6 bd 4d a8 be 3d f2 14 ba bd
       -0.09301437 -0.09691437 0.093094446 -0.09086026
000090 cc 5f 2a bd 3a 5a 91 3d 57 52 23 3d 44 78 1e 3e
       -0.041595265 0.070972875 0.039873447 0.15475565
0000a0 3e 07 c0 bd 1c 5b 03 be 9e 02 ee 3d 78 a0 12 be
       -0.09376381 -0.12827724 0.11621593 -0.14319026
0000b0 78 e4 f9 3a 36 c6 69 bd 8d 66 b8 bd f6 b1 f5 bc
       0.0019065281 -0.057073794 -0.09003935 -0.029992085
0000c0 e7 2f 7e 3c 6a a2 ed 3d da 66 aa 3c 28 50 43 3e
       0.0155143505 0.11603244 0.020800997 0.19073546
0000d0 f4 68 0d be d4 cf 13 be 5b 28 1d 3d df 33 f6 bc
       -0.13809568 -0.14434749 0.038368564 -0.030054031
0000e0 59 20 97 3d 60 15 37 be a5 c2 a2 3d 39 53 04 3d
       0.07379217 -0.17879248 0.07947282 0.03230593
0000f0 28 10 b3 3d 50 c7 6d bd 20 c1 e9 3b a5 a7 5e 3e
       0.08743316 -0.058051407 0.007133618 0.21743639
000100 68 9e ab 3d 64 44 db bd 41 ea 2a 3f 12 db c5 3d
       0.08379823 -0.10706404 0.66763693 0.09660925
000110 63 25 a3 be 95 d9 6c 3e f1 fe 81 be 7b a9 0d bf
       -0.3186446 0.23129876 -0.25389817 -0.5533673
000120 be 39 07 3f aa a9 4f 3f 97 7a 7f 3d 70 e5 2d 39
       0.5282248 0.8111826 0.06237277 0.00016584038
000130 08 42 9f bc b1 6a 83 be bd 45 f4 3e e7 22 1a c0
       -0.019440666 -0.25667337 0.47709456 -2.4083803
000140 72 c5 1f 3e fe 77 0c 3f 57 fa f3 3e b2 2b 08 3d
       0.15602663 0.54870594 0.47651932 0.033244796
000150 f0 a4 2a 3e 5f d7 f1 3d 02 03 99 be 11 46 1b bd
       0.16664481 0.11808657 -0.29885107 -0.037908617
000160 27 89 07 3f a2 ae 39 3e 40 bd b6 3c f3 31 9d be
       0.5294365 0.18133023 0.022307038 -0.3070217
000170 a1 ab 89 3e c1 6e 53 3f 58 48 42 3f 2f 32 7a 3e
       0.26888755 0.8259087 0.7589164 0.24433206
000180 ca 30 a2 bd 21 23 bf be 4e 12 12 3f 64 fb 26 3f
       -0.07919462 -0.3733149 0.5705918 0.6522734
000190 11 82 b5 3d f1 81 3a 3e 69 e6 89 3e da db 1b 3d
       0.08862699 0.18213631 0.26933601 0.038051464
0001a0 8e ec 16 3c bd 95 4e be ec 67 f8 3d b5 1e 62 3e
       0.0092116725 -0.20174308 0.121291965 0.22082026
0001b0 09 0a db bd e5 23 e3 bf 5e d3 df be b1 f2 9a be
       -0.106952734 -1.7745329 -0.43715948 -0.30263284
0001c0 bd 23 88 3c 83 79 39 3e cc 64 a5 be 87 f5 2b 3e
       0.016618604 0.1811276 -0.32303464 0.1679288
0001d0 23 7f 3d 3e 42 f4 35 bd ae 64 6a 3e aa 03 ea bd
       0.1850553 -0.044422396 0.22889969 -0.1142648
0001e0 f9 bc 82 3e ce 6a 0a be 6c 4b a8 be 98 23 78 be
       0.255348 -0.13517305 -0.32870042 -0.24232328
0001f0 23 01 eb be 6e 48 53 3f 63 eb 85 3e b8 3e 0e 3f
       -0.45899305 0.82532394 0.26156148 0.5556445
000200 4f 73 9a be 96 63 c3 bd 29 2f 40 3f 33 11 03 be
       -0.30166098 -0.09540479 0.7507196 -0.1279953
000210 e2 de d5 3e 02 1e ae bd c4 0c f6 bd b3 0b b6 bd
       0.4177161 -0.08501817 -0.120141536 -0.0888895
000220 03 f9 13 3f 6f 2a aa 3e a0 69 1a 3d eb 3f 8e be
       0.57801837 0.332355 0.037698388 -0.2778314
000230 c0 59 ab be 09 1f 22 3d 9f 5a ae 3e 01 44 ac 3e
       -0.3346691 0.03958038 0.34053513 0.33645633
000240 22 30 46 bd ba 85 30 3e 41 e0 63 3b 5e 59 80 3e
       -0.048385747 0.17238513 0.0034771117 0.25068182
000250 54 45 1a be 2f e0 aa bd d3 6a a2 3e f8 86 92 bd
       -0.15065509 -0.08343541 0.31722125 -0.071546495
000260 6e 34 96 3d 30 17 01 3a 9c a3 6e 3d d0 8f 84 bd
       0.07334219 0.00049244147 0.0582615 -0.064727426
000270 1b 7e 7f be 02 1f 71 be 76 de 51 3e 1d 68 8e be
       -0.24950449 -0.23546985 0.20495018 -0.27813807
000280 cd 38 d5 bb e7 a0 ef 3d 7a 6c fc 3e 54 3b 6a be
       -0.0065070153 0.117006116 0.4930151 -0.22874194
000290 1c a7 16 bd 35 c0 8f be 5d 05 08 3f 39 30 b9 3e
       -0.03678046 -0.2807633 0.53133184 0.36169603
0002a0 4c 44 3b bf 87 85 19 3c e5 48 ed bd 7b 67 1d bf
       -0.7315109 0.009370214 -0.11586169 -0.61486024
0002b0 58 84 10 3d 3b 6a 53 3f e2 ee 22 3d 8d 6d fb 3d
       0.035282463 0.8258397 0.039778598 0.122767545
0002c0 80 e4 8a be aa b3 87 be 67 57 53 3e 9a 72 a6 3e
       -0.27127457 -0.2650426 0.2063881 0.3250931
0002d0 a4 af e2 bf 51 2c 10 be ff d8 1d 3e d6 37 ee be
       -1.7709851 -0.14079405 0.15414809 -0.46526974
0002e0 30 75 bd 3c d4 42 80 3d ab 03 03 3e c7 ba e6 bb
       0.023127168 0.062627465 0.12794368 -0.0070413086
0002f0 37 0f 6a 3d cc f1 16 3e 81 4a af 3d 59 66 9a be
       0.057143416 0.14740676 0.08559132 -0.3015621
000300 e5 78 57 be 84 6a 89 bd 15 ac 62 bd d8 50 bb 3e
       -0.21042211 -0.06709769 -0.05533989 0.36585116
000310 8e a5 33 3f 93 9d 1e be 5c 44 94 bd 87 d8 b3 3d
       0.7017449 -0.15489797 -0.07239601 0.08781534
000320 5d c4 52 be d8 78 c4 3d bb 86 28 be 03 a8 a9 3d
       -0.20582719 0.095933616 -0.16457646 0.08283999
000330 6e c7 0c be 6f d7 62 3e b6 b3 25 3f c5 b2 b6 3e
       -0.13747951 0.22152494 0.6472734 0.35683265
000340 c9 c5 be bf a3 f6 f1 3d 93 41 e5 bc bb 78 97 bd
       -1.4904109 0.1181462 -0.02798537 -0.073960744
000350 14 5e 00 c0 63 a6 f5 3c 85 4b cf 3e 3b e6 09 3c
       -2.005742 0.029986566 0.40487304 0.008416708
000360 ff e1 02 bf 6e 96 bf 3d 40 a3 9d 3d 55 86 46 be
       -0.5112609 0.09354864 0.07697153 -0.19387181
000370 3e a0 b2 3d 20 32 42 be 1d 99 be 3c ac 2f 05 3d
       0.0872197 -0.18964434 0.02326637 0.032516167
000380 e4 ab 9b 3d 45 05 86 bd 64 72 10 3e 5f a5 c5 be
       0.07601145 -0.06543974 0.14106137 -0.3860273
000390 d0 ee 0d bd f6 f2 99 3e f1 99 b6 3e ab 97 97 3e
       -0.034651577 0.30068177 0.35664323 0.296079
0003a0 93 14 b1 3e 6a 5d c1 3d a2 54 a2 3e fe 41 3d bf
       0.3458601 0.094416454 0.31705195 -0.7392882
0003b0 ce a9 9b be e7 5a 9c 3e 12 44 9c 3e 3d c5 bb bd
       -0.30402988 0.30538103 0.30520684 -0.091684796
0003c0 d3 7d 1c be ad 45 e7 be 11 ba c9 3e 14 79 13 bd
       -0.15282373 -0.45170346 0.3939977 -0.03600414
0003d0 0f 14 56 be a1 2c a8 bd f8 d2 98 be f4 5e 06 c0
       -0.20906089 -0.08211637 -0.29848456 -2.0995455
0003e0 df b9 e0 3d 73 f0 36 bc 88 ae 41 3e 5e 19 ae 3d
       0.10972952 -0.011165726 0.18914235 0.08500932
0003f0 4e 55 0e 3e b7 e0 5e be e1 da 93 be 20 e0 3c bf
       0.13899729 -0.2176541 -0.2887793 -0.7377949

fc.2.bias f4 [64]
000000 ce b7 42 be dd 87 d6 bd 7e 00 ec bd 7b 87 68 3d
       -0.19015428 -0.104751326 -0.115235314 0.05676983
000010 a9 88 10 be c8 a2 93 3d fa b9 6b bd a1 f4 d2 3c
       -0.14114632 0.072087824 -0.057550408 0.025751414
000020 71 65 c7 3d 90 0b 84 bd 47 da 51 be b9 f8 e0 bd
       0.09736145 -0.06447518 -0.20493422 -0.1098494
000030 87 94 6f be 26 86 95 be ff ae f5 3c 35 12 8f 3c
       -0.23396502 -0.2920391 0.029990671 0.017464736
000040 48 54 ae bd ff 6a 06 bd 98 c0 18 be df de 51 3d
       -0.08512169 -0.032816883 -0.14917219 0.051237937
000050 70 09 0e be 6e b1 13 be 7c 1a 26 3e ad 5a ad bb
       -0.13870788 -0.14423153 0.1622104 -0.0052903504
000060 2f 8a 0c 3e 47 26 92 bd 9e bb f4 3d db 34 53 bb
       0.13724588 -0.07136207 0.11949848 -0.003222755
000070 3d 8c 2e be ed eb 0f 3e 26 a2 4d 3e c7 8c 18 be
       -0.17045684 0.14054842 0.20081386 -0.14897452
000080 8f 0a a0 bd 98 af 7f be d5 f3 0b bc ed 58 68 3d
       -0.07814514 -0.24969327 -0.008542021 0.05672543
000090 b9 d4 ff 3c 61 13 b0 bd 4f 9c a0 bd 54 43 0e bd
       0.031229364 -0.08597446 -0.078423135 -0.034732178
0000a0 34 e5 20 3b f9 b7 d3 bd fc 13 fa 3b 38 98 99 bd
       0.0024550678 -0.103378244 0.007631777 -0.074997365
0000b0 f3 5b 02 3d 10 cd 89 be dc c4 19 3e 1d df 27 3d
       0.03182597 -0.26914263 0.15016502 0.04098426
0000c0 72 0e d8 bd 60 43 de 3c 0c 48 89 bb ed e3 ef 3d
       -0.1054963 0.027131736 -0.004189497 0.11713395
0000d0 17 25 16 bd 4c aa b0 bd 20 81 cf bc 1a 1e 20 3e
       -0.036656465 -0.086262316 -0.025330126 0.15636483
0000e0 2d 86 f3 3c c1 6a eb 3d fb 38 0f bd a0 fa d4 bd
       0.029727066 0.11494971 -0.03496645 -0.103993654
0000f0 cc c1 7c 3e ea 07 c8 bd fe 75 d6 3c c2 7c dd bd
       0.24683303 -0.097671345 0.02617931 -0.10814811

fc.4.weight f4 [1, 64]
000000 33 c7 05 3e ad 3b 1e bf 44 f9 a7 bf 57 2d b8 bf
       0.1306427 -0.6180981 -1.3122945 -1.4388837
000010 71 d1 9e 3f 66 17 0a bf e3 14 f1 3e 26 3a d3 bf
       1.2407666 -0.53941953 0.47086248 -1.650212
000020 d6 11 38 bf 80 82 9e 3b 42 6e 80 3f 6a f4 03 bf
       -0.71902215 0.004837334 1.0033648 -0.5154482
000030 24 5f 1f c0 41 62 c8 be 28 cf b9 be 96 aa 49 3e
       -2.490182 -0.39137462 -0.3629086 0.1969398
000040 6f 55 cc 3f bd 96 d4 be 85 e7 07 3f 73 8c 05 3e
       1.5963572 -0.41521254 0.53087646 0.13041858
000050 62 5d aa bd 07 c1 c8 bd eb 88 c5 3e 88 94 75 40
       -0.083185926 -0.09802442 0.38581023 3.8371906
000060 61 b2 d1 3d 34 c1 82 be ea ad 10 bf 34 8b 32 40
       0.10239101 -0.25538027 -0.5651537 2.7897463
000070 30 f6 2c be 1c 56 e5 3d 96 b7 58 3e 0c aa 97 be
       -0.16890788 0.11198065 0.21163782 -0.29621923
000080 c9 f5 dd bd 2f 2d 86 be 7a f9 d1 3c 02 a0 a1 3f
       -0.108378954 -0.26206347 0.025631655 1.2626956
000090 ae da 19 bf 81 38 4f 40 3f 79 ba be 83 1c 51 bf
       -0.60099304 3.2378237 -0.36420628 -0.8168413
0000a0 13 eb fa 3e df 14 de bf 9d 68 98 3d f0 ac 1a be
       0.49007472 -1.7350119 0.074418284 -0.15105033
0000b0 f5 13 4f 3f 91 24 5a 40 e1 28 4e 3e 82 6b b8 be
       0.80889827 3.4084818 0.20132782 -0.36019522
0000c0 9e c3 c2 bd 00 37 02 3e de e9 e9 3f 0c 2d 32 3e
       -0.09509967 0.12716293 1.8274496 0.17399997
0000d0 a8 08 4e 3d 79 b1 81 bf 40 6b 3f 3d 50 bd a1 bf
       0.050301224 -1.0132285 0.04673314 -1.2635899
0000e0 e4 2e 1f bf 7f 54 44 bf 95 c3 2f bf 6c 18 90 3d
       -0.62180924 -0.7669143 -0.6865781 0.07035908
0000f0 26 2d 91 3e 9f a4 3a 3f 9f 11 02 bf 79 a3 5b bb
       0.28354758 0.7290744 -0.5080814 -0.0033514185
