5.DDPG/ckpt/InvertedPendulum-v5_episode_548_reward_965.pth (torch, 21350 bytes, 5 tensors)

fc.0.weight f4 [64, 4]
0.40686607 -0.6438319 -0.0426121 0.3255934 0.40550965 -0.29029724 0.0046813353 0.13059549
-0.62675846 1.7169588 0.66016 0.19743891 0.4308862 -0.12907332 -0.025188614 -0.0063864174
-1.0825591 1.1014665 0.175929 0.19318213 -0.025638016 1.3661599 0.20571849 0.19223711
-0.34830463 1.0444263 0.2797 0.26380065 0.054393195 0.49560374 -0.22285469 -0.23841247
0.7116478 3.3050818 0.5618813 0.7076961 0.62705106 -1.3953182 -0.33411372 -0.47572184
-0.46019742 -0.9997663 -0.311822 -0.16095744 -0.329182 1.2500329 0.3842451 0.24290498
0.48828775 -0.7013839 0.11893725 0.06708497 0.31507516 -0.011043245 0.2633477 -0.21379456
-0.80578303 -1.1540114 -0.31415445 -0.16602357 0.35587114 -0.7428853 0.63260704 -0.06153931
-0.15095231 0.22664145 -0.17536664 -0.33974782 -0.078064784 -0.90688264 0.402254 0.19381328
0.110673435 0.28845233 0.46766186 0.37335208 0.28652737 0.07982107 0.36092153 0.28742597
-0.32488397 -1.8659142 -0.47954577 -0.12581977 -0.43909866 0.19679037 -0.6780292 0.14099781
-0.435 0.24292466 -0.34493926 -0.027951764 -0.0017240412 -0.67971176 -0.3391566 -0.22128962
-0.10813357 1.8407142 0.11700141 0.51654786 -0.27269727 0.39172924 0.1426697 -0.095186755
0.3002687 1.304468 -0.14374855 0.17430614 -0.69301444 -1.8775697 -0.35449722 -0.36644644
0.5115937 -0.6923991 -0.011386421 -0.0048034918 0.7236166 -0.7740408 -0.50125635 -0.28592625
-0.44418052 1.7829312 0.17009087 0.30820695 0.13573444 -2.2233036 -0.43746105 -0.46650115
-0.2462307 -1.4865952 -0.56485546 -0.070445396 0.66109234 0.112993054 -0.16495796 -0.10583365
1.9331475 0.5068905 0.5101323 0.015995096 0.33248276 -0.9560655 0.21957952 -0.28525138
-0.24971104 0.36237663 0.0618093 0.027706683 -0.060115762 0.07094913 -0.52666634 -0.031178324
-0.53383046 0.13713655 -0.23295899 -0.07540821 0.0683238 0.33705354 -0.22783932 0.015084778
-0.09623656 0.55083966 0.086717896 0.18092738 -0.9107013 -0.9586062 -0.25756758 -0.13104706
-0.32966444 -1.6543839 -0.6030338 -0.013400381 -0.67639816 1.0713675 0.29176632 0.09210423
-0.22746739 -0.721641 0.07477917 -0.027823253 -0.21403052 1.0157007 0.042733267 -0.007903038
0.1870844 0.10702436 0.38632172 0.47925264 -0.6997754 -0.7099789 -0.29834816 -0.2294962
0.85963166 -0.046924964 0.035167985 -0.023916977 -0.07235409 -0.19545668 0.33276394 -0.11372541
-0.27625033 -0.16745038 0.32036844 0.3057408 0.021363998 -0.087662876 -0.030161252 -0.096297204
-0.18155415 -1.1216568 0.45415393 0.25339687 -0.15771984 -0.13560572 0.074503 -0.061458778
-0.19306706 -1.6745105 -0.5006394 -0.39110193 0.58631974 1.1449778 0.32477227 0.23881458
0.6051059 -1.7543939 0.0008254311 -0.24626584 0.08091303 0.20179194 0.13182019 0.222997
0.04641517 1.3698418 0.20302866 0.08092851 2.1610875 0.9280584 0.48863944 0.010693917
0.9169425 1.2782037 0.12668954 0.0724077 0.37653127 -0.8215766 0.2992347 -0.71470565
0.26497966 0.5969766 0.38237488 0.43461105 0.8451813 4.3832984 0.3740671 0.8249373
00000000: c050 d03e 2bd2 24bf 068a 2ebd 2eb4 a63e
00000010: f69e cf3e d7a1 94be e365 993b d3ba 053e
00000020: 3e73 20bf 4ec5 db3f 3f00 293f 6d2d 4a3e
00000030: 1e9d dc3e cc2b 04be 5a58 cebc 2745 d1bb
00000040: 4c91 8abf dbfc 8c3f bb26 343e 89d1 453e
00000050: d106 d2bc 54de ae3f dea7 523e ced9 443e
00000060: fc54 b2be c3af 853f d734 8f3e e110 873e
00000070: 66cb 5e3d c6bf fd3e 0534 64be 6622 74be
00000080: 8d2e 363f 7686 5340 74d7 0f3f 922b 353f
00000090: 6b86 203f c999 b2bf f410 abbe d091 f3be
000000a0: ff9e ebbe aff0 7fbf 22a7 9fbe 07d2 24be
000000b0: 8b8a a8be 1401 a03f c6bb c43e 15bc 783e
000000c0: da00 fa3e e58d 33bf 5f95 f33d d863 893d
000000d0: 8851 a13e baee 34bc 82d5 863e f6ec 5abe
000000e0: cc47 4ebf a5b6 93bf dad8 a0be 1502 2abe
000000f0: be34 b63e bb2d 3ebf 89f2 213f a510 7cbd
00000100: 3e93 1abe b214 683e 5093 33be 6df3 adbe
00000110: 6ee0 9fbd 7629 68bf 3cf4 cd3e fd76 463e
00000120: c1a8 e23d 06b0 933e 6071 ef3e 0128 bf3e
00000130: b7b3 923e 3b79 a33d b5ca b83e 7f29 933e
00000140: 3157 a6be 47d6 eebf 0687 f5be e6d6 00be
00000150: 8ad1 e0be 6a83 493e 5293 2dbf bb61 103e
00000160: 52b8 debe 3ec1 783e e19b b0be 19fb e4bc
00000170: 39f9 e1ba 9701 2ebf efa5 adbe bf99 62be
00000180: 2275 ddbd 869c eb3f 6f9e ef3d 7b3c 043f
00000190: fa9e 8bbe bc90 c83e 0118 123e 46f1 c2bd
000001a0: d2bc 993e cff8 a63f d232 13be 4f7d 323e
000001b0: 6569 31bf 3454 f0bf a980 b5be de9e bbbe
000001c0: cef7 023f 1141 31bf 1c8e 3abc 9c66 9dbb
000001d0: f03e 393f 8a27 46bf 5652 00bf ed64 92be
000001e0: a16b e3be 1737 e43f 4d2c 2e3e 4dcd 9d3e
000001f0: f8fd 0a3e 9b4a 0ec0 e5fa dfbe 3dd9 eebe
00000200: e723 7cbe c048 bebf 5e9a 10bf ad45 90bd
00000210: 593d 293f e768 e73d bdea 28be 50bf d8bd
00000220: 6171 f73f 93c3 013f 0898 023f 2608 833c
00000230: 2e3b aa3e b5c0 74bf 74d9 603e 780c 92be
00000240: 40b4 7fbe 6e89 b93e c02b 7d3d 20f9 e23c
00000250: f23b 76bd c74d 913d 9bd3 06bf af69 ffbc
00000260: 1da9 08bf 866d 0c3e cd8c 6ebe 9f6f 9abd
00000270: 59ed 8b3d 4892 ac3e b64e 69be 2526 773c
00000280: ac17 c5bd d403 0d3f 2799 b13d 0745 393e
00000290: b823 69bf 3767 75bf e6df 83be 3331 06be
000002a0: c7c9 a8be dac2 d3bf 6c60 1abf 468d 5bbc
000002b0: 6e28 2dbf 9222 893f 6562 953e 24a1 bc3d
000002c0: 36ed 68be 77bd 38bf d225 993d 97ed e3bc
000002d0: d12a 5bbe 7b02 823f 1409 2f3d be7b 01bc
000002e0: 0e93 3f3e 962f db3d f6cb c53e 9a60 f53e
000002f0: 7b24 33bf 2dc1 35bf 17c1 98be 0d01 6bbe
00000300: d210 5c3f 6434 40bd 4e0c 103d 89ed c3bc
00000310: 622e 94bd cc25 48be 0960 aa3e dee8 e8bd
00000320: af70 8dbe 1d78 2bbe 5507 a43e 0f8a 9c3e
00000330: 8d03 af3c 9888 b3bd bb14 f7bc 7837 c5bd
00000340: 55e9 39be 7392 8fbf dd86 e83e 3cbd 813e
00000350: 4f81 21be 3adc 0abe 0795 983d 33bc 7bbd
00000360: 5fb3 45be 5c56 d6bf e729 00bf 833e c8be
00000370: 0d19 163f a28e 923f 8d48 a63e cf8b 743e
00000380: 38e8 1a3f fb8f e0bf be61 583a 1d2d 7cbe
00000390: bbb5 a53d 8ca2 4e3e dffb 063e 5359 643e
000003a0: d51d 3e3d fa56 af3f bfe6 4f3e d9bd a53d
000003b0: 424f 0a40 3c95 6d3f f32e fa3e 8a35 2f3c
000003c0: bebc 6a3f 2e9c a33f e7ba 013e 7d4a 943d
000003d0: b5c8 c03e d852 52bf 4a35 993e f3f6 36bf
000003e0: 6aab 873e 75d3 183f a4c6 c33e 5785 de3e
000003f0: cd5d 583f fb43 8c40 b985 bf3e 172f 533f

fc.0.bias f4 [64]
0.39114362 -0.79281783 0.27252588 0.16338775 -0.07876574 0.13626197 -0.52379405 -0.48199025
-0.24800351 -0.06229323 0.13248834 0.17041832 -0.6847588 0.092466496 -0.23818782 -0.603078
0.19662283 0.13090952 0.35785675 -0.66533947 0.061963882 -0.044267666 0.23552181 0.24089834
-0.21778075 -0.49395978 -0.39574388 -0.24805978 0.19340582 -0.0003077428 0.1276918 0.2760636
0.3211176 0.38118082 -0.008639575 -0.476371 -0.41024905 0.44760823 -0.5959264 -0.5314904
-0.4881044 -0.42210355 -0.27658007 -0.45688754 0.39047182 0.23836628 -0.34445703 -0.49762502
0.26923043 -0.6050978 -0.6972695 -0.3877175 0.10299037 -0.43175048 0.06793394 -0.4755032
-0.6494542 -0.8292024 0.21208511 -0.0006800252 0.30810305 -0.4402483 -0.53980714 0.005152208
00000000: fa43 c83e 1cf6 4abf 8388 8b3e 1e4f 273e
00000010: ef4f a1bd 4288 0b3e 5e17 06bf 6dc7 f6be
00000020: a2f4 7dbe 3027 7fbd 06ab 073e 2482 2e3e
00000030: 5a4c 2fbf 135f bd3d 82e7 73be 5263 1abf
00000040: 7f57 493e 250d 063e 0039 b73e b053 2abf
00000050: d7cd 7d3d 0352 35bd a12c 713e 0eae 763e
00000060: eb01 5fbe 4ce8 fcbe f19e cabe 6203 7ebe
00000070: 2d0c 463e 8a58 a1b9 a4c1 023e 3558 8d3e
00000080: 8769 a43e 222a c33e 018d 0dbc e6e6 f3be
00000090: 2a0c d2be e82c e53e a28e 18bf c10f 08bf
000000a0: d2e8 f9be f51d d8be e79b 8dbe 2aed e9be
000000b0: eceb c73e 4a16 743e ac5c b0be b5c8 febe
000000c0: 92d8 893e b0e7 1abf 4180 32bf e882 c6be
000000d0: 9dec d23d 660e ddbe f320 8b3d 2875 f3be
000000e0: a142 26bf 9c46 54bf d72c 593e b843 32ba
000000f0: afbf 9d3e 3a68 e1be cd30 0abf dad3 a83b

fc.2.weight f4 [64, 64]
-0.018543553 0.047448173 -0.037821356 0.06981332 0.04384841 -0.051716965 0.0021608323 -0.11973108
0.055493325 0.0676375 0.04971102 -0.11013824 -0.08686231 -0.0074249776 -0.029561877 0.122281045
-0.058217738 0.0813978 -0.024007708 -0.0057783276 -0.043166637 0.080408886 -0.12913013 0.002103144
-0.10507694 -0.10791296 -0.056667164 0.03945139 0.067035235 -0.10977961 -0.08366054 -0.10040868
-0.09609482 0.04719899 0.011837199 -0.009616017 0.03375578 0.038216505 0.08476779 0.07626045
0.00845696 0.07091342 0.026227579 -0.03995782 -0.06163539 -0.11069908 -0.08106379 -0.07059814
-0.096859634 -0.12197019 -0.05191277 -0.035147294 0.068172716 -0.060657278 0.085675895 -0.01623492
-0.10898143 0.06510955 0.06321798 0.025833264 -0.08679982 0.08176623 -0.042176217 -0.10333354
0.090851426 -0.47867745 0.0928556 0.04881796 -3.702798 0.015138827 0.55140764 -0.11240828
0.244897 0.70242804 -0.08486438 0.07479068 -1.4347503 0.16665943 -0.20380157 0.022899859
-0.32233927 0.12927395 0.14592299 -0.28272367 1.232708 -0.3601435 -0.486561 0.09740966
0.13807082 -0.059291758 0.542522 -1.9039847 -0.07121021 -0.8088231 0.20893218 -0.8564356
-0.22359419 0.24943548 -0.35038593 0.1378636 0.11429006 -0.31653103 -0.035218086 -0.0045181364
-0.4344321 -0.11138632 -1.4996979 -0.12086217 -0.11661603 -0.072898544 -0.8943751 -0.29295164
0.17666747 -0.25314754 -0.60109246 0.08803584 -0.020957148 -0.08740831 -0.35432205 -0.49013504
-3.5969474 -0.14696461 0.24962173 -0.28084663 0.31778347 -0.11452067 0.86006975 0.28761777
-0.1911748 -0.035099924 0.00906248 0.022986284 0.06708141 -0.10104209 0.005531735 0.47394446
-0.13527147 -0.012922256 -0.024337891 -0.040500235 -0.09143765 -0.20704289 -0.07451987 0.5248494
-0.23022363 -0.10510883 -0.085268065 -0.10452041 0.02325529 -0.14675325 -0.16297974 -0.12007256
0.021295372 0.68534964 -0.08863354 -0.10028155 0.028086932 -0.18503173 -0.06558317 -0.048168015
-0.04116229 -0.15132877 0.010513561 0.37292525 -0.04086514 -0.21916026 0.05670066 0.11687334
-0.08572428 0.78481835 -0.091700315 0.09643338 -0.11197519 -0.25083846 0.038660318 0.6348382
-0.07962875 0.31966457 -0.07951696 0.022351917 -0.07771951 0.46331 0.008229774 -0.074214175
-0.015310494 -0.019062385 -0.1417519 -0.022674903 -0.33862138 0.4753375 0.104994535 -0.12678467
-0.0017802166 0.2755198 -0.9280959 0.08358124 -0.6019466 -0.14133444 -0.08405881 0.08109738
-0.013484451 0.24149887 -0.7512018 -0.46631908 -0.03916702 0.10293055 0.013366856 -0.013445505
-0.4424634 -0.13096894 -0.014191415 -0.3902256 -0.35684136 -0.29318157 -0.23463999 -0.18812321
0.33954188 -0.02540814 0.8153772 0.18294485 0.09818688 -0.5530644 -0.67816806 0.17945968
-0.33232558 0.11881455 0.23336573 -0.1489046 -0.047028452 -0.23566537 0.15509804 0.027843148
-0.1011052 -0.21078837 -0.3924236 0.08767675 -0.12922645 -0.9426655 -0.12025545 -0.13618574
0.32920885 -0.12677002 0.09948301 0.075801596 -0.18557455 0.09715037 0.079949126 0.20379601
-1.2474737 0.08441928 -0.14138816 -0.07558705 0.07671231 0.04623255 0.10726757 0.21662548
00000000: a6e8 97bc 0459 423d 91ea 1abd 49fa 8e3d
00000010: 649a 333d 2bd5 53bd c09c 0d3b 9235 f5bd
00000020: f84c 633d 8885 8a3d c89d 4b3d 2890 e1bd
00000030: dee4 b1bd 3a4d f3bb c02b f2bc 7c6e fa3d
00000040: b975 6ebd e4b3 a63d d0ab c4bc 2058 bdbb
00000050: 80cf 30bd 6aad a43d b03a 04be e7d4 093b
00000060: 9432 d7bd 7801 ddbd d41b 68bd c897 213d
00000070: c549 893d 22d4 e0bd 3856 abbd 11a3 cdbd
00000080: 5ccd c4bd ba53 413d d0f0 413c 808c 1dbc
00000090: 8043 0a3d e988 1c3d bc9a ad3d 702e 9c3d
000000a0: 108f 0a3c 0e3b 913d 38db d63c d0aa 23bd
000000b0: 6475 7cbd 33b6 e2bd c604 a6bd c295 90bd
000000c0: 585e c6bd 82cb f9bd 7ca2 54bd 9cf6 0fbd
000000d0: 239e 8b3d c473 78bd d876 af3d 18ff 84bc
000000e0: a831 dfbd 2858 853d 6e78 813d 48a0 d33c
000000f0: 1bc4 b1bd 0e75 a73d f8c0 2cbd 89a0 d3bd
00000100: 5010 ba3d 3615 f5be 142b be3d 57f5 473d
00000110: a4fa 6cc0 d808 783c 0d29 0d3f 5036 e6bd
00000120: 47c6 7a3e 53d2 333f 60cd adbd db2b 993d
00000130: e6a5 b7bf c5a8 2a3e 5cb1 50be 7c98 bb3c
00000140: a709 a5be 6460 043e d66c 153e 28c1 90be
00000150: 60c9 9d3f bb64 b8be 861e f9be b77e c73d
00000160: 7062 0d3e eadb 72bd b9e2 0a3f c5b5 f3bf
00000170: a9d6 91bd 080f 4fbf 51f2 553e 5d3f 5bbf
00000180: e0f5 64be 046c 7f3e c965 b3be 1e2c 0d3e
00000190: e810 ea3d 5b10 a2be d740 10bd e00c 94bb
000001a0: e26d debe 831e e4bd 1af6 bfbf 9686 f7bd
000001b0: 63d4 eebd d54b 95bd c4f5 64bf c2fd 95be
000001c0: 51e8 343e 8e9c 81be 32e1 19bf 224c b43d
000001d0: 53ae abbc 2103 b3bd b369 b5be fbf2 fabe
000001e0: 6334 66c0 e47d 16be d79c 7f3e 21cb 8fbe
000001f0: 84b4 a23e d089 eabd 882d 5c3f a342 933e
00000200: 54c3 43be f0c4 0fbd cc7a 143c bb4d bc3c
00000210: fa61 893d 28ef cebd 8e43 b53b d9a8 f23e
00000220: 9b84 0abe dfb7 53bc 4260 c7bc 93e3 25bd
00000230: aa43 bbbd 0d03 54be e09d 98bd 885c 063f
00000240: bebf 6bbe 4c43 d7bd 06a1 aebd cc0e d6bd
00000250: e181 be3c 7c46 16be 29e4 26be 9ae8 f5bd
00000260: a273 ae3c 1373 2f3f 8085 b5bd 6a60 cdbd
00000270: 9116 e63c f578 3dbe 7850 86bd d34b 45bd
00000280: ca99 28bd eef5 1abe 1241 2c3c 0ff0 be3e
00000290: 3462 27bd 8c6b 60be f43e 683d 4a5b ef3d
000002a0: 3690 afbd dbe9 483f 60cd bbbd dd7e c53d
000002b0: 4053 e5bd e66d 80be 485a 1e3d c284 223f
000002c0: 6614 a3bd 13ab a33e cad9 a2bd 5e1b b73c
000002d0: 682b 9fbd f836 ed3e 2dd6 063c 9afd 97bd
000002e0: ded8 7abc b828 9cbc 6927 11be b8c0 b9bc
000002f0: c85f adbe 705f f33e 6007 d73d d7d3 01be
00000300: 2856 e9ba ee10 8d3e b197 6dbf a42c ab3d
00000310: 2c19 1abf fab9 10be 0627 acbd 6216 a63d
00000320: e3ed 5cbc 7b4b 773e c34e 40bf 60c1 eebe
00000330: 996d 20bd 41cd d23d a800 5b3c 894a 5cbc
00000340: 908a e2be b91c 06be 1c83 68bc a6cb c7be
00000350: e9b3 b6be e51b 96be 7745 70be 5fa3 40be
00000360: 6fd8 ad3e bb24 d0bc 8fbc 503f e555 3b3e
00000370: 3416 c93d a195 0dbf 6c9c 2dbf 47c4 373e
00000380: 9426 aabe 0b55 f33d 6df7 6e3e 737a 18be
00000390: e8a0 40bd 4352 71be 05d2 1e3e 5017 e43c
000003a0: 3e10 cfbd e8d8 57be bfeb c8be de8f b33d
000003b0: f053 04be 8752 71bf 7d48 f6bd 4674 0bbe
000003c0: 108e a83e 00d0 01be c0bd cb3d de3d 9b3d
000003d0: 4107 3ebe c6f6 c63d 5ebc a33d e7af 503e
000003e0: 38ad 9fbf 04e4 ac3d 0fc8 10be 62cd 9abd
000003f0: 581b 9d3d 585e 3d3d 1aaf db3d 12d3 5d3e

fc.2.bias f4 [64]
-0.111118376 0.17286451 -0.043783966 -0.023054846 -0.04307357 -0.08948957 -0.0031034101 0.09781621
-0.11708902 -0.054329984 0.013686311 0.007280803 -0.1594131 0.06665217 0.13336842 -0.1562515
-0.1532767 -0.09768105 0.038264655 -0.10236621 -0.051893104 -0.16858238 -0.3035607 -0.26481274
-0.36818126 -0.13940609 -0.06630615 -0.10708737 0.037920896 -0.09089622 -0.051959246 -0.19117893
-0.01607843 -0.099932864 -0.007471406 -0.06997875 -0.018275354 0.04395738 -0.0860687 -0.011426756
-0.2805353 0.021283649 -0.15018396 -0.020881308 0.04483695 -0.0750772 -0.00922256 -0.32363158
-0.10057412 -0.08801816 -0.15308271 -0.14103244 0.0012399001 -0.12488457 0.018364599 -0.117647395
-0.2996441 0.071544856 -0.008330026 0.10380256 0.120128796 -0.057015058 -0.38907853 0.008991757
00000000: 0892 e3bd 6503 313e d156 33bd 84dd bcbc
00000010: e96d 30bd 4f46 b7bd 9562 4bbb dd53 c83d
00000020: 5ecc efbd 1e89 5ebd 8d3c 603c cd93 ee3b
00000030: 303d 23be ef80 883d bb91 083e 6500 20be
00000040: 91f4 1cbe 010d c8bd 66bb 1c3d 60a5 d1bd
00000050: dd8d 54bd dca0 2cbe 4f6c 9bbe 8995 87be
00000060: 4182 bcbe 78c0 0ebe 85cb 87bd 9f50 dbbd
00000070: f152 1b3d cc27 babd 38d3 54bd 69c4 43be
00000080: e9b6 83bc 9aa9 ccbd b2d2 f4bb 0551 8fbd
00000090: 32b6 95bc a70c 343d c944 b0bd 4a37 3bbc
000000a0: 53a2 8fbe 0c5b ae3c d3c9 19be 470f abbc
000000b0: f3a6 373d 13c2 99bd 381a 17bc 0ab3 a5be
000000c0: cef9 cdbd dd42 b4bd b7c1 1cbe cf6a 10be
000000d0: 2584 a23a 7bc3 ffbd 5b71 963c 1ef1 f0bd
000000e0: f46a 99be 1c86 923d a97a 08bc 7096 d43d
000000f0: 1606 f63d 9f88 69bd 4d35 c7be 2a52 133c

fc.4.weight f4 [1, 64]
0.08183952 0.98757917 0.1173401 0.9155747 0.21786241 1.0672439 0.14353968 -0.4607964
0.011460885 0.35979328 -2.5091152 -0.6134104 -1.010124 -0.08866762 0.1279887 -0.6768085
0.18720858 -0.3323356 0.106361285 0.18028392 -0.057104576 0.1869614 -0.44755223 -5.0218782
-8.932592 -0.022665326 0.20084345 0.16391024 -0.0006255708 0.22600888 -0.010866391 0.24141236
-0.03047495 0.20746566 0.0309289 0.22424875 -0.048560154 3.5798788 -0.34104407 0.074015036
-1.6450936 0.086086616 -1.3551707 -0.05588999 1.270259 0.20613346 0.17401218 -0.76689196
0.30720353 0.25136593 0.030960286 0.10758261 -0.22557247 -0.20197676 0.10909277 0.04882048
0.5316801 0.07857972 0.23980772 -0.43147162 -1.3612795 -1.207015 -5.1406755 -0.0107859485
00000000: 7a9b a73d fdd1 7c3f 0250 f03d 1b63 6a3f
00000010: 5317 5f3e 739b 883f 11fc 123e 81ed ebbe
00000020: 70c6 3b3c d336 b83e 5895 20c0 7708 1dbf
00000030: be4b 81bf 5f97 b5bd 780f 033e 5243 2dbf
00000040: 9bb3 3f3e e427 aabe f2d3 d93d 599c 383e
00000050: 7de6 69bd cf72 3f3e 9125 e5be 3ab3 a0c0
00000060: e6eb 0ec1 a2ac b9bc e8a9 4d3e 16d8 273e
00000070: 59fd 23ba df6e 673e f208 32bc cd34 773e
00000080: 9aa6 f9bc e171 543e 9b5e fd3c 77a1 653e
00000090: 03e7 46bd bc1c 6540 549d aebe 3295 973d
000000a0: 6d92 d2bf 2e4e b03d 3c76 adbf e7ec 64bd
000000b0: d997 a23f a614 533e 4030 323e 0853 44bf
000000c0: c849 9d3e 09b3 803e 6da0 fd3c 4554 dc3d
000000d0: 78fc 66be ffd2 4ebe 086c df3d fcf7 473d
000000e0: 301c 083f 67ee a03d 2890 753e d9e9 dcbe
000000f0: 683e aebf 787f 9abf 6a80 a4c0 8cb7 30bc
