A2C/ckpt/CartPole-v1_offpolicy_episode_135_reward_478.pth (torch, 8572 bytes, 8 tensors)

fc.0.weight f4 [16, 4]
0.09339361 -0.292544 0.5663196 -0.071574174 0.4762081 0.21730295 0.60678166 0.5038839
0.1340526 0.5390262 0.4122932 0.3271388 0.3981744 0.1061216 -0.75456613 -0.14638397
0.5181196 0.14108606 -0.19764237 -0.28075457 -0.20215356 -0.7724289 -0.9221485 -0.19940962
-0.17071328 0.34217507 0.895669 0.24257301 -0.14645934 -0.28963247 -0.84483117 -0.28294274
-0.3215536 0.063440084 -0.35773495 -0.30837986 0.13357976 -0.5096919 -1.2037688 -0.420237
-0.07698119 -0.44013214 0.08054841 0.3712062 -0.101902865 0.3058118 -1.0515064 -0.54771125
-0.48212206 0.48903784 1.2134542 0.5147376 0.3732008 -0.25574866 -0.9813636 -0.36996683
-0.37369063 -0.5389189 -1.0490761 -0.1377009 0.12578665 0.6215174 0.478258 0.3849869
00000000: 2645 bf3d 54c8 95be 52fa 103f 7b95 92bd
00000010: 8cd1 f33e aa84 5e3e 0b56 1b3f 89fe 003f
00000020: 1645 093e 9ffd 093f 1818 d33e bd7e a73e
00000030: 84dd cb3e 4856 d93d 3f2b 41bf aee5 15be
00000040: 7ca3 043f dd78 103e c362 4abe 10bf 8fbe
00000050: 5801 4fbe e6bd 45bf ed11 6cbf 0932 4cbe
00000060: 76cf 2ebe 9231 af3e 904a 653f 0f65 783e
00000070: 70f9 15be b54a 94be db46 58bf dfdd 90be
00000080: aca2 a4be e0ec 813d 0929 b7be f7e3 9dbe
00000090: 22c9 083e 2b7b 02bf 1915 9abf 4e29 d7be
000000a0: 50a8 9dbd 0059 e1be 91f6 a43d bd0e be3e
000000b0: 73b2 d0bd 5d93 9c3e c397 86bf ce36 0cbf
000000c0: b4d8 f6be 2b63 fa3e 7852 9b3f d8c5 033f
000000d0: 2d14 bf3e 7df1 82be a53a 7bbf 4b6c bdbe
000000e0: 6154 bfbe 97f6 09bf 2048 86bf 7701 0dbe
000000f0: 37ce 003e c41b 1f3f 3cde f43e 011d c53e

fc.0.bias f4 [16]
-0.35185316 0.2396383 0.24566588 0.09246954 -0.12120093 -0.25527027 -0.39524975 0.36812386
0.19351538 -0.2621335 0.26351815 -0.39119327 -0.07666394 0.15499626 0.22797443 0.019511158
00000000: 1926 b4be be63 753e d68f 7b3e ac60 bd3d
00000010: 3138 f8bd c9b2 82be 2d5e cabe bb7a bc3e
00000020: e528 463e 5d36 86be daeb 863e 7c4a c8be
00000030: fc01 9dbd 57b7 1e3e 2172 693e ddd5 9f3c

fc.2.weight f4 [32, 16]
-0.06914558 0.1515208 0.086181104 -0.14132619 -0.014329304 -0.45015508 0.31185454 -0.006853379
-0.075783364 -0.22106674 -0.121110365 0.027496364 0.34161723 -0.3690303 -0.14484473 0.4653595
-0.064057246 0.3629386 -0.02843892 -0.1614822 -0.069893524 -0.19342445 0.27794093 -0.19380762
-0.06545068 -0.11166555 0.20159808 0.14477329 0.2544619 -0.37019166 0.007855919 0.44769287
0.03541745 0.23425022 0.23756601 -0.22854643 -0.052430656 -0.22639176 0.058212902 -0.12801382
0.033481646 -0.12665443 -0.05738322 -0.036839735 0.40646905 -0.33646002 -0.024433333 0.42000952
0.12951723 -0.30735892 -0.076438226 0.14383434 0.12136288 0.4180015 0.11210921 -0.06951603
0.19643272 0.29959872 0.19351067 0.11556814 -0.043762606 0.13079403 0.30896223 -0.39772078
0.08701937 0.039225694 -0.20061734 -0.140341 0.1428541 0.25715366 0.07512259 0.006393714
0.09796464 0.2734283 0.07732083 0.29856881 -0.42538875 0.3188812 0.0984159 -0.4260138
0.15001485 0.24560678 0.11236688 -0.18176812 0.18209185 -0.116933994 0.2101697 -0.19655766
-0.25661176 -0.17865378 0.06951581 -0.27156878 0.116207205 -0.164581 -0.000407668 0.44234046
0.21436298 0.09306334 0.27948916 -0.21972604 0.19686188 -0.021684496 -0.03201671 -0.35585842
-0.13651757 -0.063352734 -0.07584201 -0.18876979 0.3878986 -0.0011621692 -0.27434325 0.4946913
0.092677616 -0.21667741 -0.022006571 0.21287693 -0.062887505 0.39020374 -0.28711316 0.25447375
0.29551944 0.2748275 0.11531062 0.15787734 -0.3861171 0.38930672 0.4205788 -0.37052643
0.22372706 -0.37209743 -0.24086969 -0.22048797 0.21414417 0.06762052 -0.14994942 -0.053293496
0.2538667 0.42416817 -0.17976911 0.17587046 -0.17305417 0.19684649 0.29478902 -0.19371423
-0.20621474 0.047360603 0.25760627 0.10822543 -0.17511077 -0.33786872 0.2516894 -0.18382569
0.05207897 -0.36016113 -0.13166676 -0.015464485 0.09128242 -0.17707425 -0.07004652 0.101944976
-0.09556597 0.2942608 0.2849759 -0.24109365 0.08029444 -0.08500494 0.034295052 -0.20328625
-0.026742633 -0.37977037 0.08902366 -0.050627466 0.36892408 0.057927344 -0.43366376 0.45361757
-0.0065622674 0.12047548 0.010896387 0.18960063 0.048846647 -0.31055665 0.001502636 -0.3423431
-0.30501315 -0.4597216 -0.12679158 0.032356318 0.46472496 -0.25148562 -0.34477806 0.2240908
-0.045028586 0.084730044 -0.26779523 -0.2173241 -0.16575345 0.3185449 0.12178104 0.255406
0.17075017 0.4366207 0.17075413 0.04287923 -0.26432323 -0.024534944 0.26366413 -0.018927198
0.21193787 0.35652888 0.08129412 -0.20023187 0.21867171 -0.055388346 0.1634626 -0.23238797
0.046027225 -0.12813145 0.0875292 -0.12889019 0.032340977 -0.26370782 0.02891855 0.31109098
-0.1370465 -0.36370856 -0.455596 0.1117981 -0.18957421 0.10259332 -0.31471333 0.33023688
-0.17044576 0.22721638 0.13331327 0.16048011 -0.46149808 0.19828175 0.0706165 -0.33519873
0.050114352 -0.35003015 -0.002522234 0.17195785 0.0026341951 0.027549395 -0.31565776 -0.059370507
0.2891279 0.21267377 0.22845095 0.10192805 -0.026537377 0.068056256 -0.061071265 -0.43759242
00000000: 339c 8dbd 4528 1b3e b87f b03d d0b7 10be
00000010: 75c5 6abc ba7a e6be 66ab 9f3e 4f92 e0bb
00000020: 4f34 9bbd 525f 62be b608 f8bd 0e40 e13c
00000030: 74e8 ae3e 8af1 bcbe 2d52 14be 9a43 ee3e
00000040: 7230 83bd 17d3 b93e bdf8 e8bc 975b 25be
00000050: 5624 8fbd 0f11 46be 464e 8e3e 8175 46be
00000060: 020b 86bd e8b0 e4bd ba6f 4e3e 733f 143e
00000070: d548 823e c389 bdbe 1db6 003c 0038 e53e
00000080: e311 113d 4adf 6f3e 8144 733e 1308 6abe
00000090: 87c1 56bd 3ed3 67be a770 6e3d 0e16 03be
000000a0: 0d24 093d b3b1 01be ab0a 6bbd 43e5 16bd
000000b0: b61c d03e 7d44 acbe 6a28 c8bc 7d0b d73e
000000c0: 2aa0 043e 265e 9dbe a58b 9cbd 4f49 133e
000000d0: 1a8d f83d 4b04 d63e 8399 e53d 6c5e 8ebd
000000e0: a925 493e 0165 993e a927 463e fdae ec3d
000000f0: 6b40 33bd dfee 053e 4c30 9e3e 0fa2 cbbe
00000100: 3637 b23d 1fab 203d a26e 4dbe 8db5 0fbe
00000110: 5848 123e a5a9 833e dfd9 993d 5c82 d13b
00000120: afa1 c83d cbfe 8b3e 625a 9e3d 03de 983e
00000130: 8ecc d9be 6644 a33e 468e c93d 7b1e dabe
00000140: 7e9d 193e 5880 7b3e 9b20 e63d 6c21 3abe
00000150: 4976 3a3e 177b efbd ba36 573e 6946 49be
00000160: 9e62 83be 04f1 36be 4e5e 8e3d 100b 8bbe
00000170: 0bfe ed3d ec87 28be 46bc d5b9 737a e23e
00000180: f881 5b3e fe97 be3d 3419 8f3e ddff 60be
00000190: 2996 493e afa3 b1bc f423 03bd 1333 b6be
000001a0: 43cb 0bbe 14bf 81bd 0e53 9bbd de4c 41be
000001b0: a59a c63e ed53 98ba b876 8cbe 2e48 fd3e
000001c0: c3cd bd3d afe0 5dbe 2047 b4bc 69fc 593e
000001d0: 2acb 80bd c9c8 c73e 7f00 93be 624a 823e
000001e0: 534e 973e 31b6 8c3e f927 ec3d 99aa 213e
000001f0: 24b1 c5be 3653 c73e 1b56 d73e a4b5 bdbe
00000200: b518 653e 8e83 bebe 8ba6 76be 99c7 61be
00000210: 9c48 5b3e a17c 8a3d 578c 19be 484a 5abd
00000220: d1fa 813e 922c d93e 6515 38be 6317 343e
00000230: 1d35 31be 2092 493e 96ee 963e 065d 46be
00000240: f529 53be 31fd 413d f8e4 833e 4ba5 dd3d
00000250: 3d50 33be 21fd acbe 6fdd 803e cd3c 3cbe
00000260: c250 553d 0a67 b8be a7d3 06be c05e 7dbc
00000270: 47f2 ba3d f452 35be 8d74 8fbd 87c8 d03d
00000280: 17b8 c3bd 5aa9 963e 5ce8 913e 41e1 76be
00000290: 6971 a43d 1217 aebd f878 0c3d 452a 50be
000002a0: 5e13 dbbc 4371 c2be 0952 b63d bf5e 4fbd
000002b0: 9ee3 bc3e 3945 6d3d 2d09 debe 9040 e83e
000002c0: 4a08 d7bb d9bb f63d c286 323c ab26 423e
000002d0: 6c13 483d 4801 9fbe 19f4 c43a 9847 afbe
000002e0: af2a 9cbe a160 ebbe a7d5 01be 0f88 043d
000002f0: 6ef0 ed3e b9c2 80be c086 b0be 0f78 653e
00000300: e56f 38bd f286 ad3d 751c 89be 358a 5ebe
00000310: 46bb 29be 5118 a33e 5768 f93d 93c4 823e
00000320: 22d9 2e3e c08c df3e 2cda 2e3e 22a2 2f3d
00000330: 6055 87be 82fd c8bc fcfe 863e 360d 9bbc
00000340: 3e06 593e f48a b63e 887d a63d 9509 4dbe
00000350: 7aeb 5f3e e4de 62bd bd62 273e 1df7 6dbe
00000360: 0b87 3c3d e434 03be 8242 b33d cafb 03be
00000370: f977 043d b604 87be 98e6 ec3c 5147 9f3e
00000380: eb55 0cbe 0238 babe e143 e9be 67f6 e43d
00000390: be1f 42be 721c d23d 1b22 a1be cf14 a93e
000003a0: 5589 2ebe 69ab 683e 4683 083e e654 243e
000003b0: 7a49 ecbe 5f0a 4b3e 629f 903d 2b9f abbe
000003c0: b544 4d3d 2737 b3be 114c 25bb b815 303e
000003d0: 76a2 2c3b 45af e13c e59d a1be 7d2e 73bd
000003e0: 9208 943e 27c7 593e 0cef 693e a7bf d03d
000003f0: ea64 d9bc 1461 8b3d dd25 7abd 1d0c e0be

fc.2.bias f4 [32]
-0.022323597 0.022894002 -0.03292864 0.24473928 0.2543546 0.15080993 0.07836644 -0.1493496
0.2600078 0.013132705 0.06620639 0.1779895 0.10869087 0.016916249 -0.107706726 0.23787005
0.02905051 0.009231313 -0.06474346 -0.105557814 0.013960588 0.018831892 -0.043914877 0.2503223
-0.11808238 0.008546368 0.26964256 0.15629348 -0.15454961 0.15698086 0.2140314 -0.043467216
00000000: fadf b6bc 348c bb3c 2ee0 06bd ef9c 7a3e
00000010: c43a 823e eb6d 1a3e 967e a03d 1aef 18be
00000020: be1f 853e 8f2a 573c 3797 873d e142 363e
00000030: 5299 de3d f293 8a3c 5895 dcbd 3594 733e
00000040: 56fb ed3c ef3e 173c 3898 84bd b22e d8bd
00000050: f3ba 643c 5745 9a3c 16e0 33bd 3f2a 803e
00000060: 2dd5 f1bd 1106 0c3c 970e 8a3e 660b 203e
00000070: 4142 1ebe 97bf 203e 0c2b 5b3e ae0a 32bd

fc.4.weight f4 [16, 32]
-0.31992024 -0.16185269 -0.2643758 0.42793497 0.28850657 -0.044807766 -0.23249196 0.33694544
0.2704878 -0.31523842 -0.10037255 -0.4540292 0.24978773 -0.23774406 0.17336981 0.24556357
-0.064273775 0.26840723 -0.21330175 -0.09708547 0.3240412 -0.05624343 0.2307002 0.11565743
0.061258107 0.26741615 0.09981452 -0.19465306 0.17765565 0.16804661 0.12784326 -0.13389632
-0.35779485 -0.27227232 -0.18010464 0.16742001 0.37426195 -0.24685763 -0.39345884 0.34383485
0.1373928 -0.22674078 -0.2846436 -0.40790758 0.22310124 -0.09129182 0.3443664 0.08485803
-0.008626825 0.122965604 -0.28541324 -0.1183819 0.24434449 -0.37962034 0.28212947 0.16736539
0.26206896 0.2541208 0.20781215 -0.1635039 0.059254717 0.4711127 0.25557327 -0.3048812
0.29451653 0.23402233 0.13845076 -0.37202615 -0.1229567 0.16944747 0.21963274 -0.37276354
-0.13549323 0.017012922 0.26882666 0.21186411 -0.07023791 0.23316556 -0.0892844 -0.100574926
-0.22598056 -0.19402531 0.30183965 0.048338026 -0.14171967 0.16845067 -0.49725413 -0.23177372
-0.31156445 -0.08133962 -0.15690425 0.065736525 0.007884187 -0.12724413 -0.20039223 0.3284415
0.37330112 0.31831762 0.19874008 -0.26636255 -0.33831537 0.0062463675 0.14371525 -0.19820175
-0.2182 0.27113327 0.24863768 0.49222913 -0.34411597 0.17635332 -0.26195034 -0.25798503
0.046905812 -0.272523 0.32894832 0.020696487 -0.1156313 0.28243253 -0.5259421 -0.19527356
-0.33500808 -0.14602792 0.00064759736 0.06993919 -0.090617955 -0.41102958 -0.101890534 0.34838593
0.31934726 0.105966546 0.119187444 -0.2675095 -0.46627852 0.2550152 0.47202337 -0.45713586
-0.17949396 0.27480233 0.38297445 0.41255474 -0.08161414 0.21740337 -0.31358966 -0.2815458
-0.22574008 -0.26661348 0.5907845 0.25247097 -0.15845844 0.27929848 -0.63538855 -0.3094875
-0.3090775 -0.36383688 -0.14981869 0.20454217 -0.45613572 -0.25419277 -0.22828498 0.25898457
0.22176456 0.0898597 0.36828986 -0.4600983 -0.30982712 0.13725902 0.14494203 -0.45583916
-0.09108636 0.25614917 0.37521303 0.37476563 -0.179561 0.31723085 -0.39723945 -0.03209258
-0.19624849 -0.16747849 0.32911414 0.035396177 -0.25394303 0.14468855 -0.2800684 -0.12099304
-0.18608122 -0.11890174 -0.10304233 0.23492552 -0.15004236 -0.42784515 -0.28091043 0.2456486
0.39896125 0.23985358 0.016270021 -0.2022317 -0.33819154 0.246438 0.32127202 -0.3028581
-0.24591814 0.2267428 0.31763044 0.52791876 -0.29265505 0.20143005 -0.36913773 -0.26193416
-0.12013775 -0.07257805 0.42132163 -0.049808074 -0.31424126 0.3493975 -0.48728687 -0.33891708
-0.16612083 -0.019288082 -0.1765535 0.13306278 -0.26816586 -0.24745971 -0.019219548 0.26215026
-0.30130512 -0.25512782 -0.19263561 0.2860864 0.18385015 -0.13056299 -0.31691822 0.084460095
0.34357092 -0.1917928 -0.163911 -0.53650683 0.30470234 -0.062436398 0.32400516 -0.010485402
0.21012819 0.3296916 -0.4366726 -0.0506549 0.2363353 -0.06631777 0.51651365 0.33623418
0.024892073 0.024308916 0.16670117 -0.20200154 0.33228984 0.35098255 0.14673479 -0.2599081
00000000: 96cc a3be b6bc 25be 445c 87be 4b1a db3e
00000010: 22b7 933e 5988 37bd 5f12 6ebe 1d84 ac3e
00000020: 607d 8a3e ee66 a1be 2090 cdbd 8476 e8be
00000030: 5bc8 7f3e 2e73 73be db87 313e 0475 7b3e
00000040: f8a1 83bd ac6c 893e c66b 5abe bfd4 c6bd
00000050: bae8 a53e 835f 66bd ac3c 6c3e cddd ec3d
00000060: c8e9 7a3d c5ea 883e 8e6b cc3d 2253 47be
00000070: 5deb 353e 6914 2c3e 58e9 023e 1e1c 09be
00000080: e330 b7be 4767 8bbe 5a6d 38be 2770 2b3e
00000090: 439f bf3e 3fc8 7cbe 7073 c9be 1f0b b03e
000000a0: b3b0 0c3e bc2e 68be cebc 91be 43d9 d0be
000000b0: a774 643e 35f7 babd cb50 b03e 0cca ad3d
000000c0: 8757 0dbc 64d5 fb3d af21 92be 3672 f2bd
000000d0: 7135 7a3e 995d c2be 4673 903e d561 2b3e
000000e0: e72d 863e 1f1c 823e b5cc 543e 916d 27be
000000f0: 13b5 723d af35 f13e 80da 823e 6319 9cbe
00000100: dfca 963e 8da3 6f3e 09c6 0d3e 367a bebe
00000110: b9d0 fbbd a383 2d3e 68e7 603e ddda bebe
00000120: bdbe 0abe af5e 8b3c a6a3 893e e8f2 583e
00000130: e5d8 8fbd f4c2 6e3e bdda b6bd 3afa cdbd
00000140: 7367 67be 92ae 46be ba8a 9a3e 18fe 453d
00000150: f61e 11be 557e 2c3e 1898 febe 1756 6dbe
00000160: 6085 9fbe 6395 a6bd 82ab 20be dfa0 863d
00000170: ad2c 013c 494c 02be 9f33 4dbe 7c29 a83e
00000180: 5321 bf3e 87fa a23e 8582 4b3e ac60 88be
00000190: ac37 adbe 54ae cc3b 172a 133e 66f5 4abe
000001a0: d26f 5fbe fbd1 8a3e e09a 7e3e 7505 fc3e
000001b0: f82f b0be f795 343e 5b1e 86be 9d16 84be
000001c0: 4f20 403d 2288 8bbe ea6b a83e ae8b a93c
000001d0: 1ad0 ecbd ff9a 903e 24a4 06bf cbf5 47be
000001e0: 2e86 abbe 5888 15be 86c3 293a 473c 8f3d
000001f0: e895 b9bd 7872 d2be fcab d0bd a45f b23e
00000200: 7c81 a33e fd04 d93d 8c18 f43d 01f7 88be
00000210: 0fbc eebe 5a91 823e 0cad f13e b60d eabe
00000220: 44cd 37be e4b2 8c3e 3a15 c43e 603a d33e
00000230: 5025 a7bd fd9e 5e3e d38e a0be c526 90be
00000240: 6828 67be 9081 88be a73d 173f e043 813e
00000250: ee42 22be 3600 8f3e d3a8 22bf 2575 9ebe
00000260: 683f 9ebe d448 babe 126a 19be 8173 513e
00000270: 9f8a e9be 8e25 82be 8ac3 69be a099 843e
00000280: 4016 633e 5d08 b83d 7d90 bc3e 0192 ebbe
00000290: a9a1 9ebe a18d 0c3e af6b 143e c063 e9be
000002a0: 7c8b babd fc25 833e ec1b c03e 48e1 bf3e
000002b0: d7de 37be 156c a23e f862 cbbe 8273 03bd
000002c0: 5df5 48be 7b7f 2bbe a681 a83e 95fb 103d
000002d0: d204 82be 3c29 143e 2065 8fbe 33cb f7bd
000002e0: 138c 3ebe c182 f3bd db07 d3bd 5190 703e
000002f0: b4a4 19be 850e dbbe 7ed3 8fbe 4e8b 7b3e
00000300: a644 cc3e 2d9c 753e b548 853c d415 4fbe
00000310: 7127 adbe 3e5a 7c3e c47d a43e 3810 9bbe
00000320: f7d1 7bbe 442f 683e 75a0 a23e af25 073f
00000330: e2d6 95be ae43 4e3e 9fff bcbe 3c1c 86be
00000340: c80a f6bd cda3 94bd 78b7 d73e 8d03 4cbd
00000350: 3be4 a0be 3be4 b23e aa7d f9be 8a86 adbe
00000360: 941b 2abe 0a02 9ebc 71ca 34be 9c41 083e
00000370: 094d 89be 1466 7dbe 5072 9dbc 8f38 863e
00000380: aa44 9abe 1da0 82be 4542 45be eb79 923e
00000390: 3743 3c3e 4eb2 05be 1b43 a2be 6af9 ac3d
000003a0: 87e8 af3e 5565 44be 49d8 27be 8358 09bf
000003b0: f201 9c3e 4fbd 7fbd 01e4 a53e f7ca 2bbc
000003c0: d82b 573e 56cd a83e 8d93 dfbe 837b 4fbd
000003d0: e201 723e 9cd1 87bd 3d3a 043f e326 ac3e
000003e0: 76ea cb3c 7e23 c73c b6b3 2a3e 7ed9 4ebe
000003f0: e521 aa3e fcb3 b33e a541 163e ad12 85be

fc.4.bias f4 [16]
0.118242696 -0.020702852 0.03376151 0.025258422 0.0122475475 -0.15985508 0.041193515 0.070996165
-0.039084736 -0.08129555 -0.11057143 -0.021706313 0.065894336 -0.05218956 0.12045616 -0.097156405
00000000: 3a29 f23d 0799 a9bc 8249 0a3d c0ea ce3c
00000010: f0a9 483c 0db1 23be 88ba 283d 7066 913d
00000020: 5117 20bd 487e a6bd 4673 e2bd 70d1 b1bc
00000030: 9cf3 863d b8c4 55bd b8b1 f63d f0f9 c6bd

fc.6.weight f4 [2, 16]
0.44539434 0.48291236 -0.5345377 -0.3713903 -0.367203 -0.6795251 -0.5440745 0.60451907
-0.5674078 -0.61130166 -0.44519135 0.722282 -0.40474722 0.39400616 0.63201827 0.5855149
-0.58737016 -0.45488665 0.5096741 0.5742917 0.5380342 0.42899787 0.5523627 -0.57794666
0.1946348 0.3965515 0.33753893 -0.29940987 0.53844035 -0.51928955 -0.34366843 -0.3274524
00000000: ba0a e43e 4a40 f73e 76d7 08bf df26 bebe
00000010: 0802 bcbe 5bf5 2dbf 7748 0bbf c3c1 1a3f
00000020: a341 11bf 447e 1cbf 1ff0 e3be 79e7 383f
00000030: 073b cfbe 2dbb c93e f3cb 213f 4ee4 153f
00000040: e45d 16bf e7e6 e8be 007a 023f c804 133f
00000050: 9cbc 093f 9ca5 db3e a467 0d3f 50f4 13bf
00000060: 584e 473e cc08 cb3e e7d1 ac3e 404c 99be
00000070: 3ad7 093f 29f0 04bf 4ff5 afbe d7a7 a7be

fc.6.bias f4 [2]
-0.18836324 -0.07975282
00000000: 4be2 40be 7255 a3bd
