A2C/ckpt/CartPole-v1_episode_218_reward_479.pth (torch, 8452 bytes, 8 tensors)

fc.0.weight f4 [16, 4]
-0.079879336 -0.31038836 0.43212283 -0.07963133 0.53989595 0.20383476 0.3811245 0.56232363
0.06219092 0.42446575 0.20071667 0.46036038 0.30797312 0.11082106 -0.37385383 -0.20903744
0.269467 0.18841018 0.5985708 -0.28035137 -0.16910018 -0.6208536 -0.59350574 -0.31830978
-0.10641429 0.39310554 0.67529273 0.3943393 -0.13628943 -0.26208743 -0.60466677 -0.4204669
-0.25851378 0.1030541 -0.28048235 -0.3927454 0.14315234 -0.4976409 -1.0750551 -0.5781989
0.089836255 -0.45533386 -0.42935145 0.34106496 -0.1464696 0.30108863 -0.7549707 -0.5835442
-0.39700788 0.4878081 0.9568758 0.6845391 0.3021713 -0.21508151 -0.6837014 -0.53866297
-0.36554188 -0.41333777 -0.6798193 -0.14330849 0.16382907 0.6216394 0.23864426 0.47091374
00000000: c797 a3bd 39eb 9ebe 343f dd3e c015 a3bd
00000010: 9f36 0a3f 0fba 503e c022 c33e 71f4 0f3f
00000020: e8bb 7e3d 9353 d93e ac88 4d3e 5bb4 eb3e
00000030: a7ae 9d3e 27f6 e23d c569 bfbe e90d 56be
00000040: 94f7 893e 99ee 403e f03b 193f 378a 8fbe
00000050: 9928 2dbe 43f0 1ebf feef 17bf 80f9 a2be
00000060: bcef d9bd 2145 c93e fcdf 2c3f d7e6 c93e
00000070: 758f 0bbe 5330 86be 71cb 1abf 7047 d7be
00000080: eb5b 84be 070e d33d 629b 8fbe ed15 c9be
00000090: 8796 123e caca febe 689b 89bf d804 14bf
000000a0: 12fc b73d 8521 e9be f4d3 dbbe 11a0 ae3e
000000b0: 20fc 15be 4a28 9a3e c345 41bf 2763 15bf
000000c0: 9e44 cbbe fcc1 f93e d0f5 743f f43d 2f3f
000000d0: 32b6 9a3e 543e 5cbe 0e07 2fbf d1e5 09bf
000000e0: 4e28 bbbe 02a1 d3be a308 2ebf 76bf 12be
000000f0: cfc2 273e c223 1f3f 295f 743e 9b1b f13e

fc.0.bias f4 [16]
-0.32933348 0.20948151 0.20529123 0.10083562 -0.1738497 -0.192664 -0.45520598 0.44826016
0.26613778 -0.20074348 0.21743524 -0.35920867 -0.11185728 0.21131746 0.31257054 -0.04338251
00000000: 669e a8be 5282 563e dd37 523e e882 ce3d
00000010: a805 32be b649 45be c210 e9be 5b82 e53e
00000020: 3643 883e b38f 4dbe 58a7 5e3e 33ea b7be
00000030: 6e15 e5bd 9b63 583e 3f09 a03e dcb1 31bd

fc.2.weight f4 [32, 16]
-0.05740493 0.11610089 -0.0009250642 -0.0920737 0.0635756 -0.3175865 0.29296497 -0.0037357793
-0.08842401 -0.09626963 -0.17082022 0.070819415 0.30223587 -0.30763477 -0.15492289 0.3956541
-0.065642945 0.3347992 -0.09114455 -0.14823322 -0.023481615 -0.08030379 0.24279788 -0.17312223
-0.06070709 -0.042710938 0.1741172 0.16263047 0.24483728 -0.34759003 0.026800625 0.35903177
0.03983364 0.16979 0.115653716 -0.19514929 -0.0013948526 -0.07686249 -0.006841581 -0.08476758
0.026740551 0.037975963 -0.07630411 -0.006099605 0.32352144 -0.24361771 -0.0036676633 0.29810447
0.11745254 -0.2332086 0.04488331 0.10885843 0.05708597 0.2612637 0.12679136 -0.068154745
0.20390537 0.15156892 0.2523517 0.037244886 -0.00026442713 0.0653956 0.3063871 -0.30347425
0.077395186 0.06472746 -0.12251539 -0.1498047 0.094864614 0.11711757 0.124986835 -0.024962561
0.11302068 0.16414122 0.09729342 0.284057 -0.38999674 0.26705268 0.08166067 -0.33186424
0.15458626 0.19961715 0.030088117 -0.18356939 0.21939288 0.012638189 0.16278566 -0.16640149
-0.2594124 -0.07368293 0.04314412 -0.23435459 0.07638118 -0.12739424 0.043991257 0.32860085
0.23604152 0.05053459 0.19636874 -0.2247265 0.2246701 0.12114288 -0.05455919 -0.33987898
-0.12833093 0.01980356 -0.09710775 -0.16948119 0.3921677 0.012525747 -0.25029212 0.3921191
0.070949346 -0.17272705 0.071470715 0.20595182 -0.11712832 0.24231091 -0.26879784 0.24715918
0.3099283 0.16130283 0.15852544 0.11859474 -0.37771904 0.36005425 0.4158648 -0.2817939
0.20278549 -0.3281396 -0.15882584 -0.21254775 0.1721757 -0.07016551 -0.13369638 -0.059525035
0.26150587 0.3355373 -0.14171092 0.13973318 -0.18020089 0.18803996 0.2774116 -0.09445676
-0.20038626 0.015822612 0.18575464 0.112960376 -0.14000535 -0.22742784 0.23626596 -0.18592536
0.037697043 -0.2552662 -0.15296696 0.0127723 0.060562782 -0.1601561 -0.0644587 0.020847188
-0.09281107 0.24890976 0.2062701 -0.24465874 0.11357385 0.035421517 -0.00417741 -0.18541531
-0.03946916 -0.25473082 0.056210984 0.0034733904 0.32559067 0.09196091 -0.39517617 0.35335597
0.01569712 0.05895954 -0.103525534 0.23029365 0.12323685 -0.15525602 -0.01581714 -0.34418267
-0.32489416 -0.30431432 -0.18742101 0.10397827 0.40606785 -0.17427936 -0.34867334 0.1340851
-0.062112547 0.20416583 -0.11333862 -0.22980444 -0.14137702 0.10116338 0.2108771 0.16716006
0.095924966 0.24832769 0.14475861 0.00096549315 -0.07229199 -0.1606543 0.13178344 0.20539407
0.2273479 0.30558744 -0.011946402 -0.21262768 0.24112265 0.104376905 0.1110224 -0.19218704
0.05087586 -0.025539853 0.080061786 -0.10349383 -0.013817894 -0.2246401 0.0807759 0.17180423
-0.1472468 -0.2880558 -0.3416912 0.05669895 -0.2809837 -0.011769587 -0.32745188 0.35400027
-0.14686994 0.07572006 0.21640104 0.084049255 -0.47038782 0.15140855 0.12442347 -0.29960182
0.030919598 -0.31041902 0.07460091 0.18572658 -0.007946414 -0.116977595 -0.2868408 -0.08557671
0.26701874 0.14641096 0.23426531 0.0983685 -0.039411344 0.06123512 -0.09557992 -0.32554474
00000000: 6f21 6bbd 4ec6 ed3d 0280 72ba 2391 bcbd
00000010: ed33 823d b39a a2be 81ff 953e fad3 74bb
00000020: a617 b5bd 0329 c5bd 7feb 2ebe c509 913d
00000030: a9be 9a3e 4e82 9dbe 1ba4 1ebe 2d93 ca3e
00000040: cf6f 86bd cd6a ab3e fea9 babd 73ca 17be
00000050: 845c c0bc 5076 a4bd 02a0 783e f446 31be
00000060: ffa7 78bd aaf1 2ebd c74b 323e 9a88 263e
00000070: a0b6 7a3e 52f7 b1be fc8c db3c 03d3 b73e
00000080: 9928 233d 6edd 2d3e dbdb ec3d 37d5 47be
00000090: 7dd3 b6ba 156a 9dbd 572f e0bb a09a adbd
000000a0: 000f db3c af8c 1b3d 5445 9cbd 32df c7bb
000000b0: 9aa4 a53e ec76 79be 2e5d 70bb 26a1 983e
000000c0: f58a f03d 3cce 6ebe 90d7 373d 2bf1 de3d
000000d0: fad2 693d 5bc4 853e 98d5 013e b794 8bbd
000000e0: 92cc 503e e234 1b3e 3e34 813e 188e 183d
000000f0: cfa2 8ab9 21ee 853d c5de 9c3e fa60 9bbe
00000100: 5e81 9e3d d58f 843d 59e9 fabd 6766 19be
00000110: 6148 c23d 56db ef3d 19f9 ff3d 497e ccbc
00000120: 6377 e73d a314 283e c641 c73d eb6f 913e
00000130: a7ad c7be 21bb 883e b63d a73d 1cea a9be
00000140: dc4b 1e3e 7068 4c3e 5b7b f63c 9df9 3bbe
00000150: 87a8 603e 6810 4f3c 49b1 263e 2765 2abe
00000160: b4d1 84be 13e7 96bd e4b7 303d a6fa 6fbe
00000170: bc6d 9c3d a373 02be 2d30 343d 5f3e a83e
00000180: deb4 713e 5cfd 4e3d e314 493e b41e 66be
00000190: eb0f 663e c219 f83d 7579 5fbd 9e04 aebe
000001a0: 2f69 03be 133b a23c 6ee0 c6bd 7a8c 2dbe
000001b0: 34ca c83e ca38 4d3c 4a26 80be d6c3 c83e
000001c0: e44d 913d 5cdf 30be 3d5f 923d 09e5 523e
000001d0: f9e0 efbd 5a20 783e df9f 89be 4c17 7d3e
000001e0: ecae 9e3e 922c 253e 7e54 223e cde1 f23d
000001f0: 6464 c1be 0859 b83e 3bec d43e 4a47 90be
00000200: 00a7 4f3e ea01 a8be 3ea3 22be 1ea6 59be
00000210: d44e 303e efb2 8fbd b4e7 08be 86d0 73bd
00000220: 19e4 853e 8ccb ab3e ab1c 11be 3716 0f3e
00000230: 9586 38be 8c8d 403e e508 8e3e 8c72 c1bd
00000240: 0e32 4dbe 6c9e 813c 7736 3e3e c557 e73d
00000250: 905d 0fbe d8e2 68be b4ef 713e 3863 3ebe
00000260: 3768 1a3d 40b2 82be 5fa3 1cbe e942 513c
00000270: ae10 783d f6ff 23be ec02 84bd b9c7 aa3c
00000280: bb13 bebd 33e2 7e3e 7838 533e d287 7abe
00000290: 6899 e83d 2716 113d a8e2 88bb 83dd 3dbe
000002a0: 6aaa 21bd 146c 82be 7d3d 663d d2a1 633b
000002b0: d2b3 a63e 0056 bc3d 8854 cabe 13eb b43e
000002c0: 3f97 803c 8f7f 713d 3205 d4bd 19d2 6b3e
000002d0: 9a63 fc3d 6ffb 1ebe f292 81bc b638 b0be
000002e0: 8758 a6be 16cf 9bbe 4beb 3fbe 8ff2 d43d
000002f0: 20e8 cf3e 4a76 32be 5085 b2be 9b4d 093e
00000300: ba69 7ebd d910 513e 141e e8bd db51 6bbe
00000310: 23c5 10be bf2e cf3d 2bf0 573e 022c 2b3e
00000320: 4f74 c43d 9d49 7e3e 9a3b 143e 2619 7d3a
00000330: d30d 94bd 9082 24be 3df2 063e d352 523e
00000340: e3cd 683e f575 9c3e d7ba 43bc 12bb 59be
00000350: dbe8 763e 8fc3 d53d b65f e33d aecc 44be
00000360: 3563 503d f438 d1bc 6ff7 a33d 93f4 d3bd
00000370: 7364 62bc 0e08 66be d66d a53d 73ed 2f3e
00000380: ddc7 16be 0d7c 93be 26f2 aebe 283d 683d
00000390: 18dd 8fbe 3ad5 40bc c6a7 a7be 863f b53e
000003a0: 1365 16be 1e13 9b3d 3c98 5d3e 0422 ac3d
000003b0: acd6 f0be d80a 1b3e bbd1 fe3d 6965 99be
000003c0: 194b fd3c 3eef 9ebe 5dc8 983d 1c2f 3e3e
000003d0: ad31 02bc f391 efbd ccdc 92be d842 afbd
000003e0: aeb6 883e c1ec 153e 3fe3 6f3e 6d75 c93d
000003f0: ca6d 21bd add1 7a3d 68bf c3bd cdad a6be

fc.2.bias f4 [32]
-0.066090114 0.019621871 -0.054753266 0.276476 0.2769022 0.14459431 0.049759187 -0.100830175
0.29231602 0.001334107 0.062369954 0.13080712 0.107109904 -0.0043769917 -0.06119653 0.25658575
0.03538442 0.023358 -0.10254728 -0.096373394 0.032854028 -0.014033447 -0.029571028 0.27123484
-0.11268182 0.005436904 0.2760861 0.15359256 -0.15060516 0.09048823 0.25285083 -0.03858475
00000000: 415a 87bd 0cbe a03c f644 60bd 438e 8d3e
00000010: 20c6 8d3e 8810 143e 4ad0 4b3d 0d80 cebd
00000020: 72aa 953e 34dd ae3a a377 7f3d 4df2 053e
00000030: 705c db3d de6c 8fbb 36a9 7abd 355f 833e
00000040: 41ef 103d 4759 bf3c 4f04 d2bd 6a5f c5bd
00000050: f291 063d 8bec 65bc f13e f2bc 4bdf 8a3e
00000060: bac5 e6bd 0e28 b23b 285b 8d3e 5e47 1d3e
00000070: 3d38 1abe e551 b93d aa75 813e 0b0b 1ebd

fc.4.weight f4 [16, 32]
-0.25641572 -0.27233008 -0.23646234 0.32530817 0.29698262 -0.021548906 -0.15821734 0.3239736
0.2648463 -0.2362631 -0.022763988 -0.33355916 0.077597834 -0.16544083 0.21189691 0.2160926
-0.117216274 0.23755066 -0.089381136 -0.075885504 0.3078228 0.0638854 -0.07249903 0.08690705
-0.006730142 0.26436472 0.037906196 -0.2267759 0.11503818 -0.26366928 0.012375593 -0.1352809
-0.27205202 -0.37989712 -0.14356358 0.0404327 0.36425602 -0.2181981 -0.29429436 0.30091426
0.11422916 -0.13212222 -0.1855138 -0.2685455 0.01316289 -0.014320889 0.3616494 0.034848653
-0.059031162 0.081657164 -0.13518623 -0.068561986 0.2193658 -0.22618695 -0.05568758 0.11797175
0.17623901 0.24425773 0.12559627 -0.18738283 -0.018271983 -0.026053065 0.12505254 -0.29876727
0.21899347 0.32908532 0.11816837 -0.23951216 -0.11847368 0.14555229 0.14472401 -0.344666
-0.120173015 -0.037864998 0.19586033 0.075029075 0.13073851 0.1692999 -0.12285651 -0.052178565
-0.18818648 -0.15838826 0.16377132 -0.008629447 -0.11912863 0.029321376 -0.17255446 -0.19387233
-0.23959243 -0.07165156 -0.06287999 0.09064086 0.06417495 0.30649483 -0.10431949 0.33420843
0.26890606 0.4033903 0.12997037 -0.13664778 -0.29509914 -0.03777375 0.028705355 -0.13220729
-0.1697059 0.19588399 0.15197563 0.33516327 -0.13033468 0.08714423 -0.26105154 -0.19606662
0.09952291 -0.20421293 0.16534095 -0.028095782 -0.07052216 0.118834704 -0.16557214 -0.13335095
-0.22345947 -0.110420264 0.09884769 0.067948654 -2.196521e-05 0.10762112 0.029349215 0.31952164
0.20998678 0.19389915 0.049450338 -0.11376545 -0.40724617 0.1868312 0.3179308 -0.36138028
-0.120264955 0.059983127 0.1941113 0.24405685 0.15147656 0.10395841 -0.2648308 -0.21908246
-0.15550557 -0.20207562 0.4246934 0.20778312 -0.112701446 0.08953458 -0.2235496 -0.22982699
-0.16199681 -0.3241389 -0.112934195 0.17336638 -0.30244523 0.3883184 -0.015226231 0.19965255
0.12194846 0.18137303 0.29906008 -0.3318823 -0.27696246 0.09459183 0.021322556 -0.39500204
-0.045716323 0.13636224 0.25539598 0.2342972 0.041144826 0.2210016 -0.38425022 0.03235058
-0.1282702 -0.10472119 0.16694567 -0.009387768 -0.21630576 -0.030454293 0.07984699 -0.052957118
-0.073467396 -0.08977748 -0.024802016 0.23218699 -0.04666016 0.12364742 -0.1170113 0.21285698
0.34990588 0.35280567 0.0003265452 -0.11216886 -0.3474147 0.2242047 0.25761637 -0.30115885
-0.24679504 0.17140867 0.25566494 0.42311212 -0.12626278 0.13911399 -0.4373946 -0.23509237
-0.075740546 -0.04243794 0.3077909 -0.07933981 -0.29563072 0.23799941 -0.2062337 -0.31612775
-0.10657999 -0.015386551 -0.1061345 0.17073183 -0.2182694 0.15940268 0.07212308 0.28222275
-0.2492447 -0.36691102 -0.17546879 0.19584975 0.19684196 -0.11258895 -0.25327134 0.08044039
0.34661233 -0.13371527 -0.10239387 -0.42608303 0.13935575 0.0036220592 0.37679213 -0.04031283
0.16273728 0.304916 -0.3241235 -0.022247422 0.2238654 0.0477095 0.22991063 0.3128555
-0.03174953 0.024934135 0.096131675 -0.24073786 0.2832425 -0.055552877 0.048612457 -0.27492994
00000000: ec48 83be d96e 8bbe 2f23 72be cb8e a63e
00000010: 1b0e 983e 5587 b0bc ba03 22be dedf a53e
00000020: ef99 873e f4ee 71be 8b7b babc 44c8 aabe
00000030: 9deb 9e3d 5269 29be 81fb 583e 6147 5d3e
00000040: 160f f0bd 7b40 733e 750d b7bd dc69 9bbd
00000050: f39a 9d3e 59d6 823d 5f7a 94bd 53fc b13d
00000060: 8688 dcbb d05a 873e 8743 1b3d f137 68be
00000070: 2399 eb3d a9ff 86be 00c3 4a3c 1487 0abe
00000080: 674a 8bbe e081 c2be 5502 13be c29c 253d
00000090: c47f ba3e 536f 5fbe c0ad 96be 6f11 9a3e
000000a0: faf0 e93d 0c4b 07be 54f7 3dbe cc7e 89be
000000b0: 2aa9 573c 29a2 6abc 1c2a b93e 76bd 0e3d
000000c0: a9ca 71bd df3b a73d 426e 0abe 3a6a 8cbd
000000d0: 6ea1 603e 8d9d 67be a918 64bd 2c9b f13d
000000e0: 0078 343e b31e 7a3e 4f9c 003e 49e1 3fbe
000000f0: 20af 95bc 3d6d d5bc c60d 003e 06f8 98be
00000100: d33f 603e df7d a83e 4202 f23d ad42 75be
00000110: 54a2 f2bd a90b 153e 8832 143e 1078 b0be
00000120: 451d f6bd 5418 1bbd 9c8f 483e d8a8 993d
00000130: 51e0 053e f45c 2d3e 329c fbbd 31b9 55bd
00000140: f5b3 40be 8830 22be abb3 273e 8662 0dbc
00000150: b6f9 f3bd 6233 f03c 1eb2 30be 7886 46be
00000160: b857 75be 0ebe 92bd 39c7 80bd eaa1 b93d
00000170: 286e 833d e4ec 9c3e 75a5 d5bd 5e1d ab3e
00000180: 0eae 893e 2c89 ce3e f416 053e 65ed 0bbe
00000190: 3c17 97be a6b8 1abd 7e27 eb3c 5961 07be
000001a0: 62c7 2dbe d095 483e 809f 1b3e 859a ab3e
000001b0: 7476 05be ad78 b23d 8ca8 85be b0c5 48be
000001c0: abd2 cb3d 321d 51be 234f 293e 2029 e6bc
000001d0: ec6d 90bd 9c5f f33d be8b 29be 278d 08be
000001e0: 8fd2 64be 0524 e2bd a870 ca3d aa28 8b3d
000001f0: ee41 b8b7 7668 dc3d c46d f03c 5798 a33e
00000200: c606 573e 808d 463e 708c 4a3d dcfd e8bd
00000210: 9282 d0be ae50 3f3e d3c7 a23e d606 b9be
00000220: 794d f6bd deb0 753d 1dc5 463e 0aea 793e
00000230: ac1c 1b3e 26e8 d43d e797 87be 2757 60be
00000240: da3c 1fbe e9ec 4ebe 6a71 d93e 19c5 543e
00000250: 04d0 e6bd e85d b73d 30ea 64be c457 6bbe
00000260: 7ee2 25be 89f5 a5be 0b4a e7bd f586 313e
00000270: 1ada 9abe abd1 c63e 7177 79bc b871 4c3e
00000280: 1dc0 f93d dab9 393e 671e 993e 7aec a9be
00000290: 06ce 8dbe 5db9 c13d a4ac ae3c b53d cabe
000002a0: 0a41 3bbd 8ba2 0b3e 43c3 823e 9beb 6f3e
000002b0: 7a87 283d 3e4e 623e 72bc c4be 0b82 043d
000002c0: 4359 03be 1078 d6bd cef3 2a3e 27cf 19bc
000002d0: 427f 5dbe 487b f9bc d286 a33d 90e9 58bd
000002e0: 1376 96bd 41dd b7bd 992d cbbc 6dc2 6d3e
000002f0: b91e 3fbd dc3a fd3d 9fa3 efbd 2ef7 593e
00000300: dd26 b33e f2a2 b43e 2834 ab39 cab8 e5bd
00000310: 57e0 b1be eb95 653e 4be6 833e 7e31 9abe
00000320: d7b7 7cbe c185 2f3e 84e6 823e 27a2 d83e
00000330: 084b 01be e673 0e3e 2ff2 dfbe 0ebc 70be
00000340: dc1d 9bbd 68d3 2dbd c596 9d3e e97c a2bd
00000350: e95c 97be 1eb6 733e ed2e 53be 7fdb a1be
00000360: 9c46 dabd df17 7cbc 0b5d d9bd 53d4 2e3e
00000370: 0382 5fbe 753a 233e 44b5 933d 807f 903e
00000380: 013a 7fbe c3db bbbe 17ae 33be d68c 483e
00000390: f090 493e 0995 e6bd c8ac 81be eebd a43d
000003a0: 2c77 b13e a8ec 08be e1b3 d1bd 8e27 dabe
000003b0: 46b3 0e3e 1260 6d3b e6ea c03e 111f 25bd
000003c0: 9aa4 263e f31d 9c3e 84f3 a5be 3a40 b6bc
000003d0: f93c 653e 096b 433d b16d 6b3e 992e a03e
000003e0: cc0b 02bd ac42 cc3c afe0 c43d fc83 76be
000003f0: 2905 913e 6a8b 63bd db1d 473d 9ec3 8cbe

fc.4.bias f4 [16]
0.12828477 -0.030193074 0.054742765 0.044983502 -0.01195618 -0.15225084 0.041089464 0.0718729
-0.05423124 -0.087081626 -0.13335809 -0.02695154 0.08764508 -0.04951041 0.12638271 -0.111125186
00000000: 155d 033e 7757 f7bc f339 603d 9f40 383d
00000010: dbe3 43bc a5e7 1bbe 6d4d 283d 1932 933d
00000020: 9421 5ebd da57 b2bd 068f 08be 7ac9 dcbc
00000030: 447f b33d 6dcb 4abd 786a 013e 9a95 e3bd

fc.6.weight f4 [2, 16]
0.425584 0.42637652 -0.4291369 -0.15985714 -0.29492536 -0.53355086 -0.5746858 0.6263571
-0.5621763 -0.52958256 -0.42293203 0.6351474 -0.29923856 0.37646365 0.3743005 0.4964517
-0.56756026 -0.39835048 0.40427276 0.362759 0.4657566 0.28302413 0.5829744 -0.5997846
0.18940282 0.31483167 0.3152785 -0.21227327 0.43293157 -0.5017467 -0.085950404 -0.23838627
00000000: 25e6 d93e 064e da3e d5b7 dbbe 97b1 23be
00000010: 7500 97be ca96 08bf 9c1e 13bf f058 203f
00000020: c9ea 0fbf b992 07bf 8c8a d8be 0599 223f
00000030: cc35 99be d8bf c03e 51a4 bf3e eb2e fe3e
00000040: a14b 11bf 98f4 cbbe d7fc ce3e 8cbb b93e
00000050: a677 ee3e 8ae8 903e cf3d 153f 7c8b 19bf
00000060: d0f2 413e 9e31 a13e 2f6c a13e 2a5e 59be
00000070: 35a9 dd3e 7972 00bf c406 b0bd 881b 74be

fc.6.bias f4 [2]
-0.20695765 -0.06115863
00000000: b5ec 53be 7981 7abd
