4.PPO/ckpt/CartPole-v1_PPO_episode_149_reward_478.pth (torch, 8436 bytes, 8 tensors)

fc.0.weight f4 [16, 4]
00000000: 595c d7be f40a 633e 7d90 2c3f 717d c83e
00000010: 3969 c63e db3c 423e 55db 18bf 222b 09bf
00000020: ce08 37bc c85b dbbc cde2 1b3f ef4a 96bd
00000030: 43d0 01bf 44d7 953e f58c c8be 1f44 00bf
00000040: 2553 a8bc 14ca ef3e c278 d63e ca06 0e3f
00000050: ef29 b2bd 5587 ba3e e157 943e 3b92 bc3d
00000060: 68fa c2be 5f74 883e 758b a8be a644 bd3c
00000070: 0a7c 1bbe 3dde 863e 8fe0 8e3d fde2 8ebe
00000080: 7aa5 d13e c087 743e ac20 433f 286d 133f
00000090: 6120 483e a28d ce3d 41d3 df3c 9beb 04bf
000000a0: d68c c53c d1c6 9cbd 1c16 473e 96dc 9f3e
000000b0: 88a3 f03e 634c abbe 1729 dc3d 61b6 0e3f
000000c0: 6c79 10be 7220 fbbd 6198 3e3f 712c 003f
000000d0: da43 24be 59fa 3abe f823 d33e a895 c83e
000000e0: 52ee b8be 34e2 a4be df34 01bf cd70 f9bd
000000f0: 1304 8cbe 3c98 a63e 2315 29bc fa48 c73e
-0.42062643 0.22172147 0.6740797 0.39158204 0.38752154 0.18968527 -0.59709674 -0.5358144
-0.011171533 -0.026777163 0.60892946 -0.07338511 -0.5070841 0.29265797 -0.39170042 -0.50103945
-0.020547459 0.4683386 0.41889006 0.5547911 -0.086994044 0.36431375 0.28973296 0.09207579
-0.3808167 0.26651284 -0.32918897 0.023104023 -0.15184036 0.2634143 0.06976425 -0.27907553
0.4094656 0.2387991 0.7622173 0.57588434 0.19543602 0.10085608 0.027322413 -0.51922005
0.024115007 -0.07655109 0.19442028 0.3122298 0.46999764 -0.33456716 0.10750025 0.5574704
-0.14108819 -0.12262048 0.7445126 0.5006781 -0.16041508 -0.18259563 0.4123838 0.3917668
-0.36119324 -0.3220383 -0.504713 -0.12179718 -0.27346858 0.3253802 -0.010319981 0.38922864

fc.0.bias f4 [16]
00000000: fa2d c33d 4408 80bd 882f cf3e 4d3e 86be
00000010: 1c49 b33e 07f2 65be 9f98 ad3e a33d d6be
00000020: 5bd3 933b 94b3 bebd 632d 9c3e 3bec 2dbe
00000030: 4931 5a3d 8c0d 9cbd 07ec 7d3e ea11 793e
0.09530254 -0.062515765 0.4046595 -0.26219407 0.35016716 -0.22455607 0.33905503 -0.418439
0.0045112795 -0.093115956 0.30503377 -0.16984646 0.05326966 -0.07619771 0.24797069 0.2432324

fc.2.weight f4 [32, 16]
00000000: b051 da3d adad 8b3d 70fd 95bd f68a 23be
00000010: 3745 f7bd 7ad6 ca3d 199b eebd cd23 49be
00000020: ed3a e53e c875 94be 4b68 d5bc 2dd4 ccbd
00000030: e337 b03e 251a 8f3e e817 0a3e 28f2 403e
00000040: 273d be3e 98fb 8bbb 2b97 9c3c 94ea 06bc
00000050: 2dce b33e e7ad 283a fadd 42be 7178 12be
00000060: b4d1 b63d 7555 9bbe 9c90 653e 71ef 8d3e
00000070: cbab ab3e 1606 80bd 09cf 8ebe f3ee cfbc
00000080: 8330 e9bc aed4 e73d c924 d83d 4f99 c9bd
00000090: 3156 083d c0c2 3f3d a69a 48bd 1f6f 79be
000000a0: dfb6 023e f514 943d 5a53 aa3d 8882 873e
000000b0: 00b5 953d 6723 0fbd 8a3c 363e ede0 5dbd
000000c0: 6ad0 32be 3c1a 033d 47f5 92bc d8e8 7bbc
000000d0: 4389 68be f15d 9d3d 06b1 4b3e 4cef adbc
000000e0: 28e2 48be 4812 8d3e 1727 06be 6443 b0bc
000000f0: 710f 89be 06ec 1dbd c393 0d3d 869a 073e
00000100: 6523 9fbe 2db4 09be e752 b7bd af79 8b3e
00000110: 952d f5bd c1a4 08be 4b1d 383d 1938 8d3b
00000120: 2bda c9be 0c19 313e fb1c 45be 691e d1bd
00000130: 9dab 473c 5f6e a5be 574b 863e 60b7 afbd
00000140: ceaa b9be 1dfe a23e 4620 21be d75f d83d
00000150: f632 7dbe a425 9a3b 6e26 87bd 8bd7 b43d
00000160: 13fd b9bd 7359 1ebd e639 6f3e c5af dbbd
00000170: 9d10 51be 2d6d a2bd 13a6 f5bd 868e 1a3d
00000180: 7d8f 73be d289 853e 3a47 593c 6b38 ab3e
00000190: d830 96bb dfda 8dbe 9f45 63bd 3c87 a6bd
000001a0: dc6f 483d 7d61 3d3e 3495 32be 68f6 27be
000001b0: 0638 6cbe 3425 85bd 8744 503d d636 64be
000001c0: 232b 093d a144 54bd 6089 b4bd 6570 053e
000001d0: f5da b0be 60ed 2e3c 1a51 54be 325c 7ebd
000001e0: 7352 c1be 19ca 0c3d b833 113d c455 62be
000001f0: 18ff ccbe e0ed 49be 0a95 bb3c 95ae 57be
00000200: 9ae5 cabe 40a5 05bd a54a aabd 35a3 813e
00000210: 6ad4 05be 94bb be3d 8b4e 493d 4a30 1ebc
00000220: c3d0 b5be 956c 823e 2628 5fbe 459d 33be
00000230: 3349 83be c195 0a3e ee8d 7f3e ca88 903d
00000240: 3066 bfbd 792f 713d 8d3e 2cbe aed6 0abe
00000250: cd49 873d abdd 14be b915 693d f62d 063e
00000260: 8cef 86be 1fa0 5c3e 81ee 3ebe f5bf 8cbe
00000270: 0d76 23be a9a3 8abe 8181 123e cc1e 163e
00000280: 842e afbe 7ce4 8b3e 450b 21be 9528 683e
00000290: 3282 9dbd 2666 68be d519 8f3c 02c8 023c
000002a0: bdea 90be cd6e 193e 11b8 07be 060a 91bd
000002b0: 0c1f 243d 75c5 87be 8d34 63bd cd2b fcbd
000002c0: e7fd ca3d 381c 34be 1e22 26be 7929 c8bd
000002d0: 4f3a 16be 7834 e63c b006 4abb 7463 cabc
000002e0: 3e74 4abe d85a 8f3e 047b 01be 2161 2dbd
000002f0: 9083 ad3c 4e83 eabd 1a9f a63d 811c ea3d
00000300: bbde 50be ebd8 3f3e 4954 803e 0298 8d3e
00000310: 1887 5f3c 9c5b 3bbe a54d ecbd 216c 253e
00000320: 18ed 5bbe 8fc1 a73e c922 b5bd fead 103c
00000330: fd3d a3bd 2ef1 693d 6c3e 093e 7851 263e
00000340: c81e 963e 809b 5ebe 6b01 39be bb4b 34be
00000350: 9fe3 4d3e 88e3 b2bd 28b1 1bbe 1c72 01be
00000360: 9dfa b43e 23f3 5ebd 4284 be3d 189d c6bd
00000370: 5c9c 0d3e 6849 f3bd 941e 47be 82d8 b63c
00000380: 132d 85be 72fb e9bd 1384 24be a8bb 633e
00000390: 9708 a3be eecc 2c3e 7f54 0dbe f22f ba3d
000003a0: 7ddc bebd c492 333e 16ff 3c3d bb45 92be
000003b0: be3d 97bd 5703 eabd fa0b 6f3d a1da 3d3e
000003c0: 108a b83e d5b2 743c 7a8a 23be 3e31 1ebe
000003d0: f1a8 8e3d 73ca 17be 80b8 17be 6b1e 24ba
000003e0: 2552 1b3e e2dc b83d eaea 19be c978 833e
000003f0: a6e3 2e3e b717 eabd 396b 5fbe ba5e f1bd
0.10660112 0.068202354 -0.0732373 -0.15970978 -0.120737486 0.099041894 -0.11650676 -0.19642563
0.4477152 -0.2899611 -0.026050707 -0.10001407 0.34417638 0.27949634 0.13485682 0.18842375
0.3715603 -0.0042719357 0.019115051 -0.008234639 0.35118237 0.0006434605 -0.1902999 -0.14303757
0.089267164 -0.30338636 0.22418445 0.27721742 0.33529505 -0.06251161 -0.2789233 -0.025382495
-0.028465515 0.11319862 0.10553891 -0.098436944 0.033285324 0.046816587 -0.04897561 -0.24358796
0.12765072 0.0723056 0.08316679 0.26466775 0.07309914 -0.03494587 0.17796531 -0.054169584
-0.17462316 0.03200744 -0.017939223 -0.0153753385 -0.22708611 0.076839335 0.19891748 -0.02123227
-0.19617522 0.2755301 -0.13100849 -0.02151651 -0.26769593 -0.038555168 0.034564745 0.1324254
-0.3108169 -0.13447638 -0.08951359 0.27241275 -0.11971585 -0.13344099 0.04494981 0.004309666
-0.3942426 0.17294711 -0.19249336 -0.102108784 0.012186912 -0.3231077 0.26229355 -0.08579898
-0.36263126 0.31834498 -0.15734968 0.10565155 -0.24726471 0.004704194 -0.06599127 0.08830174
-0.09081473 -0.038659524 0.2336193 -0.10726885 -0.20416494 -0.0793098 -0.11994567 0.037733577
-0.23785205 0.2608171 0.013261611 0.3344148 -0.0045834593 -0.27706048 -0.055486318 -0.08131263
0.048934802 0.1849422 -0.17439729 -0.1640259 -0.23068246 -0.065012366 0.050846603 -0.22286543
0.033488404 -0.051823262 -0.08815265 0.13031156 -0.3454205 0.010676712 -0.20734063 -0.062099643
-0.37758216 0.034372423 0.035449713 -0.2210303 -0.4003837 -0.19719648 0.022898216 -0.21062692
-0.39628297 -0.032628298 -0.083150186 0.2531983 -0.13069311 0.093131214 0.04914717 -0.009655068
-0.35510835 0.25473467 -0.21792659 -0.17540462 -0.25641784 0.13533689 0.24956486 0.070573404
-0.093456626 0.058883164 -0.16820736 -0.13558456 0.06605873 -0.14537685 0.056905482 0.1310347
-0.26354635 0.21545456 -0.1864567 -0.27490202 -0.15963002 -0.27077988 0.14307214 0.14660186
-0.34215176 0.27322757 -0.15726955 0.22671731 -0.076908484 -0.22695217 0.017468372 0.007982256
-0.2830409 0.14983673 -0.1325381 -0.0708199 0.04006867 -0.26517835 -0.05547004 -0.12313042
0.09911709 -0.1758889 -0.16223952 -0.09773535 -0.1467068 0.02810119 -0.003082674 -0.024705626
-0.19770905 0.27998996 -0.12644583 -0.042328957 0.021180898 -0.11450826 0.08135815 0.11431218
-0.20397465 0.18735091 0.25064304 0.27655035 0.013643049 -0.18296665 -0.11538247 0.16154529
-0.21477163 0.3276486 -0.08844525 0.0088305455 -0.07970808 0.057114772 0.13402718 0.16242015
0.2932036 -0.21739006 -0.18066947 -0.17607014 0.20106362 -0.087348044 -0.15204298 -0.12641186
0.35347453 -0.054431092 0.0930257 -0.09697932 0.13829178 -0.118792355 -0.19445258 0.022320036
-0.2601095 -0.114249125 -0.16066007 0.22239554 -0.3184249 0.1687505 -0.13801764 0.09091176
-0.093193986 0.17536455 0.046141706 -0.28568825 -0.07384823 -0.11426418 0.05836103 0.18540432
0.36042833 0.014935215 -0.15970793 -0.15448472 0.06965817 -0.14823322 -0.14816475 -0.0006260636
0.15168054 0.09026505 -0.15031019 0.2567809 0.17079028 -0.114303045 -0.21818246 -0.11785646

fc.2.bias f4 [32]
00000000: b7d1 113d 2228 38be 2fc3 03bc 22f2 2a3d
00000010: 4d86 133e 3dbc de3d ec5c 07bd 73f2 103e
00000020: 2f1f 7a3e 96a3 1f3d 20f6 7a3d a7e6 4e3e
00000030: b77c 4dbd a377 a6bd 4fe0 183e 4570 ab3c
00000040: fdb9 703e 4f97 f63d 4132 373e 3ba9 16be
00000050: d827 8bbd d7eb 0d3e 73e8 23be 2255 2ebd
00000060: dd4a c33a 0ac7 1cbe c8a4 f3bc dbd8 1abd
00000070: 9780 473e 02be 963d fe18 d03d 039d e2bc
0.03560039 -0.1798406 -0.008042141 0.041734822 0.144067 0.10875747 -0.0330476 0.14154987
0.24425958 0.038974367 0.06126988 0.20205174 -0.050167765 -0.08128288 0.14929317 0.020927558
0.23508449 0.120405786 0.17890264 -0.14712994 -0.06794709 0.13859497 -0.16006641 -0.042561658
0.001489963 -0.15310302 -0.02974166 -0.037804466 0.19482647 0.0736046 0.10161017 -0.02766276

fc.4.weight f4 [16, 32]
00000000: f566 5f3e b22b 883e 4f60 2b3e 255e 97be
00000010: 67ef a6bd de41 34be c263 8bbe 98fa 15be
00000020: fb63 3dbe bf58 81bd 8624 ddbd 796d 4b3d
00000030: e632 42bc 3fb7 9b3e 8004 b03b 3670 563e
00000040: 1fc5 40be 88bf 413e 03f8 cebd d03e f5bc
00000050: 4a35 43bd c793 5cbd ec66 22bd 679d 34be
00000060: a270 353e 847b f4bd 535e d63d 08f3 283e
00000070: b498 533c c0f5 5b3e 3925 36bb 87a5 713d
00000080: 2a19 47bd 3c84 72bd 0779 533d f5b9 b33e
00000090: d47a 3b3e 59d6 c83d eaae 173e 9821 963e
000000a0: 5f8e ac3d f666 843d 957d 4a3e 4df0 62bb
000000b0: 2a6d 8d3d 9368 94be dc51 753e 88ce efbc
000000c0: ea7e 803e 9e3f 633d 484b 9f3e f8e8 09be
000000d0: 1bef 9abc 3ba9 00bc cd62 e73d 2ed6 163e
000000e0: 7092 5fbe 1a3d 653d 4653 ce3d 16e7 ef3c
000000f0: 46fb 333e 8c7a 743c 8513 adbd c1ef b6bd
00000100: f42f cc3c f970 6d3e 7e1c 283e df13 00be
00000110: 4ef7 91be 6176 5dbe d86b 42be 6da9 7cbe
00000120: 32e2 00be e1ff 62be dc97 c3bc 3888 efb9
00000130: b4cd 87be 6058 e33d 5e32 1cbe cc8e 87bd
00000140: 45f4 b3bc 6422 4c3e e34a a2be 66d2 c23d
00000150: 4f53 0d3e b361 653e 1b68 a1be d787 5fbd
00000160: 5c13 883e ef82 fb3c e0f3 043e 9332 5a3e
00000170: 7c5d 00be 9821 6c3d 294c 45bd 202f cdbd
00000180: 29e2 893e ac3a 9a3e ef8b b3bd 8043 bebd
00000190: c2b9 e43c 5381 63be f7c3 743c c23a 5abe
000001a0: 2394 42be 7bdd f43c 3700 8cbe 489f c13d
000001b0: 5e89 5bbe 407a 543e 26b0 ef3c 6622 a93d
000001c0: 93ab 5bbe 38eb f53d c7f3 b3bd f88e 01bc
000001d0: fe4e c6bd 6828 da3d 69fa b3be d13b efbc
000001e0: 5e30 483e 26e7 04be c114 f6bc 9bce 853e
000001f0: 674d 6a3d 0cba d6bd 75a5 02be d842 05bd
00000200: afde 26bd a1d3 113e 752d 3e3e 46a2 0bbe
00000210: 5ebb 71bc 8bb1 423c e0c4 7c3c 0953 b9be
00000220: 4893 70be d1b3 85be 6b68 87be b385 013c
00000230: 8538 313d d6aa 963e 6793 e9bd 1847 fcbc
00000240: 8221 45b9 d11a c6bc 4cd7 bdbe 4d6e 553e
00000250: bc80 52be eba5 203e 31a2 b1be 2054 ff39
00000260: 6e07 d8bb e097 89bd b1dc 4bbd 0501 413e
00000270: 10b0 8abc f918 80bd 06b0 05be dae7 f0bd
00000280: b10c 183e 5ba9 143e 83ee 5fbd adb7 a7be
00000290: d267 8cbc 9e55 213d 6b19 123c fab1 e3bd
000002a0: ea1a 89be 11bd 81be 2fd7 a7bd 6d86 90bd
000002b0: 48af 88be df63 6e3e df41 61be 8b81 153d
000002c0: 2d9a 52be 2f2a b73d baec 88be fb17 b13d
000002d0: f314 a2bb 4a87 bb3c 0ca5 92bd be5c b3bd
000002e0: a8c7 5d3e a7ff 91bc 9866 15be a134 423d
000002f0: b331 aa3d 3bb8 02bc 4012 08be cebe 1cbd
00000300: 2750 fcb9 ac3d 0a3e e323 cebd 8f11 88be
00000310: c1ee 1fbe 3a1d 60bd b5ad 55be 2e18 77be
00000320: 87f0 41be 55e7 46be d1cc 67be 8c11 25be
00000330: 3516 58bd 0415 503e 0090 54bd be6e 763d
00000340: 9a27 1cbd 7788 0e3c 6a8c 14be 02f0 3a3e
00000350: 9637 a03d a4ce c23d 2e66 2dbe 3cfa b2bd
00000360: fdce 9ebd 78a6 4fbe 73a9 75bd 95c2 893e
00000370: 6183 0cbe fe4f 1c3e 6386 82be c34a b63d
00000380: ff32 7b3e 2a42 ab3e 7960 58bd c922 08bd
00000390: 18dc e83a 5d3e 83bd e2e7 a0bd ab82 0fbe
000003a0: ba48 3abe 0651 98bc 2b41 a5bd f71b b13d
000003b0: 6191 18bd d684 b83e d7ab 203c e1f9 c9bd
000003c0: 4b9e d23c f001 023e b7be a2be e91d 613d
000003d0: 9dc7 a43d 3757 893e 45dc 2bbe 85b6 9b3d
000003e0: 12fa 3c3e 47a6 9ebd b986 3bbe 51ac fcbc
000003f0: b22c 74be bb37 2f3d 697d 2ebe 7899 30be
0.21816619 0.26595837 0.16735958 -0.29564014 -0.08151131 -0.17603251 -0.27224547 -0.14646375
-0.18495171 -0.06315755 -0.10797982 0.049664948 -0.011852955 0.30413243 0.00537163 0.20941243
-0.18825196 0.1892072 -0.10105898 -0.029937178 -0.047658242 -0.05385187 -0.039648935 -0.17638169
0.17718747 -0.11937621 0.1046721 0.16498959 0.012914825 0.21480465 -0.0027793183 0.05899575
-0.048607983 -0.05920814 0.051629093 0.3510281 0.18308574 0.098065086 0.14812818 0.29322505
0.08425593 0.06464951 0.19774468 -0.0034628094 0.06905587 -0.28986034 0.23957008 -0.029273286
0.25096828 0.055480592 0.31112123 -0.13467777 -0.018912842 -0.007852848 0.11298142 0.1473014
-0.21833205 0.055966474 0.10074477 0.029284995 0.17576322 0.014921796 -0.08450989 -0.08932448
0.02492521 0.23187627 0.16417119 -0.1250758 -0.2850899 -0.21627189 -0.18986452 -0.24674006
-0.12586287 -0.22167923 -0.023876123 -0.00045687123 -0.26524127 0.111008406 -0.15253589 -0.06619033
-0.021967063 0.19934994 -0.3169776 0.095127866 0.13801311 0.2240055 -0.3152474 -0.054572906
0.2657727 0.030702082 0.12983656 0.21308355 -0.12535661 0.057649225 -0.048168335 -0.10018754
0.2693036 0.30122888 -0.087669246 -0.09290218 0.027920607 -0.22217302 0.0149393 -0.21311477
-0.19001822 0.029890766 -0.27343914 0.094542086 -0.2143912 0.2074976 0.029258799 0.08258514
-0.21452169 0.12007755 -0.08786731 -0.007907622 -0.09683035 0.10652238 -0.35151985 -0.029203327
0.195497 -0.12978801 -0.030039193 0.2613419 0.057202723 -0.104847044 -0.1275843 -0.03253445
-0.04073971 0.14240886 0.18572028 -0.13636121 -0.0147541445 0.01188315 0.015427798 -0.36196163
-0.23493683 -0.26113752 -0.26446852 0.0079054115 0.04326679 0.29427212 -0.11405068 -0.030795619
-0.00018799867 -0.024182709 -0.3707832 0.20842858 -0.20556921 0.15688293 -0.34694055 0.00048700068
-0.0065926826 -0.06718421 -0.049771015 0.18848045 -0.016929656 -0.06254763 -0.13055429 -0.11762972
0.14848591 0.14517729 -0.054670822 -0.3275732 -0.01713935 0.03938829 0.008917193 -0.11117931
-0.26778346 -0.2533956 -0.0819534 -0.0705689 -0.2669623 0.23280285 -0.21997784 0.036500495
-0.20566626 0.08943593 -0.26743108 0.08647152 -0.004946345 0.02289166 -0.071603864 -0.087579235
0.21658194 -0.0178221 -0.14589918 0.047413472 0.083102606 -0.007978494 -0.13288212 -0.038267903
-0.00048124904 0.13500088 -0.100654386 -0.26575896 -0.15618421 -0.054715373 -0.20867045 -0.24130318
-0.1893941 -0.19424184 -0.22636725 -0.16119975 -0.052755553 0.20320517 -0.05189514 0.060164206
-0.038123704 0.008699528 -0.14506689 0.18255618 0.07823102 0.0951207 -0.1693351 -0.08739135
-0.07754324 -0.20278347 -0.059976052 0.26906267 -0.13721992 0.1526489 -0.25493154 0.089009784
0.24531172 0.33448917 -0.05282638 -0.0332363 0.0017765788 -0.06408379 -0.07856728 -0.1401469
-0.18191805 -0.018593322 -0.080690704 0.08647912 -0.03724802 0.36038846 0.009806595 -0.09862114
0.025710246 0.12696052 -0.3178613 0.054960165 0.08045886 0.26824352 -0.16783245 0.07603172
0.18454769 -0.07746559 -0.18313111 -0.030843886 -0.23845175 0.042777758 -0.17040028 -0.17246044

fc.4.bias f4 [16]
00000000: 5930 05be a1d1 073e 97e6 f4bd 8154 de3c
00000010: a0b5 883c bd24 043e ce3a c13c 5ca4 e7bd
00000020: d907 d9bc 1ce9 643d 1c7c a6bd 8b55 01be
00000030: e28e d2bc 525e cf3d 1838 ff3d d080 d53c
-0.13006724 0.13263561 -0.11958044 0.027139904 0.016688168 0.1290464 0.02358761 -0.11310646
-0.026493 0.055886373 -0.08129141 -0.12630288 -0.025702897 0.10125412 0.12461871 0.0260624

fc.6.weight f4 [2, 16]
00000000: c2de cebd da65 223e d19e 65be fa5f 073d
00000010: 4c9f 6cbe bd3d b9be 4ea9 a5be 935a cebe
00000020: 1f65 a83e 75da 473e b6bc a03e cffd fb3d
00000030: 8dbb 84be dbce 173e c2c0 3f3d 6271 533e
00000040: 1c23 b23e 32d2 66be eef3 a43e 4b85 9c3e
00000050: ef86 4c3e 1a76 173e 4fc4 b73e 644d a43d
00000060: e160 ccbe b72a b6be 8762 29bc 6816 d5bd
00000070: b808 7bbc 5820 c1be 0ff4 8d3d d3b4 6ebe
-0.101010814 0.15859166 -0.22423865 0.033050515 -0.23107642 -0.36179915 -0.32355732 -0.40303478
0.3288965 0.19516928 0.31393975 0.123042695 -0.2592434 0.14825003 0.046814688 0.20648721
0.3479241 -0.2254112 0.32217354 0.30570444 0.19973348 0.14791146 0.3589196 0.080225736
-0.39917663 -0.35579464 -0.010338432 -0.10404664 -0.015321903 -0.3771999 0.06931316 -0.23311166

fc.6.bias f4 [2]
00000000: c57e 0a3e 2f55 67bd
0.13524921 -0.05647772
