4.PPO/ckpt/InvertedPendulum-v5_PPO_episode_239_reward_951.pth (torch, 10054 bytes, 12 tensors)

bn.weight f4 [4]
000000 00 00 80 3f 00 00 80 3f 00 00 80 3f 00 00 80 3f
       1.0 1.0 1.0 1.0

bn.bias f4 [4]
000000 00 00 00 00 00 00 00 00 00 00 00 00 00 00 00 00
       0.0 0.0 0.0 0.0

bn.running_mean f4 [4]
000000 00 00 00 00 00 00 00 00 00 00 00 00 00 00 00 00
       0.0 0.0 0.0 0.0

bn.running_var f4 [4]
000000 00 00 80 3f 00 00 80 3f 00 00 80 3f 00 00 80 3f
       1.0 1.0 1.0 1.0

fc.0.weight f4 [16, 4]
000000 fd 65 2f 3e 03 8f 62 3f 9e 14 49 be b0 10 92 3e
       0.17128749 0.8849947 -0.19636771 0.28528357
000010 96 c5 3b be 06 30 41 bf c2 d2 b4 bd 9c 14 14 3e
       -0.18337092 -0.754639 -0.08829261 0.14460987
000020 90 ea a2 3e 1e 04 18 bf 48 3b 48 be de bc 61 3e
       0.31819582 -0.5938128 -0.19553864 0.22044703
000030 6c ae af be 60 7c 6a bf 0a 55 b8 be f9 17 0d bf
       -0.3431276 -0.9159603 -0.3600238 -0.55114704
000040 49 16 9b 3d 5b cc 37 3f 13 cb 04 be bd 5e 84 3e
       0.0757261 0.71796197 -0.12968092 0.2585353
000050 4c fc 9c be ec 80 10 bf 36 95 a7 3e 2f f4 14 bf
       -0.30661237 -0.5644672 0.32731026 -0.58185095
000060 9c e0 ee be 93 a9 63 3f 14 a3 88 be ae d5 06 3e
       -0.46655738 0.88930625 -0.2668692 0.1316745
000070 66 6b 99 be 75 fe 55 be e5 3a d3 be a2 f5 4b be
       -0.2996475 -0.20897849 -0.4125587 -0.1991792
000080 b8 8b a2 3e 25 24 56 bf 53 32 39 3e 55 a3 dd 3e
       0.31747222 -0.836489 0.18085603 0.43288675
000090 10 54 bd be 8a 71 b8 be bb 8b 86 3d 8b 13 81 be
       -0.36978197 -0.36024123 0.0656962 -0.25210223
0000a0 ac 19 80 be 25 18 ed be 40 ff 0d bf 5d ef f6 bd
       -0.25019586 -0.46307483 -0.55467606 -0.12057374
0000b0 f4 a9 a4 bd b1 ff 0b bf fe a5 b9 be 28 97 92 3d
       -0.080402285 -0.5468703 -0.36259454 0.07157737
0000c0 f1 09 1c 3e 33 c3 c3 3e e8 35 b8 3e de ae eb 3e
       0.15238167 0.38234863 0.35978627 0.4603185
0000d0 27 38 33 be 85 26 44 be a2 8f 99 be d4 07 b2 be
       -0.17501889 -0.19155319 -0.29992396 -0.34771597
0000e0 c2 85 e7 3e b0 f2 62 bf 94 2b ec bd 70 b2 77 be
       0.45219237 -0.8865156 -0.11531749 -0.24189162
0000f0 b7 a4 c6 3d b5 fd a0 be c0 01 96 be e5 09 bb 3e
       0.096993856 -0.31443563 -0.2929821 0.36530986

fc.0.bias f4 [16]
000000 24 96 27 be 56 e6 34 3e 7d e6 db be 79 d4 d4 bc
       -0.16365868 0.17665991 -0.42949286 -0.025980221
000010 c3 aa a3 be 4f 17 06 3e cb c2 c7 be 0e b9 c9 be
       -0.31966218 0.13094829 -0.39015803 -0.39398998
000020 5e 98 c7 be ea 12 04 3e 76 65 c7 be 9a e0 64 3c
       -0.38983434 0.1289784 -0.38944596 0.013969565
000030 1d 2e fe 3b fb 40 e7 bd c5 ea b2 3e e2 2e 96 3e
       0.007756962 -0.11291691 0.3494474 0.29332644

fc.2.weight f4 [32, 16]
000000 a6 9a 8c 3e 20 c6 82 3d e9 af 72 be 4d cf 1d be
       0.27461737 0.063854456 -0.23699917 -0.1541111
000010 ac dc 3a 3e 88 46 95 be ba 42 92 3e 76 8a 59 be
       0.18248242 -0.29155374 0.28566533 -0.21244225
000020 24 8f c9 bd 39 6a 11 3d d4 2f 09 be 34 7c 38 be
       -0.09841755 0.035501692 -0.13397151 -0.1801613
000030 74 a2 a0 bd ca 5d 88 be a1 17 4f be 43 b2 4d bc
       -0.078434855 -0.26634055 -0.20223857 -0.012554708
000040 12 54 03 3e 30 82 08 be 2e e8 c3 3d 86 eb 13 be
       0.12825039 -0.13330913 0.09565769 -0.14445314
000050 0f b9 0d 3e e9 46 2d 3d cc a5 b6 bd ce f4 5e 3e
       0.13840126 0.042303953 -0.08918342 0.21773073
000060 b2 62 96 3d 35 ca 8e bd 4f a8 6e 3e a9 a9 82 bb
       0.073430434 -0.06972162 0.23306392 -0.00398751
000070 7d 1e ea bd b1 d0 1a bd aa 06 92 3e 95 69 0a be
       -0.114315964 -0.03779668 0.2852071 -0.13516839
000080 03 17 3c 3e c5 d1 72 3e 4d 37 4d 3e 4a 1e b1 3e
       0.18368153 0.23712833 0.20040627 0.3459342
000090 2f e4 30 be 69 a9 2a 3e 24 fb 09 be 1b 7a 38 bd
       -0.17274545 0.16666187 -0.13474709 -0.045038324
0000a0 23 20 03 3e de ca c4 3b 33 4a f6 3d 62 d6 92 3e
       0.12805228 0.006005629 0.12025871 0.28679186
0000b0 34 90 1d be 58 02 41 be 18 d1 23 3e a2 e5 60 3e
       -0.1538704 -0.1884855 0.15997732 0.21962598
0000c0 06 07 8b 3e 94 c5 4c bd c8 f9 87 be b3 ff 8d be
       0.27153796 -0.049993113 -0.26557755 -0.27734146
0000d0 7f 41 3c be f1 94 66 bd b4 b0 b8 3d a6 2b 63 bd
       -0.1838436 -0.056294385 0.090180784 -0.05546155
0000e0 fc 37 4b bc 9e b6 9e bd 91 fe 2d 3e 26 b3 42 be
       -0.012403484 -0.07749675 0.1699164 -0.19013652
0000f0 33 61 cc bd c3 ad 96 be de 01 11 be de 12 d3 3d
       -0.09979477 -0.29429445 -0.14160869 0.10306333
000100 82 d3 74 3e fa 72 31 3c 66 7f 6b 3d 38 b7 9e bd
       0.23908809 0.010830635 0.057494543 -0.0774979
000110 06 1c 4c 3d 50 72 5e 3e 90 e0 68 3e 3c 95 69 be
       0.049831413 0.21723294 0.22741914 -0.22810835
000120 4d 7d 85 be f0 dc 1e bc 2f 76 c3 3d f2 87 57 be
       -0.2607216 -0.00969623 0.09544026 -0.21047953
000130 cc 4e 52 3e 09 ea 9c bd b2 93 70 3d 58 07 83 be
       0.20537871 -0.07661826 0.058734603 -0.2559154
000140 74 3a b9 bd 91 7d 58 3e c4 05 e6 3c 55 40 08 3e
       -0.09044352 0.2114165 0.028078921 0.1330579
000150 6c 64 b0 bd 40 c0 77 3e 0a 31 8d be 8f 5b 25 be
       -0.08612904 0.24194431 -0.27576476 -0.16148208
000160 28 ba 70 3e aa c4 6b 3e 5f 9b 67 3e 74 89 1b 3e
       0.23508513 0.2302424 0.22617863 0.15189153
000170 fc 63 b1 bd a3 7e f6 3d 65 27 5d 3e 18 4d ca bd
       -0.08661649 0.12035873 0.21597059 -0.09877986
000180 e5 ba c2 bd 3f c5 34 3e 77 c6 75 3e 28 1a ae 3e
       -0.095083036 0.17653368 0.2400149 0.3400433
000190 f4 45 fb bb 40 1a 06 3e aa 9f 38 be 61 1c 33 3e
       -0.007668251 0.13095951 -0.18029657 0.17491294
0001a0 a4 13 f5 3d 86 ee 18 be 65 c3 b3 3d 64 5c 1f 3d
       0.11966637 -0.1493474 0.08777503 0.03890647
0001b0 f7 3a 8d be e8 f9 43 be b8 ad 5b 3e ab 8f 69 3d
       -0.2758405 -0.191383 0.21452987 0.057021778
0001c0 b4 64 ac bd c5 c8 0e 3e d6 4b 37 3e 85 4d 04 3e
       -0.08417645 0.13943775 0.17900023 0.12920196
0001d0 c2 9f 4f be 1d 6a c9 bd e7 57 41 3e ed e8 b0 bd
       -0.20275787 -0.098346926 0.18881188 -0.08638177
0001e0 e8 95 05 3e a1 2c db bd e0 a3 f8 3c 15 73 49 3e
       0.13045466 -0.10701872 0.03035158 0.19672807
0001f0 3d fb 0a 3e 7c 29 b0 3d 1c 0d 98 3d ae ef f3 3d
       0.13572402 0.086016625 0.074243754 0.1191095
000200 0a e4 13 bd 8f 20 82 bd 94 15 7a 3e bc 99 52 3e
       -0.036106147 -0.06353866 0.24422294 0.20566458
000210 f5 d1 ec bd 1e 3d cc 3d 77 5f 07 3e 57 70 bc bc
       -0.115634836 0.09972595 0.1322001 -0.023002787
000220 ff 4c 29 bd 90 a8 95 3c d3 6e 72 3e 86 b2 70 3e
       -0.041333195 0.018268853 0.23675089 0.23505601
000230 94 12 95 bd 64 33 aa 3d f5 ad 8e 3e 68 26 9c bd
       -0.07278934 0.08310583 0.27867094 -0.07624513
000240 d8 64 82 be 34 7c 17 be 64 2b 84 3e 03 a2 84 3e
       -0.25467563 -0.14793473 0.25814354 0.25904855
000250 75 2e 24 be 75 23 95 3e 7c 57 88 be 08 e3 80 3e
       -0.16033347 0.29128614 -0.26629245 0.2517321
000260 3e 37 9c bd 6b 84 8f 3d 8a ae 9a 3e ea 89 59 3d
       -0.07627724 0.070076786 0.30211288 0.05311004
000270 4f c9 ec bc 13 9f 26 3d c6 56 7d 3d 1c cb c1 3b
       -0.028904585 0.04067905 0.06185033 0.005914105
000280 d4 3f 65 3e a7 5c 87 be 49 0a 3c be 5a 6d 70 be
       0.2238763 -0.26437876 -0.18363298 -0.23479214
000290 1d a0 fb 3a f2 1d 2e be 23 66 5b 3e 9d b2 90 bd
       0.0019197498 -0.1700361 0.21425681 -0.07065318
0002a0 64 1b 67 be 8f 91 fb 3d c3 83 2f be 28 4b 94 be
       -0.22569042 0.122836225 -0.17140107 -0.2896359
0002b0 f1 73 3d 3d 17 5c 6b be e4 4b 6b be 63 71 31 3e
       0.04625315 -0.22984348 -0.22978169 0.1732841
0002c0 cc b1 21 3e b7 98 a6 3d 90 2f f9 3d e9 bf a6 3d
       0.1579048 0.08134597 0.12167275 0.08142073
0002d0 27 08 94 bb 11 4f 0e 3e 97 89 14 bd fd ea 03 be
       -0.0045175734 0.13897349 -0.03626403 -0.1288261
0002e0 37 da 91 3d bb bc fc bc f3 90 77 3e 62 5b f2 bc
       0.07121699 -0.030851712 0.24176387 -0.02958459
0002f0 88 1c e8 3d 8f ba 4d 3e 17 e4 70 3c 52 19 ef 3c
       0.11333567 0.20090698 0.014702818 0.029186878
000300 72 55 65 be bb 10 02 be fa 5d bf 3d 1e 68 b1 bc
       -0.22395876 -0.12701695 0.093440965 -0.021656092
000310 0c 21 d8 bd f6 07 2a be c0 20 53 3d ec 06 d5 bd
       -0.10553178 -0.166046 0.051544905 -0.10401711
000320 dd 1a 4c 3d 70 da 3c 3e eb 38 00 3e dc 41 a6 3d
       0.049830306 0.18442702 0.12521712 0.081180304
000330 f1 2e d9 3d 36 90 8b bd a2 e3 37 3e 36 51 d5 3c
       0.106046565 -0.068146154 0.17957929 0.026039701
000340 8e 9f a4 bd da ed f6 3d 80 56 46 bc 62 8c eb 3d
       -0.08038245 0.12057085 -0.012105584 0.11501385
000350 00 f5 1c bd 15 ea 50 bb 87 56 38 bd c2 3d 1d be
       -0.038319588 -0.0031877805 -0.045004394 -0.1535559
000360 9e 14 c9 3c e3 54 84 be 17 2a a9 bd f3 98 37 3d
       0.024545964 -0.25846013 -0.08259981 0.044823598
000370 5a b2 28 be d8 b2 83 be 29 59 a0 be 2c e3 9a 3d
       -0.16474286 -0.25722384 -0.31318024 0.07562861
000380 14 45 ab 3d 13 af dc bd e4 80 15 3e 32 28 cf 3d
       0.08362785 -0.1077558 0.14599949 0.101150885
000390 67 3b 74 be 68 58 39 be 76 1b 92 3d 91 b2 63 3e
       -0.23850785 -0.1810013 0.07134144 0.22236086
0003a0 5d 35 f8 bd 75 74 63 3c 44 75 3c be c5 79 a4 3e
       -0.12119553 0.013882746 -0.18404108 0.32124153
0003b0 bc 35 00 bc fa f3 5f 3e d8 21 95 bc 30 0b 21 3e
       -0.007825311 0.21870413 -0.018204615 0.15726924
0003c0 9b ed ac 3d 89 64 38 bd fa 61 7a 3d 0d 43 b0 be
       0.08443757 -0.045017753 0.061128594 -0.34426156
0003d0 69 65 5d 3c 07 31 91 bb 23 59 f7 bc dc f2 87 bb
       0.013512948 -0.0044308933 -0.03019387 -0.004148824
0003e0 86 cb 9e bd f7 e7 18 bd 2c 16 af 3d 05 fb a0 be
       -0.07753663 -0.037330594 0.08549151 -0.31441513
0003f0 ca fa d7 bd 45 85 02 be d1 da 7d be 11 48 3e 3d
       -0.10545881 -0.12746151 -0.24790503 0.046455447

fc.2.bias f4 [32]
000000 22 c9 ac bd 3b 03 b1 bd 2e f6 9f bd ff bd 35 be
       -0.084368005 -0.08643194 -0.07810627 -0.17748259
000010 df 09 e9 3d ac f9 75 be 4f 6a 5e bc ec 6a bb bd
       0.11378836 -0.24021024 -0.013575151 -0.09151253
000020 ee f3 0a 3d c3 b7 0e bb 57 22 bb bd 66 5d 1a be
       0.033924036 -0.002177701 -0.09137409 -0.15074691
000030 97 4b 17 3e ab 14 fb 3c 57 67 36 be 41 b6 15 3e
       0.14774929 0.030649504 -0.17812859 0.14620306
000040 21 7e 6d bd ae 4a e8 bd 2e ca 05 bd 8e 28 51 3d
       -0.057981614 -0.11342369 -0.032663517 0.051064067
000050 0b e4 5a 3e ed be 32 be 28 03 2e 3d e3 13 33 3e
       0.21376054 -0.17455645 0.04248348 0.17488055
000060 d3 aa ae 3d 4f 06 51 be 6e 5c 37 3e 95 59 6e 3d
       0.08528676 -0.20412563 0.17906353 0.0581909
000070 a7 e4 c9 3c 08 90 2f be ee d8 96 3d 70 8e e3 bc
       0.024645163 -0.17144787 0.07365595 -0.02777788

fc.4.weight f4 [16, 32]
000000 8a 50 4e be 25 0f 92 bd f9 92 af 3e ae 7a ef bd
       -0.2014791 -0.07131795 0.3429182 -0.11693321
000010 e8 8f 94 3d 88 7c 7c 3e 80 25 98 3e 90 1f b9 bd
       0.072540104 0.2465688 0.2971611 -0.09039223
000020 cc 26 d1 3d 3e 46 9d 3b 1c 0e af bd b4 a0 eb 3d
       0.10212478 0.0047996333 -0.08547613 0.11505261
000030 9b 04 e5 3d f0 90 95 bd a3 09 07 3e 0d 7a 5d bd
       0.11182519 -0.07303035 0.1318727 -0.054071475
000040 9a 1d ef 3d 5f 38 aa bd 82 77 9f bd 24 c7 91 3e
       0.11675568 -0.08311533 -0.07786466 0.28472245
000050 aa eb 73 bc 5d c7 fe 3d ed 02 2b bd fd 35 61 3d
       -0.01488773 0.12440369 -0.041750837 0.054983128
000060 73 1c e8 bd 2f c4 60 3d 12 8a 17 3e f1 8e 60 3d
       -0.11333551 0.054874595 0.14798763 0.05482382
000070 2d b8 5a 3c 12 6d 1a 3e ea a5 58 3e 30 fb b7 3d
       0.013349575 0.1508067 0.21157041 0.08983457
000080 63 72 3f be e7 d2 8d 3d 86 d5 8f 3e 3c b5 aa bd
       -0.18695979 0.06924992 0.28092593 -0.08335349
000090 28 d3 42 bd 34 7f ec 3b 08 b5 80 3e 27 be 15 3d
       -0.047564656 0.007217312 0.25138116 0.036558297
0000a0 f1 84 29 bd 6a 18 5a 3e c5 2e 95 be c9 91 11 be
       -0.04138655 0.21298376 -0.29137245 -0.14215769
0000b0 56 96 14 3e 5f 98 09 bd 9a bc 60 bd 62 d0 34 be
       0.14510474 -0.033592578 -0.054867364 -0.17657617
0000c0 ec c8 65 3e 4c 2b a3 3d b3 46 5e be b2 69 a5 3e
       0.22439927 0.079672426 -0.21706657 0.32307202
0000d0 54 92 64 be 6e cd 10 3d ed a7 50 3e 2e 99 36 be
       -0.22321445 0.035352163 0.20376559 -0.17831871
0000e0 66 a1 c0 bd b6 ad 89 3d 13 d2 35 3e 4e 3b 0c be
       -0.09405784 0.06722586 0.17755918 -0.13694498
0000f0 5e 51 10 3b e8 be 69 3d 87 50 c7 3c 72 d1 10 be
       0.0022021155 0.057066828 0.02433039 -0.14142397
000100 b6 8c 95 3d 87 dc 47 bd 83 07 32 3d 66 5d 19 bd
       0.07302229 -0.048794296 0.043464195 -0.037442587
000110 39 96 2e be 9f 00 a3 3d 29 d1 84 3e 5d 75 9a bd
       -0.17049493 0.07959103 0.25940827 -0.075419165
000120 9b 97 5d bd ec b9 8f 3d 89 44 8c bd 62 83 14 3e
       -0.05409966 0.07017884 -0.068490095 0.14503244
000130 66 d9 45 bd 8c fa 1d bd 3f cd 00 3e 68 1e 5a 3b
       -0.04830303 -0.03856902 0.12578295 0.0033282284
000140 4a fe dd bd f3 e3 cc 3d 18 c1 11 3c 3d 1f 53 3d
       -0.108395174 0.10004415 0.008896135 0.051543463
000150 3d ba 20 be 6b c3 53 3d a2 96 82 3b 58 65 b0 3d
       -0.15696044 0.051700037 0.003985242 0.0861308
000160 33 dc e1 bd a6 f4 07 be 8c 4b 34 bc 71 0a 2a be
       -0.11028328 -0.1327692 -0.01100434 -0.16605546
000170 19 f8 00 3e a4 9f 5f 3e f9 53 1d be 4a ca 26 bd
       0.12594642 0.21838242 -0.15364064 -0.04072026
000180 d4 94 2b 3b 3b 3d 10 3e 04 45 32 3e 34 83 e4 ba
       0.0026181238 0.14085858 0.1740914 -0.0017434121
000190 d3 4a 56 3d e5 03 3b 3d 36 c4 70 3e ef 80 07 3e
       0.05231745 0.04565801 0.23512349 0.13232778
0001a0 83 4d b6 3d f6 4b 57 3d f7 32 cc bd 11 21 2b 3e
       0.08901503 0.052562676 -0.09970658 0.16711833
0001b0 e1 f0 02 bd 35 26 0d be 76 81 0f 3e 15 77 e2 bd
       -0.031968 -0.13784106 0.14014229 -0.11057869
0001c0 fa a7 ea 3d c2 74 65 3d 2f b0 20 be 68 fc 39 3c
       0.1145782 0.056019552 -0.15692209 0.011351682
0001d0 90 66 df bd 27 a0 d8 3b 85 67 b9 3d 02 46 ad 3d
       -0.10908234 0.0066108885 0.09052948 0.084606186
0001e0 d0 53 79 bd 51 17 c9 bd 06 f7 1f 3e 35 14 60 3d
       -0.060870945 -0.098189004 0.15621576 0.05470677
0001f0 85 01 26 3d f3 57 a5 3c e3 36 25 3e b1 8a f3 3c
       0.040528793 0.020183539 0.16134219 0.02972922
000200 26 40 40 3e e4 55 c4 bc 8d 2b 25 be d3 f7 0c 3e
       0.1877447 -0.023966737 -0.16129895 0.13766412
000210 70 51 26 3c a3 65 e5 bc 25 5a 9d be 82 c9 12 3d
       0.010151252 -0.028002566 -0.30732837 0.035836704
000220 6e 86 4c be 8e 7e 2c be ff ba 50 3e 4c 33 03 3e
       -0.19973156 -0.16845152 0.20383833 0.12812537
000230 1d 26 cb 3d fb 46 40 bd de 02 ef bd 43 0b 0d 3d
       0.09919379 -0.046942692 -0.11670469 0.034434568
000240 52 db ef bc 4f ef 79 be c8 9d a0 3e 0e a3 ce bd
       -0.029279385 -0.24407695 0.31370378 -0.10089694
000250 0f 9b 0b 3e 52 3d 09 be f8 06 66 be 00 9c 1e 3d
       0.13633369 -0.13402298 -0.22463596 0.038722992
000260 b0 a1 b6 bd 95 c2 b3 bd b1 90 70 be f3 74 ee 3d
       -0.08917558 -0.08777348 -0.23492695 0.116434
000270 f9 35 65 be fb a6 a1 3d b3 b1 78 be ed ad 38 bd
       -0.2238387 0.07893177 -0.24286537 -0.045087744
000280 11 ab 63 bc b3 e9 f8 3d 85 b8 72 be cc 45 c6 3d
       -0.013895766 0.121539496 -0.23703201 0.096812814
000290 ea ad 5a 3e e1 be e3 bd 84 77 78 be 45 32 ea bd
       0.21355405 -0.11120392 -0.24264342 -0.114353694
0002a0 62 a0 e8 3c 2e f3 26 be 01 38 ca bc 21 67 39 be
       0.028396789 -0.16303703 -0.024684908 -0.18105747
0002b0 84 dc 02 3e 4b f5 28 be 86 b8 9b bc 05 50 31 3e
       0.12779433 -0.16499822 -0.019008886 0.17315681
0002c0 c0 06 ca 3d 7d 00 24 be e2 ff 03 3e 6a 34 4e be
       0.09864569 -0.16015811 0.1289058 -0.20137182
0002d0 63 5e 51 bd 0a 2b 07 bc fd a1 48 be 52 70 7d 3e
       -0.051115405 -0.008250007 -0.19593044 0.24749878
0002e0 24 37 60 3d 9d 07 1c be 96 5c 84 bd a7 b7 61 bc
       0.054740086 -0.15237279 -0.06462972 -0.013776696
0002f0 43 58 8f be 33 48 36 3d c1 1d 01 be 3c 61 07 3e
       -0.27997026 0.04450245 -0.12609006 0.13220686
000300 a7 45 8a be 9a 07 92 3b 85 ea 6b 3e 96 be 56 be
       -0.27006266 0.0044564726 0.23038681 -0.2097114
000310 f9 15 5e be 67 15 1c 3e fe de fa 3c 44 ba 79 bd
       -0.2168807 0.1524254 0.03062391 -0.060968652
000320 2b e0 d3 3d 05 fd 01 3d 4a dd 50 be 18 7b e0 3d
       0.10345491 0.03173544 -0.20396915 0.10960978
000330 2f 95 20 bc f4 45 0f bd 1a b8 26 3e 3a 24 a7 bd
       -0.009801193 -0.034978822 0.16281167 -0.081612065
000340 4e 61 d4 3c f5 d0 4c 3e 43 f7 af 3d 49 7c 26 3e
       0.025925305 0.20001586 0.08592083 0.16258349
000350 d6 97 35 be 0e 46 93 bb f5 07 43 3e ca 9d 49 be
       -0.17733702 -0.004494435 0.19046004 -0.19689098
000360 a7 b6 1f 3c 25 ef ea 3d b8 86 06 3e 0c 30 02 be
       0.009748138 0.114713944 0.13137329 -0.12713641
000370 ee 3c bf 3d 30 eb e2 3c 62 d4 25 3e 72 d9 40 be
       0.09337793 0.027700037 0.16194299 -0.18832949
000380 a3 1e e4 3c 6f 79 28 bc 8c 96 73 3e 6c aa 10 be
       0.02784664 -0.010282858 0.23787898 -0.14127511
000390 4c 61 88 3d 9f 7e e3 3d eb 96 55 3d 5a 19 02 3e
       0.06659183 0.111081354 0.05214588 0.12704983
0003a0 06 b9 28 3e 69 2f 92 bd 30 0e 17 be b4 2d 41 bd
       0.16476831 -0.07137949 -0.14751506 -0.047162727
0003b0 9c e5 0c be 16 1f 03 be 6a fe 51 bd 5c 56 a3 3d
       -0.13759464 -0.12804827 -0.05126802 0.07975456
0003c0 7d 68 92 bd 39 e5 26 3d 12 ac da bd 3f 98 61 3e
       -0.07148836 0.040745948 -0.10677351 0.22030734
0003d0 84 05 71 be 24 e6 9c bd 4f 2c 26 3e fc 75 05 be
       -0.2353726 -0.07661083 0.1622784 -0.13033289
0003e0 aa f9 58 be 09 31 20 bc 20 a1 f4 bd 77 6d a3 bd
       -0.2118899 -0.009777316 -0.11944795 -0.07979863
0003f0 01 a3 6a bd 47 b0 e8 bd 7e 90 be 3d 2a 9f 69 be
       -0.05728436 -0.11361747 0.093049034 -0.22814623

fc.4.bias f4 [16]
000000 49 0f 9d bd 2a 3b 03 be 80 ce 4c 3d a8 47 a5 bb
       -0.07668931 -0.12815538 0.05000162 -0.0050439425
000010 a9 f4 8f 3d 84 af d0 bd 9e bd 17 be 41 1a 31 be
       0.07029087 -0.10189727 -0.14818427 -0.17295171
000020 3e 17 cd 3c 89 7a b0 bd 43 8c 21 bd 4d 8f 13 be
       0.025035497 -0.08617122 -0.039440405 -0.14410134
000030 da 79 0f 3e 3b 15 a3 3d de 43 34 3e df c8 19 3e
       0.14011326 0.07963034 0.17604014 0.15018032

fc.6.weight f4 [2, 16]
000000 d0 05 97 be e2 5c 9f be 4e 95 eb bd 95 a7 30 be
       -0.29496622 -0.3112555 -0.11503087 -0.17251427
000010 9d 55 96 3e 1b ef b1 3e 25 75 a4 be 21 01 52 be
       0.29362193 0.34752735 -0.32120624 -0.20508243
000020 11 3c 1a 3e 31 ab 7a 3e 05 e6 64 3e 90 43 6c be
       0.15061976 0.24479367 0.2235337 -0.23072648
000030 35 16 61 be bf 58 95 be 43 d8 53 3d a8 a6 aa be
       -0.21981128 -0.2916927 0.051719915 -0.33330274
000040 ce 32 76 3d fb 2c bc 3c 33 9a 13 3e 8f 8e 02 3e
       0.060107045 0.022970667 0.14414291 0.12749694
000050 99 a1 1b 3e e1 cb 25 3d 14 f0 54 3e 48 71 04 3e
       0.15198363 0.040477637 0.20794708 0.12933838
000060 88 0f 1e be a7 91 5e bd 08 b0 2b 3e e1 c7 57 3e
       -0.15435612 -0.054338124 0.1676637 0.21072342
000070 cb da 08 3e 68 50 ff bd 1c 61 6f be ed 3c 5c 3e
       0.13364713 -0.12466508 -0.23376888 0.21507616

fc.6.bias f4 [2]
000000 92 92 06 be 21 05 37 be
       -0.1314185 -0.1787305
