4.PPO/ckpt/InvertedPendulum-v5_PPO_episode_227_reward_953.pth (torch, 8532 bytes, 8 tensors)

fc.0.weight f4 [16, 4]
-0.06674507 -0.3001032 0.29870975 -0.4547164 0.19681056 -0.50847924 -0.40395507 -0.076960415
0.19783029 0.65999377 0.3468043 0.2743709 0.043236617 -0.66704506 -0.4379372 0.41565478
-0.3363893 0.921728 0.2575731 -0.32853785 0.27900645 -0.5606768 0.2160018 -0.48588344
0.369753 0.63689995 0.1669168 0.21343233 0.38383394 0.2867944 0.30909172 0.443742
0.0019015938 0.42278698 -0.411245 0.1485614 0.16940992 0.07796192 -0.29530042 0.31639978
0.009128845 0.9131765 0.40570137 0.24263422 -0.10007095 -0.6852321 -0.30502263 -0.3137362
-0.46715644 -0.8731415 -0.13732398 -0.43214515 -0.22321509 0.73292595 -0.07894638 0.29083955
0.0049172733 -0.44499433 0.1781046 -0.44988427 -0.13815047 0.45823756 -0.100162074 -0.49739823
00000000: a4b1 88bd 20a7 99be 7cf0 983e 97d0 e8be
00000010: b588 493e b22b 02bf 33d3 cebe 6c9d 9dbd
00000020: 0694 4a3e 5af5 283f 5590 b13e 587a 8c3e
00000030: e118 313d 77c3 2abf 4e39 e0be b4d0 d43e
00000040: 383b acbe 5ef6 6b3f 9fe0 833e 1d36 a8be
00000050: efd9 8e3e 8488 0fbf 932f 5d3e b7c5 f8be
00000060: 4450 bd3e e00b 233f 3dec 2a3e 018e 5a3e
00000070: e285 c43e b7d6 923e 4541 9e3e 2732 e33e
00000080: e63e f93a 8977 d83e b48e d2be 7b20 183e
00000090: cb79 2d3e 80aa 9f3d 9e31 97be 27ff a13e
000000a0: 2791 153c efc5 693f 17b8 cf3e 1b75 783e
000000b0: 00f2 ccbd 5f6b 2fbf ed2b 9cbe 08a2 a0be
000000c0: 212f efbe 3486 5fbf a89e 0cbe 2142 ddbe
000000d0: 7f92 64be 09a1 3b3f a4ae a1bd ece8 943e
000000e0: 1421 a13b 4cd6 e3be 0d61 363e 3b57 e6be
000000f0: 5177 0dbe 1d9e ea3e c621 cdbd fbaa febe

fc.0.bias f4 [16]
0.13590683 0.20081368 0.17004223 0.16100186 0.3734815 -0.3680558 -0.09378132 0.47056744
-0.3596944 -0.08437241 -0.17706697 -0.009763072 -0.039903875 -0.23506117 0.19765441 -0.17685618
00000000: 292b 0b3e 1aa2 4d3e 8d1f 2e3e acdd 243e
00000010: f838 bf3e cf71 bcbe 6c10 c0bd 37ee f03e
00000020: dd29 b8be 71cb acbd 0b51 35be 4bf5 1fbc
00000030: 3f72 23bd e0b3 70be eb65 4a3e c919 35be

fc.2.weight f4 [32, 16]
-0.012026742 -0.23568991 -0.1679301 -0.059814055 -0.18046829 0.1110175 -0.0051594973 -0.14163035
0.3049916 0.294703 0.021307038 -0.103198834 0.060354166 0.18957025 -0.13452204 -0.03253239
0.10503106 -0.025006713 0.16544004 0.106353275 0.083412685 -0.27779096 0.10712503 -0.15456897
-0.13410501 -0.19493757 0.37661076 -0.29028305 -0.23603493 0.21739802 0.15996124 -0.19043103
0.18578255 0.3086304 0.12593678 0.09454551 0.041886102 0.011216831 0.19083302 0.3174869
-0.14968912 0.13515334 0.07258966 0.1654663 -0.19637388 0.15631282 0.05330062 -0.054607637
-0.15298668 0.11732652 -0.32887557 0.00023976152 0.007912211 0.14586395 -0.21619532 -0.2615885
-0.18445762 0.10506028 -0.11799662 -0.019019853 0.21314555 0.12530461 0.21075223 0.08989989
0.057907913 0.17476285 0.11527882 0.051300667 0.11795631 0.041304115 -0.27299607 0.31484735
0.089102134 -0.08977022 -0.28634048 0.22464728 0.12168373 -0.012531154 0.26156497 -0.037220273
-0.037543055 -0.17870972 -0.13387491 0.02131186 -0.13471237 0.008812232 -0.17897218 -0.3317697
-0.10611074 0.26354304 -0.036988538 -0.06905781 0.019350525 -0.12172562 -0.15629764 0.23943646
-0.07391605 -0.016653035 -0.08542002 0.2376005 -0.2330121 0.14424738 -0.14522927 -0.23790962
0.17991002 -0.17562926 -0.1859882 -0.07213258 0.04471618 -0.02237238 0.27058774 0.14921433
0.062753685 0.05496396 0.02598038 0.13452457 -0.19387959 0.31477687 -0.2448321 -0.28718954
0.045499586 0.12915093 -0.43439588 0.067882314 0.07922404 0.03643555 0.1429141 -0.04324635
0.02990707 0.21910419 -0.15775876 0.20617421 -0.08325402 0.12770174 -0.22571088 -0.1992797
-0.11020256 -0.044915803 -0.42850503 0.27715033 -0.09526258 -0.3109976 0.16572514 -0.15052435
0.08710379 -0.13119012 0.37351575 0.04064294 0.02077888 -0.22150749 0.23254202 0.340139
0.055599567 -0.04369755 0.067775965 0.09068315 -0.04211448 0.10904507 0.11836212 -0.10748166
-0.021993095 -0.08357035 -0.32875204 -0.16526766 -0.103939086 0.045999702 0.024045624 0.0696297
0.049073603 0.1892232 -0.35250694 0.044582743 0.23247318 -0.012382404 -0.15143248 -0.24437189
-0.032606583 0.07090525 0.00815784 0.23750886 -0.29958194 0.14863952 -0.16346395 -0.08125345
0.16264687 -0.1185984 -0.0061614495 0.0429903 0.3326404 0.081262946 0.25257644 -0.0076642507
0.13474593 0.023280704 -0.2138305 0.14430659 0.1623292 0.16603474 0.103507966 0.037941378
-0.071125336 0.26135725 -0.35901904 0.17146772 0.054916717 -0.17309995 -0.07890247 -0.16737814
0.037785817 0.125749 -0.19617204 -0.039975658 -0.24993163 0.17743403 -0.03664714 -0.060996626
-0.035298295 -0.10198221 -0.044380117 0.39582723 0.044832062 0.15476066 -0.17689908 -0.18646978
-0.08223599 -0.29237825 0.24820258 -0.15674071 0.10161384 0.056169584 0.048878714 -0.00070157496
0.22447337 0.16955812 0.20998815 -0.06977978 -0.2767587 -0.11758613 -0.10446668 -0.018287519
0.10064956 -0.14474124 -0.10195074 -0.10369522 -0.008080796 -0.204732 0.029436275 0.22726297
-0.1934303 0.07416156 0.004569561 -0.15691572 -0.19709718 0.19626035 -0.20803316 0.17977858
00000000: d00b 45bc b258 71be def5 2bbe 95ff 74bd
00000010: aecc 38be 255d e33d 0011 a9bb 8c07 11be
00000020: dc27 9c3e 50e3 963e 198c ae3c e959 d3bd
00000030: ee35 773d b41e 423e 25c0 09be af40 05bd
00000040: 861a d73d e1da ccbc 1d69 293e bfcf d93d
00000050: 45d4 aa3d 9e3a 8ebe 5e64 db3d 5447 1ebe
00000060: d352 09be b79d 47be 20d3 c03e fb9f 94be
00000070: 24b3 71be 969d 5e3e e1cc 233e 5a00 43be
00000080: c83d 3e3e ce04 9e3e 92f5 003e 14a1 c13d
00000090: c390 2b3d cdc6 373c bb69 433e a58d a23e
000000a0: 1b48 19be a365 0a3e e3a9 943d ff6f 293e
000000b0: 3c16 49be 7810 203e c051 5a3d 42ac 5fbd
000000c0: 8aa8 1cbe e348 f03d 6162 a8be 7e68 7b39
000000d0: 38a2 013c 5c5d 153e 4e62 5dbe eeee 85be
000000e0: 75e2 3cbe d829 d73d 36a8 f1bd 86cf 9bbc
000000f0: d442 5a3e da4f 003e 6fcf 573e 6f1d b83d
00000100: d930 6d3d 08f5 323e 4d17 ec3d a620 523d
00000110: 1493 f13d 812e 293d 24c6 8bbe ac33 a13e
00000120: 2e7b b63d 73d9 b7bd 389b 92be f009 663e
00000130: 5235 f93d 784f 4dbc d8eb 853e 4974 18bd
00000140: bfc6 19bd aeff 36be 8116 09be 3696 ae3c
00000150: 0af2 09be 2e61 103c 7c44 37be b8dd a9be
00000160: 9650 d9bd 1def 863e 4b81 17bd 2e6e 8dbd
00000170: fe84 9e3c 484b f9bd 7d0c 20be d52e 753e
00000180: 4c61 97bd f26b 88bc b1f0 aebd 8c4d 733e
00000190: b99a 6ebe 96b5 133e fbb6 14be 949e 73be
000001a0: 553a 383e 28d8 33be b173 3ebe 3fba 93bd
000001b0: 5028 373d 4846 b7bc 7a8a 8a3e a4cb 183e
000001c0: 0185 803d e421 613d ced4 d43c cfc0 093e
000001d0: 5f88 46be 6f2a a13e 44b5 7abe 820a 93be
000001e0: c65d 3a3d 2440 043e 2369 debe e205 8b3d
000001f0: 3740 a23d 713d 153d 1358 123e 1623 31bd
00000200: acff f43c d95c 603e 838b 21be 551f 533e
00000210: 1581 aabd 3fc4 023e c120 67be fa0f 4cbe
00000220: e1b1 e1bd a2f9 37bd 0365 dbbe a6e6 8d3e
00000230: 0719 c3bd 143b 9fbe dab3 293e 0e23 1abe
00000240: 7963 b23d b456 06be 753d bf3e 3679 263d
00000250: 7838 aa3c dcd2 62be 7f1f 6e3e b326 ae3e
00000260: 5fbc 633d 34fc 32bd 20ce 8a3d 16b8 b93d
00000270: 3c80 2cbd 0653 df3d d767 f23d 581f dcbd
00000280: dd2a b4bc ef26 abbd 3052 a8be ed3b 29be
00000290: 04de d4bd 2f6a 3c3d 54fb c43c 049a 8e3d
000002a0: 6701 493d bac3 413e ca7b b4be 659c 363d
000002b0: 730d 6e3e 91df 4abc 1e11 1bbe a03c 7abe
000002c0: 7b8e 05bd c636 913d 76a8 053c 8635 733e
000002d0: ce62 99be f534 183e 1863 27be 3568 a6bd
000002e0: e78c 263e b8e3 f2bd fce5 c9bb 9916 303d
000002f0: d84f aa3e 306d a63d b351 813e 6524 fbbb
00000300: d6fa 093e 2db7 be3c 62f6 5abe 1bc5 133e
00000310: a039 263e 0305 2a3e fcfb d33d 6b68 1b3d
00000320: 29aa 91bd 9ed0 853e 58d1 b7be 3c95 2f3e
00000330: 5af0 603d 1d41 31be 9e97 a1bd 2d65 2bbe
00000340: 4dc5 1a3d 59c4 003e 53e1 48be 84bd 23bd
00000350: 14ee 7fbe 44b1 353e 501b 16bd 99d7 79bd
00000360: f294 10bd 0ddc d0bd edc7 35bd dea9 ca3e
00000370: d3a1 373d 9479 1e3e 0825 35be eff1 3ebe
00000380: 586b a8bd 9ab2 95be d128 7e3e a380 20be
00000390: eb1a d03d 1412 663d 0c35 483d e6e9 37ba
000003a0: 59dc 653e a5a0 2d3e 2207 573e b4e8 8ebd
000003b0: 51b3 8dbe ffd0 f0bd a0f2 d5bd b5cf 95bc
000003c0: 5b21 ce3d 0c37 14be 8dcb d0bd 295e d4bd
000003d0: 5165 04bc 44a5 51be 5824 f13c a0b7 683e
000003e0: 9812 46be 04e2 973d 42bc 953b 84ae 20be
000003f0: d8d3 49be 79f8 483e a506 55be e017 383e

fc.2.bias f4 [32]
-0.15757811 -0.003826377 0.19647567 -0.09849309 0.22865194 -0.13993394 0.09171626 0.19428062
-0.11358039 0.2802931 -0.06520789 0.09727596 -0.18237339 -0.10426583 0.048049487 0.0827785
0.035684444 -0.16510357 -0.012458634 0.051415898 -0.12857679 0.30678543 -0.11421372 -0.10691064
-0.12594742 0.21380885 0.1691939 0.22112262 0.26475993 0.030542139 -0.025851667 -0.1033505
00000000: 285c 21be f4c3 7abb eb30 493e bfb6 c9bd
00000010: bc23 6a3e d84a 0fbe bcd5 bb3d 80f1 463e
00000020: d69c e8bd 9482 8f3e b78b 85bd 9e38 c73d
00000030: 17c0 3abe 5389 d5bd 8acf 443d c687 a93d
00000040: da29 123d e910 29be 4c1f 4cbc 7a99 523d
00000050: a2a9 03be fb12 9d3e e2e8 e9bd f7f3 dabd
00000060: 5cf8 00be b5f0 5a3e 2a41 2d3e f86d 623e
00000070: 9d8e 873e 8233 fa3c e0c6 d3bc 6da9 d3bd

fc.4.weight f4 [16, 32]
0.16724563 -0.31447095 -0.07448144 0.031772476 0.021627294 -0.0266331 0.16428448 0.35017633
0.26142687 -0.0976209 0.26827234 0.13251173 0.12577213 -0.012722931 -0.08770689 0.08970929
-0.06899903 0.19765756 0.113664255 -0.12113684 0.05728669 0.15311301 -0.27302533 0.1286938
-0.062100902 0.08802742 -0.057738055 0.123764776 0.057608657 -0.14876638 0.00011991116 -0.024162913
0.012865376 -0.0085750045 0.20007347 0.0014307973 0.08663436 -0.22217606 -0.030631552 0.0122496765
-0.18460463 -0.048353568 -0.1763732 -0.11061962 -0.075460106 -0.1639366 0.075133815 -0.06556814
-0.123966105 0.121800035 0.033416666 0.12103378 -0.03881671 0.15226837 -0.041118745 0.014745802
-0.13686883 -0.11059692 -0.00018263262 -0.06359756 -0.016161025 0.18780568 0.036145452 0.12802869
0.2405059 -0.29299504 0.08785956 0.072984025 0.055037457 0.23705854 0.16929345 0.044849556
0.20396538 -0.18936865 0.08109074 0.17976433 0.019658146 0.14523393 -0.20804581 -0.14691225
-0.015759738 -0.054342765 0.22144414 0.02880328 -0.1154399 0.021880994 -0.23048584 0.21317896
0.0016458577 -0.14473021 -0.14395596 -0.18747231 0.026941549 0.07286676 0.06107059 -0.05179741
0.051202856 0.2813841 0.032442886 -0.18167286 -0.042181585 -0.17218223 -0.08443903 -0.009965387
-0.18935466 0.03675192 -0.23462988 -0.018786985 -0.06930993 -0.03592032 -0.08245978 0.07945473
-0.14159168 -0.02687868 -0.05003526 0.20668675 0.08856386 0.08574948 0.20469932 0.0068978583
0.21119381 -0.14205556 -0.05346003 0.109416015 0.20670338 0.031258367 -0.060327265 0.22518162
-0.121116355 0.11388007 0.25131947 -0.24244262 0.09562042 -0.05523974 -0.24557687 -0.0012893298
0.07078984 0.024153369 -0.011372664 -0.09411656 -0.16376522 -0.12655427 0.038614918 0.09932472
0.07956482 -0.14726447 -0.10767902 0.14227773 -0.016670404 0.021217309 -0.070431724 -0.28786394
-0.013198848 0.07386452 0.23824663 0.08009633 0.0041293427 0.025417328 -0.21887374 -0.22549823
-0.03582529 -0.0839505 -0.07220322 0.23260677 -0.0076092817 -0.06824769 0.020735597 0.02807997
0.29446393 0.09651177 0.13758564 0.26894876 0.111723244 0.20274614 -0.082162544 -0.21397902
0.21443367 0.18861085 0.009588216 0.0059217643 -0.1764893 -0.11771954 -0.29171884 -0.026803592
-0.10682727 0.065149814 -0.043774977 0.00041351636 -0.00726578 -0.01921672 -0.10484732 -0.23322532
0.04298042 -0.116571404 -0.22397314 0.119956866 -0.16172856 0.16710192 -0.067468956 0.086261995
-0.0020953815 -0.09950967 0.21748285 0.019353427 -0.04216586 -0.022314826 -0.23127662 -0.21437947
0.16562843 0.20156565 0.23806436 -0.112917796 0.0684274 -0.13760413 -0.07553676 0.12859032
-0.09186916 -0.07989648 -0.23043899 -0.1579683 -0.2408743 -0.18354031 -0.146557 0.08578507
-0.13073641 -0.23983493 -0.19850482 0.19345812 -0.08344738 0.1426902 0.07092835 0.10092577
0.3089438 -0.012842073 -0.09143168 0.112288445 0.21649681 -0.10122687 -0.27428755 0.06224068
0.07960041 0.15222073 0.0031171332 -0.064633265 -0.19662015 0.0695612 -0.24934408 -0.09330674
-0.13657324 0.10139742 0.021814093 -0.022362364 -0.050837137 -0.15363935 0.10940703 -0.30328575
00000000: 7042 2b3e 5602 a1be ba89 98bd db23 023d
00000010: b92b b13c a92d dabc 313a 283e 504a b33e
00000020: bed9 853e 77ed c7bd fe5a 893e 28b1 073e
00000030: 69ca 003e d773 50bc ac9f b3bd 81b9 b73d
00000040: 5d4f 8dbd be66 4a3e cec8 e83d 9716 f8bd
00000050: 73a5 6a3d a8c9 1c3e fac9 8bbe 4fc8 033e
00000060: 845d 7ebd b847 b43d bd7e 6cbd 6378 fd3d
00000070: 0ef7 6b3d 3756 18be d078 fb38 4df1 c5bc
00000080: 4cc9 523c 2d7e 0cbc 0fe0 4c3e 9789 bb3a
00000090: 5b6d b13d 1f82 63be 05ef fabc deb2 483c
000000a0: ff08 3dbe 640e 46bd 2d9b 34be 8a8c e2bd
000000b0: d48a 9abd ffde 27be c2df 993d 9748 86bd
000000c0: f1e1 fdbd 4c72 f93d eadf 083d 8fe0 f73d
000000d0: 45fe 1ebd 3dec 1b3e 216c 28bd 6098 713c
000000e0: 5827 0cbe a380 e2bd 1281 3fb9 703f 82bd
000000f0: 2064 84bc 2250 403e 410d 143d f419 033e
00000100: 2e47 763e 7203 96be b7ef b33d a678 953d
00000110: f56e 613d 79bf 723e 435b 2d3e 2bb4 373d
00000120: 4ddc 503e dbe9 41be e712 a63d 2414 383e
00000130: 1f0a a13c 34b8 143e f609 55be 2a70 16be
00000140: 911a 81bc 8596 5ebd 41c2 623e dbf4 eb3c
00000150: c16b ecbd c53f b33c 7b04 6cbe 964b 5a3e
00000160: d2b9 d73a 2834 14be 3169 13be bef8 3fbe
00000170: 86b4 dc3c 2b3b 953d 2825 7a3d 8529 54bd
00000180: 16ba 513d 9411 903e d5e2 043d 7308 3abe
00000190: 99c6 2cbd 8a50 30be 5fee acbd dd45 23bc
000001a0: 30e6 41be 2e89 163d d142 70be 2ae7 99bc
000001b0: 5df2 8dbd 2f21 13bd ace0 a8bd 29b9 a23d
000001c0: 69fd 10be ad30 dcbc c6f1 4cbd b1a5 533e
000001d0: f860 b53d 6c9d af3d b39c 513e 6e07 e23b
000001e0: 3143 583e 0377 11be e8f8 5abd 8115 e03d
000001f0: 0daa 533e c608 003d b919 77bd 0396 663e
00000200: da0b f8bd f439 e93d f2ac 803e e142 78be
00000210: a4d4 c33d 1143 62bd 8178 7bbe bbfe a8ba
00000220: 43fa 903d 49dd c53c 6954 3abc 2fc0 c0bd
00000230: 12b2 27be 7197 01be ad2a 1e3d c26a cb3d
00000240: e1f2 a23d 7fcc 16be d186 dcbd 41b1 113e
00000250: 5f90 88bc eccf ad3c 823e 90bd e762 93be
00000260: fb3f 58bc 4846 973d edf6 733e 8b09 a43d
00000270: 704f 873b 0038 d03c 7020 60be 02e9 66be
00000280: 8abd 12bd 3dee abbd 48df 93bd 7830 6e3e
00000290: 4857 f9bb 72c5 8bbd b3dd a93c f707 e63c
000002a0: fac3 963e f6a7 c53d 40e3 0c3e a7b3 893e
000002b0: 28cf e43d af9c 4f3e d644 a8bd 511d 5bbe
000002c0: 8094 5b3e 3423 413e e517 1d3c 5c0b c23b
000002d0: 9cb9 34be f116 f1bd 2c5c 95be 3593 dbbc
000002e0: 41c8 dabd 446d 853d 644d 33bd 3acd d839
000002f0: c815 eebb 626c 9dbc 31ba d6bd 9ed2 6ebe
00000300: 3d0c 303d fdbc eebd 3759 65be f2ab f53d
00000310: 2c9c 25be c41c 2b3e 2a2d 8abd 21aa b03d
00000320: ab52 09bb bacb cbbd d3b3 5e3e 148b 9e3c
00000330: 1cb6 2cbd 95cd b6bc c7d3 6cbe 4b86 5bbe
00000340: 809a 293e 3a67 4e3e 25c7 733e 7241 e7bd
00000350: aa23 8c3d 19e8 0cbe 04b3 9abd 2ead 033e
00000360: e625 bcbd c4a0 a3bd 33f8 6bbe 71c2 21be
00000370: c1a7 76be fef1 3bbe 0a13 16be 15b0 af3d
00000380: c4df 05be 4a97 75be d944 4bbe e319 463e
00000390: 76e6 aabd 611d 123e e242 913d 2cb2 ce3d
000003a0: e22d 9e3e 8f67 52bc 8840 bbbd 7cf7 e53d
000003b0: 57b1 5d3e 0950 cfbd 6b6f 8cbe 15f0 7e3d
000003c0: 8a05 a33d c0df 1b3e d148 4c3b 725e 84bd
000003d0: cb56 49be 1a76 8e3d 0e54 7fbe 9b17 bfbd
000003e0: dbd9 0bbe 73a9 cf3d 78b3 b23c 4731 b7bc
000003f0: 9a3a 50bd a253 1dbe cb10 e03d 4548 9bbe

fc.4.bias f4 [16]
-0.12014586 -0.021049857 -0.09610356 0.15224473 0.24236949 -0.012856529 0.06446831 -0.099028975
0.23722918 -0.08748477 -0.16145208 -0.12616755 0.034313295 0.11514074 -0.04496023 -0.053787228
00000000: 080f f6bd c070 acbc f1d1 c4bd 0be6 1b3e
00000010: b52f 783e 31a4 52bc f607 843d b4cf cabd
00000020: 35ec 723e 372b b3bd b253 25be 1132 01be
00000030: 198c 0c3d e9ce eb3d 3828 38bd ff4f 5cbd

fc.6.weight f4 [2, 16]
-0.14630146 0.08336404 -0.2407125 0.17909032 0.03434211 -0.1771372 -0.29065636 -0.17442733
-0.09110853 0.25480136 -0.32019296 -0.15059574 -0.28163 0.37284902 0.24809822 -0.2738916
0.08638657 -0.06486992 0.31379336 -0.113619305 -0.2692967 0.0042486135 0.23534779 -0.021610208
-0.17243013 0.09595071 0.16740303 0.31906515 -0.21578112 0.220544 -0.096681096 -0.15183266
00000000: 0dd0 15be c4ba aa3d 567d 76be 7463 373e
00000010: 50aa 0c3d 7463 35be e9d0 94be 149d 32be
00000020: 1c97 babd 5375 823e 55f0 a3be c535 1abe
00000030: cf31 90be 11e6 be3e 760d 7e3e 853b 8cbe
00000040: 71eb b03d 85da 84bd 86a9 a03e 3db1 e8bd
00000050: 42e1 89be f437 8b3b 03ff 703e e407 b1bc
00000060: 8691 30be ce81 c43d b36b 2b3e 825c a33e
00000070: baf5 5cbe 49d6 613e bd00 c6bd 057a 1bbe

fc.6.bias f4 [2]
-0.1727926 -0.08850682
00000000: 8bf0 30be 1043 b5bd
