4.PPO/ckpt/InvertedPendulum-v5_PPO_episode_460_reward_956.pth (torch, 8532 bytes, 8 tensors)

fc.0.weight f4 [16, 4]
0	0x3eb24f3a	0.3482607
1	0x3d06a8e9	0.03287593
2	0x3eebac88	0.46030068
3	0x3ebb4659	0.36577109
4	0xbd957c4a	-0.07299097
5	0x3e9b0893	0.3027998
6	0x3e4eeaef	0.20206808
7	0x3ed5cf58	0.41759753
8	0xbed51fe5	-0.41625896
9	0xbf30e324	-0.6909659
10	0xbefa8fda	-0.48937875
11	0xbdcd2408	-0.10016638
12	0xbdc61937	-0.09672778
13	0xbe4725c0	-0.19447994
14	0x3e7acb24	0.24491554
15	0xbeee7717	-0.46575233
16	0x3dbd355c	0.09238693
17	0x3ef4a1d1	0.47779706
18	0xbe11068e	-0.14162657
19	0x3d98b12f	0.0745567
20	0xbe7a11a3	-0.2442079
21	0x3d4a1fb4	0.04934664
22	0xbf01387f	-0.5047683
23	0xbf047eb4	-0.51755834
24	0xbee99b4a	-0.4562629
25	0x3ef16a51	0.47151425
26	0xbdd4494c	-0.10365543
27	0x3f148251	0.5801135
28	0x3d6d745c	0.057972297
29	0xbf462190	-0.7739496
30	0xbdb1046f	-0.08643424
31	0xbf08914b	-0.533467
32	0xbee0bfb2	-0.43896252
33	0x3ced6f6e	0.028983798
34	0x3ee8fcc6	0.4550535
35	0x3e77eeb9	0.24212159
36	0xbcf1334c	-0.029443406
37	0xbebf5a9a	-0.3737381
38	0x3e03813a	0.12842265
39	0xbf033269	-0.51248795
40	0x3ee7d24f	0.4527764
41	0x3eefddc4	0.4684888
42	0x3d7bf4b6	0.06151267
43	0xbeda2895	-0.42609087
44	0x3e84579b	0.25848088
45	0xbf45b67e	-0.77231586
46	0x3dea3f14	0.114378124
47	0xbe410543	-0.18849663
48	0xbe5b2c22	-0.21403554
49	0x3f2d66f9	0.6773525
50	0xbe8116c9	-0.25212696
51	0x3e23437a	0.15943709
52	0xbe9aeaf1	-0.3025737
53	0xbe272f0e	-0.16326544
54	0xbde9442d	-0.113899566
55	0xbf08a256	-0.53372705
56	0xbec7931b	-0.3897942
57	0xbe59a4b0	-0.2125423
58	0x3eee1e90	0.46507692
59	0x3e026ee6	0.12737617
60	0xbe486e0b	-0.19573228
61	0xbf4407eb	-0.7657458
62	0xbef19496	-0.47183675
63	0x3e6f5a19	0.23374213

fc.0.bias f4 [16]
0	0x3ec0cd6e	0.3765673
1	0x3e2bcf49	0.16778292
2	0xbecc9ac0	-0.39961815
3	0xbe0c0e38	-0.13677299
4	0xbb06c017	-0.0020561272
5	0x3ed18272	0.40919834
6	0xbe116b29	-0.14201035
7	0x3e2522a6	0.16126499
8	0x3ee55a05	0.44795242
9	0x3ee22c98	0.44174647
10	0x3efe3385	0.4964868
11	0x3e51dfd6	0.20495543
12	0x3db6ffc1	0.089355
13	0xbb4ec68b	-0.0031551446
14	0xbe1477eb	-0.1449887
15	0x3ec48af7	0.38387272

fc.2.weight f4 [32, 16]
0	0x3e1c93a6	0.15290698
1	0x3e63cf31	0.22247006
2	0xbdcddb17	-0.10051554
3	0xbe893c19	-0.26803663
4	0xbe063128	-0.13104689
5	0xbd2b6a93	-0.041849684
6	0xbd29da38	-0.041467875
7	0xbe2895c8	-0.16463387
8	0x3e1bd836	0.15219197
9	0x3e09bf31	0.1345184
10	0x3e2fea2d	0.17179175
11	0x3e681a60	0.22666311
12	0x3e9f0a89	0.31062725
13	0xbe3630b3	-0.17792015
14	0xbe5896e3	-0.21151309
15	0x3ceb858c	0.028750204
16	0xbdcb45b1	-0.09925402
17	0x3e8041c2	0.2505017
18	0xbe9b9118	-0.30384135
19	0xbd216779	-0.03940532
20	0x3e762380	0.2403698
21	0xbe0d8d05	-0.13823326
22	0x3e9c4559	0.30521658
23	0xbebffaa2	-0.37495905
24	0xbca9efb5	-0.020744184
25	0x3e090b89	0.13383307
26	0x3df157a9	0.11784298
27	0x3dd6d7ef	0.10490405
28	0x3dd73037	0.10507243
29	0xbe8ff8e1	-0.28119567
30	0x3d98723a	0.07443662
31	0x3e142138	0.14465797
32	0xbc5e6846	-0.013574665
33	0xbe5d9a31	-0.2164085
34	0x3e19c871	0.15017869
35	0x3c357446	0.011075085
36	0xbe2051e6	-0.15656242
37	0x3e8fa41c	0.28054893
38	0xbe2b5bfd	-0.1673431
39	0x3d97d85c	0.07414314
40	0x3bd457e3	0.0064802035
41	0x3e7e18bb	0.24814121
42	0xbdc24db8	-0.0948748
43	0x3e55643a	0.20839015
44	0xbe6f0755	-0.2334264
45	0x3e815b51	0.2526498
46	0xbe25035f	-0.16114567
47	0x3ea82be3	0.32845983
48	0x3e7d7c36	0.24754414
49	0x3e716927	0.23575269
50	0x3db82d85	0.08993057
51	0xbde6d3da	-0.11270876
52	0xbe09f77c	-0.13473314
53	0xbe71859e	-0.23586127
54	0xbca0717c	-0.019585364
55	0x3d61d3e5	0.05513372
56	0x3dcc5c6b	0.09978565
57	0xbc6a4a81	-0.01429999
58	0x3db3cfff	0.087799065
59	0xbe87536f	-0.26430842
60	0x3e4927e2	0.1964412
61	0x3e441e05	0.19152077
62	0x3e13e2c6	0.14441976
63	0xbd3d6d35	-0.046246726
64	0x3e259c38	0.16172874
65	0xbdaa443c	-0.08313796
66	0x3dc77363	0.09738805
67	0xbe29d0d7	-0.16583572
68	0x3e3b582e	0.18295357
69	0xbe2681a9	-0.16260399
70	0xbe3adb63	-0.18247752
71	0x3df0c1c6	0.11755709
72	0x3e8490fb	0.2589186
73	0x3e4c16bb	0.19930546
74	0x3e3a499e	0.18192145
75	0xbe3d5f8f	-0.18493484
76	0x3dd390c3	0.103303455
77	0xbe9111d7	-0.28333923
78	0x3d504a81	0.050852302
79	0xbe290cc9	-0.16508783
80	0xbdf16083	-0.11785986
81	0xbe3276c1	-0.17428114
82	0x3e6ba5fd	0.23012538
83	0x3c982331	0.018571468
84	0xbd0766f3	-0.033057164
85	0x3d68198a	0.05666498
86	0xbea3ebb3	-0.32015762
87	0x3e5c3ed2	0.21508339
88	0xbe971875	-0.29510847
89	0x3d98610d	0.07440386
90	0x3e0f8d15	0.14018662
91	0x3a45bc1d	0.00075429847
92	0xbe850f94	-0.25988448
93	0x3e218df3	0.15776806
94	0x3dac951f	0.0842688
95	0xbbac9ef2	-0.005267971
96	0xbcfd773e	-0.030940648
97	0xbe810225	-0.2519695
98	0x3cac4197	0.02102737
99	0x3d8b63c0	0.06806135
100	0xbe0df24a	-0.13861957
101	0x3dc94c7e	0.09829043
102	0xbd508e9d	-0.050917257
103	0xbd8c5742	-0.068525806
104	0x3ba7c152	0.005119481
105	0xbe2bcd07	-0.1677743
106	0x3e838951	0.25690702
107	0x3ce9ff75	0.028564194
108	0x3e1f6386	0.15565309
109	0x3ea06432	0.31326443
110	0xbe376f92	-0.17913654
111	0xbd8cb370	-0.068701625
112	0xbe828725	-0.25493732
113	0xbea4576d	-0.3209795
114	0x3da53ea3	0.08068588
115	0xbe6a909e	-0.2290673
116	0x3e301524	0.17195565
117	0xbd8913d8	-0.06693238
118	0xbe7fb488	-0.24971211
119	0xbd62326d	-0.05522387
120	0xbe03c1b4	-0.1286686
121	0x3d71b7db	0.05901323
122	0xbe677b11	-0.2260554
123	0x3c5a2148	0.013313599
124	0xbdfa81d2	-0.122317925
125	0x3dbac152	0.09118904
126	0xbe4b1970	-0.19833922
127	0x3dc43798	0.09580916
128	0xbdb0e769	-0.08637888
129	0xbe7d781a	-0.24752846
130	0x3ea782f2	0.3271709
131	0xbc86d46b	-0.01645871
132	0xbe09620f	-0.13416313
133	0xbe30f110	-0.17279458
134	0xbe3aad74	-0.1823023
135	0x3ebabfbb	0.36474404
136	0x3e3abddd	0.1823649
137	0x3e91e66b	0.28496107
138	0xbe1b81a2	-0.1518617
139	0x3da2b662	0.07944943
140	0x3ddc857c	0.107676476
141	0x3e628c70	0.22123885
142	0x3ac17ef6	0.0014762569
143	0xbe61788a	-0.22018638
144	0x3e7bb15f	0.2457938
145	0x3dc4120e	0.09573756
146	0xbd03b382	-0.032153614
147	0x3e46cbdf	0.19413708
148	0x3e5aafcb	0.21356122
149	0xbdec51ca	-0.115390375
150	0xbd938efd	-0.07205007
151	0xbea4116b	-0.3204454
152	0x3e68a2c4	0.2271834
153	0x39fc5bc5	0.0004813356
154	0x3dfda26d	0.12384496
155	0xbc42182b	-0.011846582
156	0xbcbccd88	-0.023047224
157	0xbdd6adc4	-0.10482362
158	0xbd9bad68	-0.07601434
159	0x3e1a143c	0.15046781
160	0xbcedceac	-0.029029213
161	0xbbff5de4	-0.007793175
162	0xbc32cc89	-0.010913023
163	0xbddc65ec	-0.107616276
164	0xbcfbb1f1	-0.030724498
165	0xbd332f8a	-0.04374651
166	0xbe514fa9	-0.20440544
167	0x3e10eedd	0.14153619
168	0xbe6dac91	-0.2321036
169	0x3e63bfcd	0.22241135
170	0x3dbf11b6	0.0932955
171	0xbd93a5c6	-0.07209353
172	0x3d9ea565	0.0774639
173	0x3e90503d	0.28186217
174	0xbe07bb24	-0.13254982
175	0xbd153aae	-0.036432914
176	0xbe1a2046	-0.15051374
177	0x3e6dc30b	0.23218934
178	0xbe9b8756	-0.3037669
179	0xbe841e14	-0.25804198
180	0x3e1e566b	0.15462653
181	0xbe81d4d0	-0.25357676
182	0x3e1b3a0b	0.1515886
183	0x3d174e54	0.036939934
184	0x3d7c8391	0.06164891
185	0xbd950eee	-0.07278238
186	0x3e628ddd	0.22124429
187	0xbea0d974	-0.31415904
188	0x3e512da8	0.20427573
189	0xbdfda2f1	-0.12384594
190	0x3e5e1a45	0.21689709
191	0x3d970ce6	0.07375507
192	0x3e4439c9	0.19162668
193	0x3dd21e54	0.10259691
194	0xbdca8dca	-0.09890325
195	0xbe055eb1	-0.13024403
196	0x3e8131fe	0.25233454
197	0xbe18b705	-0.14913566
198	0x3dad2dc0	0.08455992
199	0xbeaab874	-0.33343852
200	0x3df8b642	0.12144138
201	0x3df63aee	0.12022959
202	0x3de258c2	0.110520855
203	0xbe5dd844	-0.2166453
204	0x3d0b060b	0.03394131
205	0xbc752c67	-0.0149642
206	0x3e12b5a8	0.14327109
207	0xbe4be998	-0.19913328
208	0xbdb00301	-0.08594323
209	0xbe242076	-0.16028008
210	0xbd5afd0c	-0.05346398
211	0x3e478bc5	0.19486912
212	0x3c9ecc40	0.019384503
213	0xbe24632d	-0.16053458
214	0xbe7e5ecc	-0.2484085
215	0x3e7e1448	0.24812424
216	0xbd095ff3	-0.03353877
217	0x3dbd8807	0.09254461
218	0x3dc02b17	0.09383219
219	0x3e623ce5	0.22093542
220	0x3ccc879a	0.024967004
221	0x3d700063	0.05859412
222	0x3e3892e9	0.18024792
223	0xbe2dfed7	-0.16991745
224	0x3e753b0f	0.2394831
225	0xbc9352bd	-0.017983789
226	0x3d5397a5	0.05165829
227	0xbe0bef4c	-0.13665503
228	0x3e492a56	0.19645056
229	0xbe6e5e8f	-0.23278259
230	0x3e6affbf	0.22949122
231	0xbea2104f	-0.31653067
232	0x3d7ee7c4	0.062232748
233	0x3daf8eb2	0.08572139
234	0x3dcc8c59	0.09987707
235	0x3e0597dd	0.13046212
236	0x3e10c612	0.14138058
237	0x3e19ec59	0.15031566
238	0xbd24d2e8	-0.0402402
239	0x3c9b1121	0.018929066
240	0x3e131f59	0.14367427
241	0xbda56d44	-0.080774814
242	0xbd51c517	-0.05121335
243	0xbe1b5bed	-0.15171786
244	0xbe4f59d9	-0.20249118
245	0x3e45a40e	0.19300863
246	0xbe27bb8d	-0.16380139
247	0x3e94c13a	0.2905367
248	0x3e4ec03a	0.20190516
249	0x3db20dd4	0.08694044
250	0xbe6c79a6	-0.2309328
251	0x3e1436b5	0.14473994
252	0xbda5208a	-0.08062847
253	0xbe6e2885	-0.23257644
254	0x3e29c34e	0.16578409
255	0x3e48312e	0.1955001

fc.2.bias f4 [32]
0	0xbe033fbe	-0.12817284
1	0xbb653f13	-0.0034980222
2	0xbdb058cd	-0.086106874
3	0x3cc1a886	0.023639929
4	0x3dc32c90	0.09529984
5	0xbe4f9e35	-0.20275195
6	0x3dc72630	0.097240806
7	0xbe4ff393	-0.2030776
8	0x3d76c20b	0.060243648
9	0x3e3899d5	0.18027432
10	0xbceb9e6b	-0.028762063
11	0xbe4ed020	-0.20196581
12	0xbc76b8ab	-0.015058677
13	0x3d5e13ab	0.054217976
14	0xbe20445c	-0.15651077
15	0xbc508e2a	-0.012729207
16	0xbd94fddb	-0.072749816
17	0xbdaf2c31	-0.08553351
18	0xbd9e7194	-0.07736507
19	0xbe3cfa26	-0.18454799
20	0xbd34f3d5	-0.04417785
21	0x3e1d90e0	0.15387297
22	0xbdc2c709	-0.09510619
23	0xbdbbd394	-0.09171215
24	0xbe838d5e	-0.25693792
25	0xbe04bfdb	-0.12963812
26	0xbe850aa9	-0.25984696
27	0xbe22f94a	-0.15915409
28	0xbdf387f6	-0.11891167
29	0x3e4d8de1	0.20073654
30	0xbe4752d1	-0.19465186
31	0xbd83de17	-0.06438845

fc.4.weight f4 [16, 32]
0	0x3d19322a	0.037401356
1	0xbd011e12	-0.031522818
2	0xbd1f7731	-0.03893203
3	0x3e4cf23d	0.20014282
4	0x3d94c616	0.072643444
5	0xbe54ad5e	-0.2076926
6	0x3de15c1c	0.110038966
7	0xbcb59327	-0.022164894
8	0xbe4f8962	-0.20267251
9	0x3e192f2d	0.14959402
10	0xbe0e796e	-0.13913509
11	0xbd5cd861	-0.053917293
12	0xbce1464e	-0.027499344
13	0xbca1ebfc	-0.019765846
14	0x3d3219ae	0.04348152
15	0x3e2f5fd5	0.17126401
16	0xbda69f8f	-0.08135902
17	0xbdfbbae4	-0.12291506
18	0x3e184673	0.14870624
19	0xbccb8a77	-0.024846299
20	0x3de24f41	0.11050273
21	0x3e2ce81c	0.16885418
22	0xbd484fe7	-0.048904326
23	0xbe28603a	-0.16442958
24	0xbe2e8a1f	-0.17044877
25	0xbd8d6472	-0.06903924
26	0x3bd9a77b	0.0066422797
27	0x3d4c82f7	0.049929585
28	0xbd0caab4	-0.034342483
29	0x3e1f4a00	0.15555573
30	0x3d7feacd	0.062479783
31	0xbe480e54	-0.19536716
32	0x3e589ee2	0.21154359
33	0x3d3583b6	0.044315062
34	0x3e22ff91	0.15917803
35	0xbde2446b	-0.11048206
36	0xbdc73f7f	-0.09728908
37	0xbe493425	-0.19648798
38	0x3e46c115	0.19409592
39	0xbe1d78b2	-0.15378073
40	0xbcdcb76a	-0.026942927
41	0xbce0d30d	-0.027444387
42	0x3e4c81d4	0.199714
43	0xbded744d	-0.11594448
44	0x3dfd7cc9	0.123773165
45	0x3d35eb6c	0.04441397
46	0xbd9dc8d0	-0.077043176
47	0x3e12727c	0.14301485
48	0xbdc084a8	-0.09400302
49	0xbd141c7b	-0.036159974
50	0x3d925bc4	0.07146409
51	0xbd15b477	-0.036549058
52	0x3dd86340	0.105658054
53	0x3e1988d9	0.1499361
54	0xbd8b294e	-0.067949876
55	0xbe6ea98e	-0.23306867
56	0xbe554236	-0.20826039
57	0xbd309eb6	-0.04312011
58	0xbde430c8	-0.11142117
59	0x3e1762d4	0.14783794
60	0xbddfbb9d	-0.10924456
61	0x3d5a473e	0.053290598
62	0xbe225904	-0.1585427
63	0xbdfaa9b5	-0.122394
64	0x3e0170e9	0.12640728
65	0xbb666cee	-0.0035160142
66	0x3e941766	0.28924102
67	0xbdaf6286	-0.08563714
68	0xbdaeb1dc	-0.08530018
69	0x3e08d725	0.13363321
70	0xbd8100f5	-0.06299011
71	0x3dbff4e5	0.09372882
72	0x3e3ef27a	0.18647185
73	0xbe1539f4	-0.14572889
74	0x3e346a34	0.17618638
75	0xbd4d49e4	-0.050119296
76	0xbe8908ad	-0.26764432
77	0x3e180fd4	0.14849788
78	0xbdc61903	-0.09672739
79	0xbdc0f7bb	-0.09422251
80	0xbde9b38a	-0.114111975
81	0x3d022ac0	0.03177905
82	0x3e365ad6	0.17808089
83	0xbd21b760	-0.03948152
84	0xbe321dd8	-0.17394197
85	0xbd325741	-0.043540243
86	0x3df823c6	0.12116198
87	0x3d4740d0	0.048645794
88	0x3de36c35	0.11104623
89	0x3dcad243	0.099033855
90	0xbe5cee68	-0.2157532
91	0xbc12f9d2	-0.008970695
92	0xbcd6e346	-0.02623142
93	0xbe18248c	-0.14857692
94	0xbd989b01	-0.0745144
95	0x3d95808d	0.0729991
96	0x3e1eab4e	0.15495035
97	0x3ddad9f7	0.10686105
98	0xbe7bcd3b	-0.24590008
99	0xbd4f1d0c	-0.05056481
100	0x3da9cfe4	0.08291605
101	0xbd31ebdf	-0.043437835
102	0x3c4b8adb	0.012423242
103	0xbd7a292e	-0.06107443
104	0xbe7fe195	-0.24988396
105	0xbd1fcaf5	-0.039011914
106	0xbe267dc2	-0.1625891
107	0xbd0bc99e	-0.034127824
108	0x3e96e8b4	0.29474413
109	0x3dbf678c	0.09345922
110	0x3e09d3b3	0.13459663
111	0xbe255246	-0.16144666
112	0x3e286b6c	0.16447228
113	0x3e43e263	0.19129328
114	0xbd86abbd	-0.06575725
115	0x3d447f76	0.04797312
116	0xbd7a89ac	-0.06116645
117	0x3d54e261	0.051973704
118	0xbdc4f042	-0.09616138
119	0x3e3bcc51	0.1833966
120	0x3c3aacab	0.011393706
121	0x3da7504e	0.08169614
122	0x3e2f459d	0.17116399
123	0xbe75aa20	-0.23990679
124	0x3df3a47d	0.11896608
125	0x3d6bca3b	0.05756591
126	0x3d906973	0.07051363
127	0xbe806d55	-0.25083414
128	0x3e3cf771	0.18453766
129	0x3d98a06f	0.07452475
130	0xbd6aa0c8	-0.05728224
131	0x3d8abde3	0.06774499
132	0x3db29c60	0.087212324
133	0xbe2b76b3	-0.16744499
134	0x3e23fea8	0.16015112
135	0xbcb4cb0d	-0.022069478
136	0x3d39d816	0.04537209
137	0xbdb41d98	-0.08794707
138	0x3dd3cc21	0.10341669
139	0x3dc1439a	0.09436722
140	0x3e022c22	0.12712148
141	0xbddd1f7e	-0.10797022
142	0xbd9092a7	-0.07059222
143	0x3e2d6143	0.16931634
144	0x3c22e249	0.009941646
145	0xbdf2fe6d	-0.11864934
146	0xbde1b1a2	-0.11020209
147	0x3e303703	0.17208485
148	0xbde459c1	-0.11149932
149	0x3cb09500	0.021555424
150	0xbdb6a61d	-0.08918402
151	0xbd8eaa53	-0.069660805
152	0xbd336576	-0.043797933
153	0x3d7b586a	0.061363615
154	0x3de3837a	0.111090615
155	0xbe0a6c6f	-0.13517927
156	0xbe49150b	-0.19636934
157	0xbd1c9f28	-0.03823772
158	0xbe123f21	-0.14281894
159	0x3dbd9fa3	0.09258964
160	0x3adce053	0.0016851522
161	0xbe01f474	-0.12690908
162	0xbd5d282c	-0.05399339
163	0x3cf60ee1	0.030036392
164	0xbe119a55	-0.14219029
165	0xbdc6e6f7	-0.09712022
166	0xbe119cf8	-0.14220035
167	0x3e33808f	0.1752951
168	0x3e65ddb1	0.2244785
169	0x3dc55b7c	0.0963659
170	0x3cfa702e	0.03057107
171	0x3cfbe398	0.030748174
172	0xbe9c241c	-0.304963
173	0xbdd5c3cd	-0.10437737
174	0xbe028c90	-0.12748933
175	0xbddd54ed	-0.10807214
176	0xbe3646ee	-0.17800495
177	0xbe05e907	-0.13077174
178	0xbd05a3ac	-0.032626793
179	0x3d106a98	0.035257906
180	0x3e12a81c	0.14321941
181	0x3d8f482f	0.0699619
182	0x3dc3e83c	0.095657796
183	0xbe33965a	-0.17537823
184	0x3e1adab8	0.15122497
185	0xbdba38f6	-0.09092896
186	0xbddcbd07	-0.107782416
187	0x3e8da7c0	0.27667046
188	0x3e281e65	0.16417845
189	0xbd469331	-0.048480216
190	0xbe3094ea	-0.17244306
191	0x3de41f2e	0.111387596
192	0x3d8fa646	0.07014136
193	0x3e10d9f4	0.14145643
194	0x3c3d309f	0.011547237
195	0xbdde68e0	-0.10859847
196	0xbdd3179c	-0.103072375
197	0xbe150958	-0.14554346
198	0xbc6fc394	-0.014634032
199	0xbe56a21c	-0.20960277
200	0xbe43eb16	-0.19132647
201	0xbdc9dab9	-0.09856171
202	0xbe5c50bc	-0.21515173
203	0xbd511419	-0.051044557
204	0x3d973732	0.073835745
205	0x3cc3f1f4	0.023919083
206	0x3d441064	0.047867194
207	0x3ddeef53	0.10885491
208	0xbbc7fd55	-0.0061031976
209	0x3dea9426	0.11454038
210	0x3c725be9	0.014792421
211	0x3e0ba624	0.13637596
212	0xbc9151c6	-0.017739188
213	0xbdaf580b	-0.08561715
214	0x3ca6f6da	0.02038138
215	0x3e69ed4d	0.2284443
216	0xbc398e5b	-0.011325444
217	0xbdb4fa24	-0.08836773
218	0x3da3bd3e	0.079950795
219	0xbd9407f7	-0.07228082
220	0x3dcc32f8	0.09970659
221	0xbd70ea92	-0.058817454
222	0x3e3b67aa	0.18301263
223	0xbe073dd6	-0.13207182
224	0xbd9cec14	-0.07662216
225	0x3ce0fb26	0.027463507
226	0xbd71fe26	-0.059080265
227	0xbdd63211	-0.10458768
228	0xbdd1fa55	-0.10252825
229	0x3dcace21	0.09902597
230	0xbd4c9f23	-0.049956452
231	0xbc4273d4	-0.011868436
232	0x3e06ffce	0.13183519
233	0xbe4cb6e0	-0.19991636
234	0xbe1fa0a0	-0.15588617
235	0x3e02cd07	0.12773524
236	0x3dbffab4	0.0937399
237	0x3c5bd79d	0.013418105
238	0x3d95d6d7	0.07316368
239	0x3d12a614	0.035802916
240	0x3d370a05	0.04468729
241	0x3d453420	0.048145413
242	0xbd121acd	-0.03567009
243	0xbd8560e0	-0.06512618
244	0x3e5149ab	0.20438258
245	0xbcf76980	-0.030201674
246	0xbca2ba85	-0.01986433
247	0xbddca073	-0.10772791
248	0x3c93426a	0.017976005
249	0x3db5a931	0.08870161
250	0xbdad4979	-0.084612794
251	0x3e10e2d7	0.14149033
252	0x3e187b07	0.14890681
253	0xbd6864e8	-0.056736857
254	0x3d51116a	0.051041998
255	0x3db10036	0.08642618

fc.4.bias f4 [16]
0	0x3e401861	0.187593
1	0xbdbaafaa	-0.091155365
2	0x3d4ea900	0.05045414
3	0x3d8df9f9	0.06932444
4	0x3e4446a2	0.1916757
5	0xbdf577ad	-0.11985717
6	0xbdeb5c8d	-0.11492262
7	0xbe3ba47a	-0.18324462
8	0xbe1a1d36	-0.15050206
9	0xbd38a8c8	-0.045082837
10	0xbe24eff2	-0.16107157
11	0xbdfffe55	-0.12499682
12	0xbe462190	-0.1934874
13	0xbd8b4a42	-0.06801273
14	0x3b133009	0.002245905
15	0x3d84a701	0.06477166

fc.6.weight f4 [2, 16]
0	0x3dbfe1f9	0.09369273
1	0x3ac07998	0.0014684675
2	0xbe879589	-0.26481274
3	0x3e69dcb3	0.22838096
4	0x3d71f427	0.059070732
5	0xbdf221c9	-0.1182285
6	0x3e73dfbf	0.23815821
7	0xbd002882	-0.03128863
8	0xbe82caa9	-0.25545242
9	0xbeb6a0c1	-0.3566952
10	0x3e8638bd	0.26215163
11	0x3e2a2a9e	0.1661782
12	0xbe4cf0a1	-0.20013668
13	0xbea536d8	-0.32268405
14	0xbdd57a8d	-0.10423765
15	0xbea87e14	-0.3290869
16	0xbe9440a1	-0.28955558
17	0xbe034f97	-0.1282333
18	0xbe5e15c1	-0.21687986
19	0xbce6a803	-0.028156286
20	0xbe016f62	-0.12640145
21	0x3df375db	0.118877135
22	0xbdf6dfc9	-0.120544024
23	0x3e6b97e5	0.23007162
24	0xbd9578aa	-0.072984055
25	0x3daa4f0d	0.08315859
26	0xbb99ae0d	-0.004689938
27	0x3e9e841e	0.30960172
28	0x3e821b75	0.25411573
29	0x3dffbb8a	0.12486942
30	0xbe3b7036	-0.18304524
31	0x3c1ff59f	0.0097631505

fc.6.bias f4 [2]
0	0xbdf43112	-0.11923422
1	0x3da4624a	0.0802656
