PPO/ckpt/CartPole-v1_episode_198_reward_478.pth (torch, 8452 bytes, 8 tensors)

fc.0.weight f4 [16, 4]
000000 47 11 05 be 6e 6d e4 be 04 9f b2 3e 92 55 8c bd
       -0.12994872 -0.44614738 0.34886944 -0.06852259
000010 cf e3 fd 3e f2 be db 3d f3 9a 2e 3e 9b 02 24 3f
       0.49587867 0.10729779 0.17051296 0.64066476
000020 2e 57 e2 3d e6 fb bc 3e bc 8a f8 bd 63 ac 0c 3f
       0.110517845 0.36910933 -0.121358365 0.5495054
000030 4d a3 ae 3e fc 8f 64 3e 35 e7 88 be 69 2f 83 be
       0.34108964 0.2232055 -0.26738897 -0.2562211
000040 25 10 5b 3e 36 a6 53 3e 43 55 73 3e c3 53 a1 be
       0.21392877 0.20668873 0.23762994 -0.31509218
000050 c9 70 10 be c1 e4 fb be 22 57 c5 be 56 e3 0f bf
       -0.14105524 -0.49197963 -0.3854304 -0.5620626
000060 56 f3 22 be dc f3 86 3e a7 ae e9 3e 87 23 dd 3e
       -0.15913138 0.26357925 0.45641062 0.43191168
000070 bc 6d cf bd b9 ac 09 be 4f 19 b4 be 78 c9 ed be
       -0.10128352 -0.13444795 -0.3517556 -0.4644277
000080 1e 5c 86 be ae ba 3e 3e 66 cd bd bd 97 c9 eb be
       -0.26242155 0.186259 -0.09267692 -0.46052238
000090 3f fe 28 3e fd 0b 97 be 64 de 30 bf 26 9d 30 bf
       0.16503237 -0.29501334 -0.6908934 -0.6898979
0000a0 22 02 2c 3e 16 6d cc be 07 c0 ec bd f7 0f d4 3e
       0.16797689 -0.39926976 -0.11560064 0.4141843
0000b0 87 cd 32 be d0 7f a7 3e c6 0d 26 bf a0 df 25 bf
       -0.17461215 0.327147 -0.64864767 -0.6479435
0000c0 03 ae d6 be a0 cc b8 3e b2 80 2b 3f 8a fc 37 3f
       -0.41929635 0.36093616 0.6699325 0.7186972
0000d0 fd ca a4 3e ee 72 fb bd 38 d5 ea be 75 5c 11 bf
       0.32186118 -0.122777805 -0.45865798 -0.56781703
0000e0 7a ce af be 14 77 a6 be 8d 73 e5 be 85 c0 bd be
       -0.34337217 -0.32512724 -0.4481472 -0.37060943
0000f0 32 d3 00 3e a2 4c ee 3e 02 e5 84 bd 24 9d 09 3f
       0.12580565 0.4654284 -0.06488992 0.537554

fc.0.bias f4 [16]
000000 61 c7 c5 be b3 06 98 3e b5 84 8c 3e 9c f1 8e 3d
       -0.38628677 0.2969261 0.27444997 0.06979677
000010 9d 91 04 be f6 7d 87 be 3c c7 e3 be 04 f9 d9 3e
       -0.12946172 -0.26463288 -0.4448794 0.42572796
000020 dc 2e 67 3e ab 20 8e be ef 95 8a 3e 80 e5 cf be
       0.22576469 -0.277593 0.27067515 -0.40604782
000030 ef 52 d0 bd cd 1f 3b 3e b5 f1 78 3e 93 1a b3 3c
       -0.10172068 0.1827385 0.24310954 0.021863258

fc.2.weight f4 [32, 16]
000000 29 17 85 bd e9 de 14 3e 3d 95 c4 3c 14 69 eb bd
       -0.06498558 0.14538158 0.023996944 -0.114946514
000010 91 96 fd bc 52 4e ae be 76 b0 76 3e 1d fb 51 3d
       -0.030955585 -0.3404413 0.24090752 0.05126487
000020 c3 17 98 bd 1c ba ec bd 41 c2 91 bd 9b 4b b3 3c
       -0.07426407 -0.11558935 -0.07117129 0.021886637
000030 36 4d 5f 3e 70 61 86 be 90 92 71 bd 7a a6 b5 3e
       0.21806797 -0.26246214 -0.058977664 0.35478574
000040 b1 8a b9 bd ab a1 c1 3e f1 b7 52 bd 54 4f 10 be
       -0.090596564 0.37818655 -0.05144495 -0.14092761
000050 85 f1 bd bd 2e 7c f9 bd 20 e4 50 3e 94 19 04 be
       -0.09274582 -0.121818885 0.20399523 -0.12900382
000060 6c b2 3a bd 97 9b 8c bd 61 1d 81 3e 39 a8 f8 3d
       -0.045580313 -0.06865614 0.25217727 0.12141461
000070 2a b5 3f 3e 17 24 9c be d9 2a c8 3d d2 81 b7 3e
       0.18721452 -0.30496284 0.097737975 0.35841233
000080 d3 c6 3d 3b 12 a2 5a 3e c2 3f 16 3e c2 af 34 be
       0.002895762 0.21350887 0.14672759 -0.17645171
000090 4b 1a 87 bd af fc e6 bd ec 96 85 bd b5 35 e5 bc
       -0.06596812 -0.11278664 -0.06522927 -0.027979711
0000a0 0c 61 1d 3d d6 87 07 3d 94 1f 13 3c 8a c2 2f bd
       0.03842263 0.033088528 0.008979697 -0.042910136
0000b0 b3 55 7d 3e a8 59 47 be fa ef af 3d 14 08 84 3e
       0.24739723 -0.19467795 0.08590694 0.25787413
0000c0 74 a3 0c 3e 5e 71 91 be 33 81 67 3a 69 96 00 3e
       0.13734227 -0.28406805 0.0008831203 0.12557377
0000d0 7e 95 1f 3e 32 0b 97 3e 4b cd 4c 3e fa a0 1a be
       0.1558437 0.2950073 0.20000188 -0.1510047
0000e0 05 72 36 3e 4a 1f 45 3e da 09 0c 3e cd 7b e3 3d
       0.17816932 0.19250217 0.13675633 0.111075975
0000f0 45 6b b0 3d 28 9b a1 3c 6e a0 39 3e 56 4e 83 be
       0.0861421 0.019727305 0.18127605 -0.25645703
000100 5b 33 da 3d 75 40 d0 3c b4 7e 22 be b3 9d 31 be
       0.106543265 0.02542136 -0.15868646 -0.17345314
000110 33 4c 28 3e a0 80 24 3e 0a d4 2b 3e 75 9c 92 bd
       0.16435318 0.16064692 0.16780105 -0.07158748
000120 7b 59 b9 3d 0f 28 41 3e 3d 52 7a 3c 2b b1 a4 3e
       0.0905027 0.18862937 0.015278396 0.32166418
000130 85 9c a1 be 93 ba 5a 3e 27 fd 7c 3b dc 40 a3 be
       -0.31564727 0.21360235 0.003860304 -0.3188542
000140 d5 ee ed 3d 9d ba 7e 3e 61 e5 9d 3d b8 ec 1a be
       0.11617819 0.24875875 0.07709766 -0.15129364
000150 99 aa 27 3e 8a 10 36 bd 08 a4 02 3e 7f a6 fc bd
       0.16373672 -0.044449367 0.12757885 -0.12336444
000160 4b ab 6f be 36 dc dd bd 8a 9a e4 3d 44 e1 8d be
       -0.23405187 -0.108330175 0.111622885 -0.27710927
000170 4e ad 08 3d f7 df aa bd e6 b9 d4 3d 00 cb af 3e
       0.0333684 -0.08343499 0.1038702 0.34334564
000180 0a 58 58 3e b8 c8 a4 3d 16 2f 6b 3e 67 99 5d be
       0.21127334 0.080460966 0.2296718 -0.2164055
000190 56 3a 22 3e cb bf a8 3d 02 46 c1 bd 6f 96 95 be
       0.15842566 0.082397066 -0.09437181 -0.29216334
0001a0 19 2f d3 bd d6 cc bd bb a1 bc cb bc 8d a5 51 be
       -0.103117175 -0.0057922406 -0.024870219 -0.20473309
0001b0 5c 4f a8 3e 4a d9 72 3d 48 17 33 be a0 63 c4 3e
       0.32873046 0.059289254 -0.1748935 0.38357258
0001c0 b7 d3 ca 3d 07 2a 55 be 2b f6 15 3d 28 02 45 3e
       0.09903663 -0.20816813 0.036611717 0.19239104
0001d0 5c 9c 17 bd 08 5e 91 3e e7 4a 58 be 47 23 3b 3e
       -0.03701435 0.28392053 -0.21122323 0.18275176
0001e0 03 7d 8c 3e 45 1e 44 3e 70 97 84 3d de 81 2c 3e
       0.27439126 0.19152172 0.06474197 0.16846415
0001f0 aa 8d 94 be 5d da 98 3e e3 e9 a3 3e 6b 66 80 be
       -0.2901433 0.29854098 0.3201438 -0.2507814
000200 a6 55 7a 3e be a5 c1 be fc 76 53 be 44 ca 72 be
       0.24446735 -0.37821764 -0.20650858 -0.2370997
000210 5e cf 79 3e 27 5e 77 bc b8 0b 9e bd 21 03 fd bd
       0.2439551 -0.015098131 -0.07717079 -0.123541124
000220 92 a4 66 3e 61 0a c1 3e 0b 47 6a be f0 b1 45 3e
       0.22523716 0.3770323 -0.22878663 0.19306159
000230 fe b5 e2 bd e7 e7 04 3e 58 f2 42 3e de 89 b3 bd
       -0.110698685 0.12979089 0.1903776 -0.087665305
000240 3f 02 66 be 3a 2b 97 3d 55 e8 6d 3e 72 65 e2 3d
       -0.22461794 0.07381292 0.23233159 0.110545054
000250 87 43 5d be 6f d6 88 be bb c2 3e 3e 30 68 06 be
       -0.21607791 -0.267261 0.18628971 -0.13125682
000260 84 5d 4c 3d 10 29 92 be bb 06 80 bd 7a 0f 33 bd
       0.04989387 -0.28546953 -0.06251284 -0.04371593
000270 fd 40 d8 3a 4f e4 f4 bd fc 3e 94 3c 31 5d 2f 3c
       0.001649886 -0.11957609 0.01809644 0.010703371
000280 95 22 10 be d0 83 a5 3e d4 b9 88 3e 93 d0 65 be
       -0.14075692 0.32327127 0.26704276 -0.22442846
000290 25 b3 0a 3d b1 4f ba bc bf ae 7a bd 6a 63 fc bd
       0.03386225 -0.022743078 -0.061201807 -0.12323649
0002a0 af 8c 6b bc e7 85 97 be 7a 00 24 3e c2 f4 93 bd
       -0.014376803 -0.29594347 0.16015807 -0.07224418
0002b0 05 49 87 3e c7 c6 0f 3e 1d 6e 9f be 08 bc ae 3e
       0.26422897 0.14040671 -0.31138697 0.3412783
0002c0 c6 1c 9a 39 46 1e d9 3d 41 86 80 bd a1 91 4e 3e
       0.00029394607 0.10601477 -0.06275607 0.2017274
0002d0 de 1a 0e 3c ad 3c 3c be 38 5a a2 bd ac c7 8c be
       0.008673398 -0.18382521 -0.07927364 -0.27496088
0002e0 89 99 9d be 2f 22 ac be 84 91 76 bd 59 23 eb 3c
       -0.307812 -0.3361983 -0.06019737 0.028703379
0002f0 a4 17 a5 3e 85 24 07 be a7 a5 73 be aa 31 b5 3d
       0.322446 -0.13197525 -0.2379366 0.08847363
000300 1a 94 8f bd ac c7 5c 3d 39 87 7b be ed 75 41 be
       -0.0701067 0.05390136 -0.24563302 -0.18892641
000310 65 68 bc bd 10 17 60 3e bc 20 0a 3e 97 6d 7e 3e
       -0.09199599 0.21883798 0.1348905 0.24846493
000320 53 cc 45 3e fd b4 c9 3e 86 a1 a2 3d 29 be c4 3d
       0.19316225 0.39395896 0.079409644 0.09606583
000330 09 f3 54 be 2b 9d 5f bd 29 c9 51 3e f5 50 7f 3d
       -0.20795836 -0.054593246 0.20486893 0.062333066
000340 a7 c2 40 3e ad 39 b7 3e f8 30 2f 3d ae a6 32 be
       0.18824254 0.3578619 0.04277131 -0.17446396
000350 65 1e 49 3e 52 fe 09 3d 83 82 aa 3d fd 83 1f be
       0.19640501 0.033689804 0.083256744 -0.15577693
000360 b7 a5 9e 3d ea a8 90 bd 32 9d 09 3e 2c 3d 13 be
       0.07746451 -0.07063468 0.13438872 -0.14378804
000370 36 91 25 bd 4e c4 3e be a8 97 04 3e 55 84 55 3e
       -0.040421687 -0.18629572 0.12948477 0.20851262
000380 72 e4 0d be dc 50 ab be 2d ad b6 be d4 ab c6 3d
       -0.13856676 -0.33460128 -0.35678998 0.09700742
000390 ad 91 16 be d4 fe c5 bc 50 85 6e be 41 d1 88 3e
       -0.14704008 -0.024169363 -0.23293042 0.26722148
0003a0 f4 de 19 be 5d 0c 7c 3d 20 91 67 3d 07 82 29 3e
       -0.15026456 0.061535228 0.056534886 0.16553508
0003b0 24 bc a4 be a7 ea a9 3d aa 1a 02 bd 72 97 2a be
       -0.3217479 0.082967095 -0.03176371 -0.16659334
0003c0 12 2b 3f 3d a9 da a2 be 82 f8 73 3d 3b c5 3d 3e
       0.046671934 -0.3180745 0.059563167 0.18532269
0003d0 c4 8a 59 3d 4d 92 c1 bd 0e 6a 7c be 3d a9 0b be
       0.053110853 -0.09451733 -0.24649832 -0.13638778
0003e0 83 15 71 3e 7f 37 25 3e b2 9b 30 3e 14 89 01 3e
       0.23543362 0.16134451 0.17246893 0.12649947
0003f0 aa b2 e6 3c bc 99 71 3c 19 68 32 be d1 43 a0 be
       0.028161366 0.014746126 -0.17422523 -0.3130174

fc.2.bias f4 [32]
000000 4c 71 26 bd f2 6b 2a 3d 3c a1 a8 bc 5c a2 71 3e
       -0.040635392 0.04160685 -0.020584695 0.23597091
000010 c0 30 80 3e 8c 55 2f 3e e9 29 9a 3d 8a 78 0f be
       0.25037193 0.17122477 0.07527525 -0.14010826
000020 1c 4b 80 3e 62 31 01 3d 17 4b df 3d d7 51 2d 3e
       0.25057304 0.031541236 0.10902994 0.1692575
000030 8a 33 05 3e 1d 97 c3 3c f6 5a d6 bd 66 85 6c 3e
       0.13007942 0.023875767 -0.10466568 0.23097762
000040 0b 57 65 3c a8 bb 4a bb 48 72 8c bd 69 64 a9 bd
       0.013997803 -0.0030934606 -0.06857735 -0.08271105
000050 43 2d 12 3b 37 04 14 3c a6 36 22 bd ac 3d 7c 3e
       0.002230481 0.009034208 -0.039602898 0.24632901
000060 46 ae 07 be 87 88 a5 bc 1d e3 82 3e 62 3b 36 3e
       -0.13250074 -0.020206703 0.255639 0.1779609
000070 fa e2 35 be 6a f1 20 3e ec cb 58 3e 33 7b 2c bc
       -0.17762366 0.15717092 0.2117154 -0.01052742

fc.4.weight f4 [16, 32]
000000 d7 da 28 be 5b 1e 40 be 2a ce 2f be dc b4 7d 3e
       -0.16489731 -0.1876158 -0.17168489 0.24776024
000010 94 86 86 3e 3f 8f a5 bc 67 2f cb bd f7 10 54 3e
       0.2627455 -0.020209907 -0.09921151 0.20709597
000020 75 3f 67 3e 51 9a 80 be fe e3 85 bc 9f 44 7c be
       0.225828 -0.25117734 -0.016344067 -0.24635552
000030 26 d5 17 3e fb 43 31 be 4b 9b 64 3d b8 8f 49 3e
       0.14827403 -0.17311089 0.05581216 0.1968373
000040 70 f0 b8 bd 33 4f 64 3e 9f eb f5 bc cd 0f a8 bc
       -0.09030235 0.22295837 -0.03001958 -0.020515347
000050 d3 6c 90 3e 5d 10 aa 3d d1 5d 7e 3c 4c af 58 3d
       0.28208026 0.08303902 0.015525297 0.05290155
000060 4d 8b 09 3c df c9 81 3e 32 e9 1a 3d d7 a3 46 be
       0.008395028 0.25349328 0.03782005 -0.19398437
000070 41 24 da 3d 18 56 34 bb e8 be 97 bc 1a 62 39 bd
       0.10651446 -0.0027517136 -0.018523648 -0.045259573
000080 39 25 36 be b4 80 97 be ca 8b 70 bd 89 d5 aa bc
       -0.17787637 -0.2959038 -0.058727063 -0.020853775
000090 f9 47 aa 3e 0f 84 65 be be ed 74 be 6f 00 3f 3e
       0.33258036 -0.22413658 -0.23918816 0.18652509
0000a0 bb 85 be 3d b7 2e 20 be 67 77 45 be 41 21 3f be
       0.09302851 -0.1564282 -0.1928383 -0.18665029
0000b0 b6 79 c2 3d 1b c4 89 bc 88 d9 52 3e 05 35 72 3c
       0.09495871 -0.016817143 0.20590794 0.014783149
0000c0 bd e1 1f bd 8a d2 9d 3d c1 f7 b7 bd 94 74 68 bc
       -0.03903364 0.07706173 -0.08982802 -0.014187951
0000d0 40 a5 54 3e 9c 3a 52 be cf 3d 0d 3d 90 bd bc 3d
       0.20766163 -0.2053017 0.034482773 0.09215844
0000e0 1b 19 53 3e fd c4 69 3e 17 e7 03 3e 5e 56 17 be
       0.20615046 0.22829051 0.12881123 -0.1477904
0000f0 b7 c6 08 bd c2 25 79 3e 7c 21 b3 3d 25 98 3b be
       -0.033392634 0.2433081 0.08746621 -0.18319757
000100 af 69 0c 3e 2e 73 80 3e 00 ac 2c 3d f4 f5 3f be
       0.1371219 0.25087875 0.04215622 -0.18746167
000110 0e 4e b4 bd 79 a3 19 3e a9 4a b7 3d 59 c8 7d be
       -0.0880395 0.15003766 0.08949787 -0.24783458
000120 89 2b c5 bd 90 6a 9e bc 3c cb 4a 3e 66 70 23 3c
       -0.09627444 -0.019337922 0.1980409 0.009975528
000130 72 33 62 3d b5 2e 28 3e 23 c8 93 3c 75 cd fc bc
       0.055224843 0.16424067 0.018039769 -0.030859688
000140 39 3d 4a be 0c 0e 1b be 95 4a ed 3d 48 68 64 bd
       -0.19749917 -0.15142077 0.11586491 -0.055763513
000150 16 1a d9 bd b8 1a 0f 3c 81 33 85 be 51 f3 26 be
       -0.106006786 0.008734398 -0.26015857 -0.16303755
000160 4f dc 86 be 0f 1f 77 bd 63 b7 89 bd 6b f7 6b 3d
       -0.26339957 -0.060332354 -0.06724431 0.057609003
000170 24 6d 9e 3d 77 e2 82 3d c0 cd 86 bd 27 a0 6d 3e
       0.07735661 0.06390851 -0.065822124 0.23205625
000180 5b fd 26 3e 06 6d a3 3e bb 3d 5b 3d 51 be a5 bd
       0.16307585 0.31919116 0.053525668 -0.080929406
000190 0c 10 84 be cc 26 e0 bc c8 6e 0a bd 54 31 69 bb
       -0.25793493 -0.02736225 -0.033797055 -0.003558238
0001a0 72 4b 18 be 7f a5 5c 3e ab cf 21 3e df ba 76 3e
       -0.1487253 0.21547507 0.15801875 0.24094723
0001b0 d0 34 54 be 9f 23 af 3d 55 66 bb bd 3b 6e 33 be
       -0.20723271 0.08551716 -0.09150378 -0.17522518
0001c0 f8 99 b1 3d f5 06 51 be 0a 4e eb 3d ed 94 b2 bd
       0.08671945 -0.2041281 0.11489494 -0.087198116
0001d0 8c 54 81 bd 50 2b c1 3d 28 ec 7c be 73 44 d1 bd
       -0.06314954 0.09432089 -0.24699461 -0.10218134
0001e0 a7 ba 84 be 59 9d cd bd 13 a1 c1 3d e0 02 01 3d
       -0.25923654 -0.10039777 0.094545506 0.031496882
0001f0 18 fb 8a 3c 47 53 18 be 07 07 8f 3d 89 ce 57 3e
       0.016965434 -0.14875518 0.06983762 0.2107488
000200 e7 e1 49 be 65 4f a4 be 0e cf 6c be 37 8b 63 3e
       -0.19715081 -0.32091823 -0.2312586 0.22221075
000210 fd 20 bd 3d 3b 25 71 bd bb fe 80 bc f9 9e 2a 3e
       0.09234808 -0.058873396 -0.015746465 0.16662206
000220 7d ce ab 3e 0f 1b 02 be 36 36 35 bd a0 71 95 be
       0.33555976 -0.12705635 -0.044241153 -0.29188251
000230 c5 57 89 3e d3 7b 0d bd b5 a5 b3 3e 11 e2 c6 bd
       0.26824775 -0.034541916 0.35087362 -0.097110875
000240 50 34 cd bd 53 c5 42 3e 03 bb 93 bd 63 a7 b5 3d
       -0.100197434 0.19020586 -0.07213404 0.08869817
000250 66 8e 4e 3e 88 27 47 bd 4c d5 df 3c 2e 63 cd 3d
       0.20171508 -0.048621684 0.027323388 0.10028683
000260 87 15 49 3e 8b a0 fd bc 76 d6 04 be c3 66 84 be
       0.19637118 -0.030960342 -0.12972435 -0.2585965
000270 b0 17 7f bb 80 98 79 3e 24 4e f4 3d ce 95 49 be
       -0.003892403 0.2437458 0.11928967 -0.19686052
000280 aa 97 9c 3c 0a 29 d9 3d e7 a6 62 3e 03 01 88 be
       0.019115288 0.10603531 0.2213398 -0.26563272
000290 e2 8b 81 be a8 da cd 3d 60 ef 17 bd 3b ce 88 be
       -0.25302035 0.10051471 -0.03709352 -0.2671984
0002a0 52 7f f0 bc d6 91 25 3e cc c5 86 3e 22 c6 0f 3e
       -0.029357586 0.16168913 0.26322782 0.14040425
0002b0 71 2a 2b bd 2d 83 68 3e ae a9 61 be 8a 19 45 3d
       -0.041788522 0.2270629 -0.22037384 0.04812006
0002c0 be 1a 1a be d2 b6 e2 bd 37 a0 f8 3d 32 e9 8f bd
       -0.15049264 -0.110700265 0.121399336 -0.070269
0002d0 c9 90 51 be 28 96 47 bd ae 7d 8c bc e2 1e e1 bc
       -0.20465387 -0.048727185 -0.017149772 -0.027480546
0002e0 d7 a2 ea bd 23 32 9f bd 6a 05 02 bd b0 2e 4f 3e
       -0.114568405 -0.07773235 -0.031743445 0.20232654
0002f0 c8 fd 04 bd f8 8d 22 be 62 ac 9d bd 4c 76 cc 3d
       -0.032468587 -0.1587447 -0.07698895 0.09983501
000300 cf 38 7e 3e 6b a6 87 3e 7c 3a 9c bd c4 6b 29 bd
       0.24826358 0.26494154 -0.076283425 -0.04136254
000310 65 53 9f be 63 e9 6e 3e e0 de 44 3e 47 62 38 be
       -0.31118312 0.23331217 0.19225645 -0.1800624
000320 66 49 5c be 59 2f 42 3e af e8 82 3e 90 2a aa 3e
       -0.21512374 0.18963374 0.25568148 0.33235598
000330 0b e6 42 be 8a 6f 0b 3e 26 5e 8a be f6 d3 52 be
       -0.19033067 0.13616768 -0.27024955 -0.20588669
000340 16 4e c2 bd 3c ea 0b bd e2 da 81 3e 22 a1 0e be
       -0.0948755 -0.03415893 0.25362307 -0.13928655
000350 fd 21 90 be 92 4a 55 3e f7 e6 8f be 92 52 8d be
       -0.2815093 0.20829228 -0.281059 -0.2760206
000360 53 87 06 be 58 cc 02 bc 36 b2 cd bd fc ec 0c 3e
       -0.1313756 -0.00798329 -0.10043757 0.13762277
000370 5f 69 56 be 61 87 af bd 13 0d dc 3d 17 a6 34 3e
       -0.20938633 -0.08570743 0.10744681 0.17641483
000380 42 a8 21 be 8a a4 8f be f4 3d d1 bd 66 ee fb 3d
       -0.15786842 -0.2805522 -0.10216895 0.1230133
000390 ec 83 25 3e eb f8 e4 bd 88 80 44 be 6a 9f 03 bd
       0.16163605 -0.1118029 -0.19189656 -0.03213445
0003a0 33 cc 9e 3e 78 68 18 be 57 96 c7 bd e8 59 b0 be
       0.31015167 -0.14883602 -0.09745472 -0.34443593
0003b0 02 61 55 3e a7 68 93 3b 7c bd 64 3e 61 91 81 bd
       0.20837787 0.0044985595 0.22337908 -0.06326557
0003c0 fa e0 39 3e f5 07 94 3e 40 0d 89 be 0f bf 02 3d
       0.18152228 0.2891232 -0.2676792 0.03192049
0003d0 3d 22 4d 3e c5 b8 90 3d 6c af a0 3e bf 9d 8d 3e
       0.20032592 0.07066492 0.31383836 0.27659413
0003e0 86 e2 86 bc e9 ee 39 3c 59 58 c4 3d e2 43 52 be
       -0.016465437 0.0113484645 0.095871635 -0.20533708
0003f0 19 ab 8a 3e 1f 8f 47 3e 6e d4 5f 3c bc 23 35 be
       0.27083662 0.1948819 0.013661487 -0.17689413

fc.4.bias f4 [16]
000000 6c 21 e8 3d 75 a7 3d bd 33 04 8e 3d a9 0d 80 3d
       0.113345 -0.046302278 0.06934395 0.062526055
000010 1f b7 c2 3c 0f b4 0d be b0 49 85 3d 87 7f 61 3d
       0.02376896 -0.13838218 0.065081954 0.05505326
000020 b4 92 c5 bc 9b c5 8b bd d3 bd e9 bd a8 d0 48 bd
       -0.024117805 -0.068247996 -0.11413159 -0.049027115
000030 ce fd d7 3d 31 55 92 bd 22 fe eb 3d b3 74 06 be
       0.10546456 -0.07145155 0.11523081 -0.13130455

fc.6.weight f4 [2, 16]
000000 2f c4 88 3e a2 ee ab 3e a1 a6 b1 be 7e 47 09 be
       0.26712176 0.335805 -0.3469744 -0.13406178
000010 92 69 9a 3e 21 be df be 7c fb d4 be 02 c3 e4 3e
       0.3015867 -0.43699744 -0.41598117 0.4468003
000020 ba 68 d2 be 0d b0 ce be ea 37 8f be 4d 1e 00 3f
       -0.41095525 -0.4036869 -0.27972347 0.50046235
000030 3c ac 60 be 2f e2 4f 3e 92 29 88 3e 06 14 d5 3e
       -0.21940702 0.20301126 0.26594216 0.4161684
000040 5c 75 d1 be 3e 95 9d be aa eb a4 3e 94 86 ac 3e
       -0.4090985 -0.30777925 0.32211047 0.33696425
000050 b5 e4 05 be 4a f2 3e 3e db 39 d9 3e 19 28 d7 be
       -0.13075526 0.18647113 0.42426953 -0.4202278
000060 05 65 1c 3d 88 78 41 3e 23 33 30 3e 38 e7 9e bd
       0.038182277 0.18893635 0.17207007 -0.07758945
000070 a3 c9 b4 3e 30 16 a8 be 23 90 b7 3c 19 e6 21 be
       0.35310087 -0.32829428 0.022407597 -0.15810432

fc.6.bias f4 [2]
000000 e1 1f 5e be fc b4 51 bd
       -0.21691848 -0.05119799
