PPO/ckpt/InvertedPendulum-v5_episode_267_reward_962.pth (torch, 10114 bytes, 12 tensors)

bn.weight f4 [4]
1.0 1.0 1.0 1.0
00000000: 0000 803f 0000 803f 0000 803f 0000 803f

bn.bias f4 [4]
0.0 0.0 0.0 0.0
00000000: 0000 0000 0000 0000 0000 0000 0000 0000

bn.running_mean f4 [4]
0.0 0.0 0.0 0.0
00000000: 0000 0000 0000 0000 0000 0000 0000 0000

bn.running_var f4 [4]
1.0 1.0 1.0 1.0
00000000: 0000 803f 0000 803f 0000 803f 0000 803f

fc.0.weight f4 [16, 4]
0.4763319 -0.65294874 0.3282789 -0.36452723 0.36269316 -0.26895344 0.13121651 -0.40872866
-0.2484769 0.013734902 -0.39633876 -0.33812135 -0.40277767 -0.5529432 0.114480816 -0.03579201
0.48807606 0.8392037 0.40653226 0.22073601 0.16505775 -0.6933347 -0.35901108 -0.26866096
0.4169266 -0.9159135 0.073835425 -0.40009972 0.04351242 0.067167595 -0.26579174 0.28592667
0.36979243 0.847811 0.24471678 0.503322 0.17544791 -0.20316705 -0.36565113 0.21644546
-0.2671328 0.3848708 0.18307915 0.3487507 0.2987034 0.49940598 0.38408884 0.03167849
0.4836344 0.13117193 0.25845617 -0.20528512 -0.21467017 0.85037124 0.19608961 0.01833448
0.53651965 0.26834568 0.39296344 0.37843373 0.5214173 -0.42616323 -0.11356369 -0.093458235
00000000: c6e1 f33e a627 27bf 2c14 a83e 50a3 babe
00000010: ebb2 b93e 44b4 89be 9f5d 063e e244 d1be
00000020: ba70 7ebe 5b08 613c eaec cabe 3e1e adbe
00000030: e038 cebe b08d 0dbf eb74 ea3d a59a 12bd
00000040: 1be5 f93e 0ed6 563f ff24 d03e 9f08 623e
00000050: e604 293e 627e 31bf 4dd0 b7be ee8d 89be
00000060: 6777 d53e 4f79 6abf 0737 973d dfd9 ccbe
00000070: 143a 323d 2a8f 893d db15 88be fb64 923e
00000080: 6f55 bd3e 240a 593f 0997 7a3e b6d9 003f
00000090: 9ea8 333e 060b 50be a036 bbbe e1a3 5d3e
000000a0: a1c5 88be c90d c53e 1a79 3b3e 748f b23e
000000b0: a7ef 983e 24b2 ff3e 4ba7 c43e 4ec1 013d
000000c0: ee9e f73e ef51 063e 5e54 843e 4336 52be
000000d0: 7fd2 5bbe eeb1 593f b7cb 483e 3132 963c
000000e0: 5a59 093f 9b64 893e 8132 c93e 11c2 c13e
000000f0: 9b7b 053f 1132 dabe 1494 e8bd 0867 bfbd

fc.0.bias f4 [16]
0.2087213 -0.17100918 0.18460971 -0.0864217 0.19275239 0.09710094 0.23868255 -0.3115799
0.049504396 -0.03397814 0.033408344 0.018085938 -0.3699531 0.12018956 -0.043627966 0.49379852
00000000: 09bb 553e 081d 2fbe 540a 3d3e dcfd b0bd
00000010: e260 453e dcdc c63d 3369 743e 6787 9fbe
00000020: 1fc5 4a3d aa2c 0bbd 30d7 083d f628 943c
00000030: 7e6a bdbe f225 f63d 3db3 32bd 29d3 fc3e

fc.2.weight f4 [32, 16]
0.25727627 -0.1810053 0.017422535 0.10822903 -0.1160452 0.016326133 0.2943452 -0.17459635
0.09053678 -0.1468507 0.102973364 -0.28190902 0.098819554 -0.05681915 0.11290586 0.09590126
-0.11945319 0.021124927 0.16942915 -0.30781624 0.09820971 0.123493105 0.08485298 0.15342706
0.35248202 -0.02814342 0.233646 0.17172858 -0.1628129 0.10166105 0.2756104 0.10914652
-0.099536456 0.11154951 -0.040601123 -0.07992615 0.4357481 -0.40398327 -0.2495028 -0.16643429
0.27775556 0.00039904937 0.0049805897 0.29496473 -0.058349393 0.14698663 0.062718146 0.23332304
0.23547405 0.0922113 -0.058540396 0.29483894 -0.23347192 0.0061294055 -0.067081586 -0.07367152
-0.329647 -0.11452559 0.052681137 -0.13056281 -0.00087899534 -0.4257797 0.0849167 0.206591
-0.18903057 0.11503195 -0.19995682 -0.045986947 -0.14040373 -0.16642788 0.20898162 0.11769343
-0.17668489 -0.16769867 -0.16584656 0.10368881 0.24126004 -0.37003615 0.04154951 0.09917916
0.015043756 0.23656379 0.15530874 -0.15236853 -0.329217 0.16960947 0.18455023 0.15074198
0.1260343 -0.16819586 -0.16180132 -0.3043907 0.03647439 -0.4368848 0.07050659 0.22742154
-0.083869465 -0.23224293 -0.18318841 -0.317352 0.13550642 -0.2474808 -0.23188421 -0.063440286
0.22521895 -0.3203055 0.12760454 0.28402022 -0.051231008 0.2790487 0.20493852 0.09521624
-0.27241337 -0.17730467 -0.12868829 -0.12221076 0.20631686 -0.18839045 -0.34021991 0.21856353
0.16823801 -0.12848273 0.072301835 0.008693239 -0.13361141 0.30472538 0.18134451 -0.13444921
-0.2150752 -0.072404355 0.018199524 -0.25913057 0.0932583 0.06733795 -0.1797778 -0.16472962
0.21170072 -0.11999845 0.13491726 0.24909459 -0.14439645 0.24261802 -0.119882956 -0.03758195
0.17536522 -0.20185156 0.039222606 -0.11298584 -0.085090704 0.19382386 -0.1352856 -0.13400239
-0.13207118 -0.14339599 -0.006192038 0.14507248 0.10725755 -0.2067304 0.06749159 -0.22765216
0.13959609 0.12323675 -0.08768393 -0.32515168 0.35063273 0.19223239 0.08041594 -0.07321797
0.13244295 0.19360639 0.04530959 0.1649033 0.17062545 -0.10266723 -0.16825826 0.048006497
0.040166263 0.07829657 -0.041029017 0.06926448 0.30463853 0.018919399 -0.08552542 0.12238245
0.3400146 0.07112014 0.05990753 -0.0696149 -0.12510966 0.136374 0.08256856 0.11266565
0.24737759 -0.1879709 -0.11688623 -0.01405118 -0.15942805 0.1083129 0.20677076 -0.042558655
-0.18667136 0.011288942 -0.086006686 0.013246578 -0.00929995 -0.3744364 -0.2555267 0.036576524
-0.108008265 -0.17985827 0.20541057 0.07471721 -0.014321498 0.21744658 0.22700754 0.13940986
-0.22228439 0.11066204 -0.1486908 -0.20592833 0.17923613 -0.09726754 -0.19947432 0.034015276
0.070045166 0.11685909 0.04468176 -0.108245626 -0.2650303 0.3233102 0.15569346 -0.15896294
-0.18186119 0.01118387 0.060758308 0.12880783 0.045292914 -0.26389086 -0.029637413 0.14037098
-0.0877575 -0.095639 0.2079338 0.13754877 -0.0712072 -0.33461916 -0.21717687 -0.14762032
0.30615082 -0.032774664 0.16520424 0.36788428 -0.20188414 0.3826383 0.26549202 -0.18408667
00000000: b7b9 833e 7459 39be b4b9 8e3c 2fa7 dd3d
00000010: 1ba9 edbd 62be 853c 6ab4 963e 63c9 32be
00000020: 596b b93d 0860 16be b3e3 d23d 6156 90be
00000030: e861 ca3d 32bb 68bd 303b e73d e167 c43d
00000040: e0a3 f4bd 2f0e ad3c d67e 2d3e 179a 9dbe
00000050: 2c22 c93d f4e9 fc3d 66c7 ad3d fc1b 1d3e
00000060: 8678 b43e 088d e6bc e640 6f3e 9ed9 2f3e
00000070: 6db8 26be ab33 d03d ce1c 8d3e 3688 df3d
00000080: c5d9 cbbd 1274 e43d 5d4d 26bd 52b0 a3bd
00000090: 601a df3e e5d6 cebe a97d 7fbe c06d 2abe
000000a0: fa35 8e3e 8037 d139 3734 a33b 9e05 973e
000000b0: c6ff 6ebd aa83 163e 5f72 803d 3cec 6e3e
000000c0: 1c20 713e 47d9 bc3d 0ec8 6fbd 21f5 963e
000000d0: 4313 6fbe 2ed9 c83b 1262 89bd 18e1 96bd
000000e0: 7ec7 a8be 648c eabd 2dc8 573d 42b2 05be
000000f0: 616c 66ba ccff d9be cfe8 ad3d 978c 533e
00000100: 3b91 41be df95 eb3d 7bc1 4cbe cf5c 3cbd
00000110: ffc5 0fbe 126c 2abe 47ff 553e 4109 f13d
00000120: e2ec 34be 33b9 2bbe aed3 29be cc5a d43d
00000130: df0c 773e 6175 bdbe d22f 2a3d 721e cb3d
00000140: 167a 763c c73d 723e 4109 1f3e 7f06 1cbe
00000150: 218f a8be 1bae 2d3e bcfa 3c3e 1b5c 1a3e
00000160: 230f 013e 893b 2cbe 3faf 25be 19d9 9bbe
00000170: 2c66 153d 5daf dfbe c265 903d 31e1 683e
00000180: c1c3 abbd 17d1 6dbe be95 3bbe f67b a2be
00000190: 32c2 0a3e 9b6b 7dbe 0e73 6dbe fbec 81bd
000001a0: cc9f 663e 15ff a3be c4aa 023e 196b 913e
000001b0: 9bd7 51bd 79df 8e3e 67db 513e bb00 c33d
000001c0: c479 8bbe 5b8f 35be ddc6 03be a349 fabd
000001d0: ba44 533e 6de9 40be 4e31 aebe 1ecf 5f3e
000001e0: 9646 2c3e fa90 03be fc12 943d 166e 0e3c
000001f0: 6ed1 08be f704 9c3e 60b2 393e 0ead 09be
00000200: ac3c 5cbe bc48 94bd 2b17 953c c3ac 84be
00000210: 35fe be3d 7be8 893d ac17 38be e2ae 28be
00000220: 13c8 583e bfc1 f5bd c027 0a3e a712 7f3e
00000230: aadc 13be dc70 783e 3285 f5bd 88ef 19bd
00000240: f192 333e 2db2 4ebe e2a7 203d 1f65 e7bd
00000250: 0944 aebd c379 463e 4f88 0abe ec37 09be
00000260: ab3d 07be 66d6 12be 94e6 cabb e18d 143e
00000270: d9a9 db3d 22b1 53be 0839 8a3d a61d 69be
00000280: 47f2 0e3e 8d63 fc3d a293 b3bd 487a a6be
00000290: 2286 b33e 91d8 443e 1db1 a43d 4ef3 95bd
000002a0: 209f 073e c140 463e 8c96 393d 69dc 283e
000002b0: 70b8 2e3e 3243 d2bd e54b 2cbe 76a2 443d
000002c0: 6185 243d f459 a03d 0b0e 28bd 89da 8d3d
000002d0: 95f9 9b3e dbfc 9a3c f427 afbd a6a3 fa3d
000002e0: 6516 ae3e 70a7 913d 9961 753d 4292 8ebd
000002f0: bf1c 00be a0a5 0b3e b519 a93d 40bd e63d
00000300: 8d50 7d3e 727b 40be 0c62 efbd ec36 66bc
00000310: 1b41 23be 27d3 dd3d b7bb 533e fc51 2ebd
00000320: c726 3fbe 41f5 383c 4624 b0bd 2d08 593c
00000330: d15e 18bc 21b6 bfbe 65d4 82be 44d1 153d
00000340: 7033 ddbd c42c 38be 2657 523e 5605 993d
00000350: b7a4 6abc 51aa 5e3e aa74 683e 75c1 0e3e
00000360: 859e 63be c8a2 e23d 6742 18be e0de 52be
00000370: ad89 373e 3434 c7bd ff42 4cbe 9a53 0b3d
00000380: d773 8f3d d253 ef3d 3904 373d e2af ddbd
00000390: 0db2 87be ea88 a53e 1b6e 1f3e 2ec7 22be
000003a0: d239 3abe 8d3c 373c b4dd 783d 33e6 033e
000003b0: 1085 393d b41c 87be 29ca f2bc 69bd 0f3e
000003c0: 34ba b3bd 61de c3bd 99ec 543e 96d9 0c3e
000003d0: 15d5 91bd 3453 abbe 9d63 5ebe c829 17be
000003e0: cdbf 9c3e ba3e 06bd 4d2b 293e 545b bc3e
000003f0: b7ba 4ebe 2be9 c33e 92ee 873e 3781 3cbe

fc.2.bias f4 [32]
0.08573458 0.08747175 0.047360774 -0.07318404 -0.25697604 0.1393238 0.1375987 0.023724245
-0.13639227 -0.07294751 0.10107146 -0.019893074 -0.12897992 -0.17812754 0.12274607 -0.19187227
-0.06330287 0.181981 0.052583173 0.13842745 0.2230634 0.25051317 -0.09540316 -0.04121064
0.06811885 0.16576606 0.12045761 0.15021314 0.11101345 -0.16543524 0.011580032 -0.13044694
00000000: 9d95 af3d 6424 b33d 5ffd 413d 84e1 95bd
00000010: 5d92 83be e6aa 0e3e ace6 0c3e 5959 c23c
00000020: 6aaa 0bbe 8165 95bd 8efe ce3d cdf6 a2bc
00000030: 5013 04be 1167 36be 4b62 fb3d 2a7a 44be
00000040: efa4 81bd 3a59 3a3e 7461 573d edbf 0d3e
00000050: bb6a 643e 4343 803e bb62 c3bd 7dcc 28bd
00000060: e581 8b3d 94be 293e 7bb2 f63d 79d1 193e
00000070: 055b e33d db67 29be 2dba 3d3c e293 05be

fc.4.weight f4 [16, 32]
0.08122747 -0.2582443 -0.10710086 0.22812206 0.09639622 -0.055088595 0.025279207 0.1576739
0.04541422 0.1933774 -0.052968293 -0.22441442 0.15214624 0.20898068 -0.004503665 0.17150049
0.20354703 0.116821006 -0.17441292 0.04946701 0.026097048 -0.18615943 -0.1322058 0.029803896
0.11280737 -0.15647914 -0.16415362 -0.25667626 0.04222369 -0.029577056 -0.14060074 -0.0068043554
0.08947276 0.08671998 0.24305966 -0.0019170919 -0.17828824 -0.06164911 0.29855493 -0.054071005
0.17885336 -0.029568559 0.23764405 0.08083666 -0.03878083 -0.26950732 -0.075833 0.1625829
-0.063573755 -0.028956687 -0.26759124 0.008005428 0.14123486 0.2182867 0.042745505 -0.080870256
0.18808088 0.05073848 -0.14840718 0.26344013 0.05175053 0.028193805 0.15826952 0.007885849
0.13317844 -0.075416766 -0.29178202 0.0812604 0.08405063 0.19362624 -0.18027626 -0.21005452
-0.19903381 0.021076573 -0.13904747 -0.17293462 0.087554745 0.28218707 -0.09801559 -0.16067797
-0.024566434 0.14080863 0.24954337 -0.20523834 0.1712658 -0.19297087 0.19154778 -0.1941383
-0.104480594 -0.12435678 0.27941933 -0.20007473 -0.09694443 -0.054793335 -0.03577134 -0.09874145
-0.15634692 -0.067884535 -0.3420475 0.14121301 0.119949475 -0.097200006 -0.071850985 -0.024779944
-0.031140368 -0.05696676 -0.12814653 -0.0984426 0.17737307 0.2522461 0.12625386 0.03422074
0.12381489 -0.0021358328 0.22111344 -0.22233482 -0.014437051 -0.20066002 0.06037385 0.023932794
-0.18500002 0.063845426 -0.0746883 -0.28219593 0.07916044 0.008197708 -0.20605128 -0.026953211
-0.11008208 -0.12106194 -0.28866988 0.0020799967 -0.07445444 0.2040368 -0.09230087 -0.15480167
-0.23328832 0.17887068 0.059229724 -0.2335819 0.17746843 0.18307878 0.1778621 0.04244122
0.05158132 0.0771036 0.2166692 -0.14224067 -0.04843855 -0.030616157 0.07315572 -0.06597343
-0.090703145 -0.1557165 0.20326108 -0.19428656 0.053004242 0.17235531 0.001803979 -0.092408165
0.013461954 -0.068770975 0.075310625 0.047496174 0.13479775 0.056707457 0.09654167 0.21165568
0.22327769 -0.17145473 -0.085577376 0.079042435 0.039066255 0.025654431 -0.23302196 0.13429241
-0.1926046 -0.16650723 -0.12379663 0.10837584 0.04334499 0.04251443 -0.21068121 -0.14147963
0.1147591 -0.023766989 -0.2745793 0.20111401 0.0051036677 -0.13979308 0.27189675 0.12891938
-0.13845403 0.08547245 0.3123474 -0.0812688 -0.22803158 -0.08295466 0.2557015 0.052199256
-0.026748328 0.11560551 0.009264631 0.16634133 -0.057626996 -0.25522423 0.019728092 0.063996576
-0.17581673 -0.1365571 -0.022588024 -0.015838742 -0.11978355 0.15968741 0.023868024 -0.026054421
0.16045356 0.1579911 -0.15885873 0.16782308 0.20139381 -0.12142247 0.26027998 0.073205724
0.094621494 0.08942789 -0.033430394 -0.09834342 0.22069551 -0.01083585 -0.0058419704 -0.012007432
-0.029153649 0.135617 0.07010531 0.01321651 -0.13778122 0.11194166 -0.066575184 -0.09506493
0.11353405 -0.15809627 0.03776517 -0.15226348 -0.056834128 0.07140284 0.015692908 0.14795949
-0.13395967 -0.17884213 -0.022323048 -0.19578573 -0.02328611 -0.06125434 -0.20797305 0.18297873
00000000: 965a a63d 9938 84be b257 dbbd d498 693e
00000010: 626b c53d 94a4 61bd 5716 cf3c 4475 213e
00000020: 4304 3a3d ba04 463e 48f5 58bd e5cc 65be
00000030: 39cc 1b3e 08ff 553e 7b93 93bb d39d 2f3e
00000040: a26e 503e da3f ef3d 4d99 32be eb9d 4a3d
00000050: 7ac9 d53c 94a0 3ebe f560 07be 4d27 f43c
00000060: 8d07 e73d 113c 20be e317 28be 126b 83be
00000070: bff2 2c3d 954b f2bc a4f9 0fbe 12f7 debb
00000080: 7f3d b73d 3f9a b13d a2e4 783e ee46 fbba
00000090: 3191 36be c783 7cbd 31dc 983e 8f79 5dbd
000000a0: 5625 373e c339 f2bc f658 733e b18d a53d
000000b0: a6d8 1ebd ddfc 89be 554e 9bbd 227c 263e
000000c0: f532 82bd 9336 edbc b801 89be 3329 033c
000000d0: df9f 103e 8c86 5f3e e915 2f3d 4e9f a5bd
000000e0: 4698 403e 27d3 4f3d 0df8 17be a0e1 863e
000000f0: 5df8 533d b2f6 e63c 6811 223e a633 013c
00000100: ee5f 083e 1b74 9abd 7464 95be da6b a63d
00000110: bd22 ac3d f545 463e 579a 38be 8818 57be
00000120: 85cf 4bbe c7a8 ac3c 7662 0ebe c615 31be
00000130: e74f b33d d37a 903e 66bc c8bd c488 24be
00000140: 8c3f c9bc 2330 103e 4c88 7f3e 002a 52be
00000150: 4d60 2f3e 289a 45be 1a25 443e 31cc 46be
00000160: ecf9 d5bd c4ae febd 0d10 8f3e 64e0 4cbe
00000170: cd8a c6bd fa6e 60bd f884 12bd f538 cabd
00000180: 6819 20be 0c07 8bbd da20 afbe 259a 103e
00000190: 12a8 f53d cc10 c7bd 9c26 93bd 4fff cabc
000001a0: 161a ffbc fa55 69bd d838 03be 469c c9bd
000001b0: 49a1 353e 6726 813e b148 013e 0c2b 0c3d
000001c0: a992 fd3d 54f9 0bbb 906b 623e bdab 63be
000001d0: 6189 6cbc d279 4dbe 924a 773d b50e c43c
000001e0: a570 3dbe 64c1 823d 2ef6 98bd fc7b 90be
000001f0: de1e a23d ae4f 063c 1bff 52be fbcc dcbc
00000200: b772 e1bd 53ef f7bd 8acc 93be 8e50 083b
00000210: 927b 98bd 06ef 503e 3d08 bdbd 5484 1ebe
00000220: 22e3 6ebe e029 373e de9a 723d 1830 6fbe
00000230: 49ba 353e 0179 3b3e 7b21 363e d8d6 2d3d
00000240: ef46 533d 7ee8 9d3d 88de 5d3e 8aa7 11be
00000250: 8067 46bd bcce fabc abd2 953d 141d 87bd
00000260: 92c2 b9bd 2574 1fbe ac23 503e 0ef3 46be
00000270: fa1a 593d e97d 303e 7e73 ec3a 7e40 bdbd
00000280: 878f 5c3c ccd7 8cbd 753c 9a3d 598b 423d
00000290: 6c08 0a3e 1446 683d a4b7 c53d 44bc 583e
000002a0: e8a2 643e d491 2fbe 3143 afbd 00e1 a13d
000002b0: f003 203d 3e29 d23c 4f9d 6ebe f383 093e
000002c0: 243a 45be df80 2abe 1689 fdbd 27f4 dd3d
000002d0: 848a 313d 9c23 2e3d d1bc 57be 09e0 10be
000002e0: d206 eb3d fdb2 c2bc a895 8cbe d5f0 4d3e
000002f0: ab3c a73b eb25 0fbe 0d36 8b3e 7103 043e
00000300: e5c6 0dbe 2e0c af3d 00ec 9f3e 4270 a6bd
00000310: 1c81 69be 22e4 a9bd 4feb 823e e3ce 553d
00000320: 4f1f dbbc 95c2 ec3d aeca 173c 6255 2a3e
00000330: 490a 6cbd c0ac 82be cf9c a13c a310 833d
00000340: 4d09 34be a0d5 0bbe 850a b9bc 40c0 81bc
00000350: 1451 f5bd 1985 233e e086 c33c 1570 d5bc
00000360: f04d 243e 6bc8 213e ddab 22be d0d9 2b3e
00000370: 2e3a 4e3e 58ac f8bd 6b43 853e e2ec 953d
00000380: eac8 c13d f825 b73d 4fee 08bd 4668 c9bd
00000390: 01fe 613e d988 31bc 006e bfbb d2ba 44bc
000003a0: a2d3 eebc 2fdf 0a3e 5f93 8f3d 108a 583c
000003b0: 8516 0dbe ab41 e53d 9258 88bd 67b1 c2bd
000003c0: 8a84 e83d fde3 21be a7af 1a3d f5ea 1bbe
000003d0: e7ca 68bd a73b 923d 6a8e 803c b182 173e
000003e0: b92c 09be 6422 37be d3de b6bc 0e7c 48be
000003f0: 83c2 bebc d5e5 7abd e3f6 54be c75e 3b3e

fc.4.bias f4 [16]
0.08156622 0.23951782 0.029849784 -0.14339378 -0.0047700345 0.0028207747 -0.11986218 -0.13729525
-0.10433166 -0.004763574 0.009846639 -0.014979719 0.043492407 -0.036245715 -0.13232596 -0.14369881
00000000: 310c a73d 2944 753e 8987 f43c d2d5 12be
00000010: f34d 9cbb bfdc 383b 4d7a f5bd 2097 0cbe
00000020: d6ab d5bd c117 9cbb cc53 213c 7f6d 75bc
00000030: 1825 323d 6376 14bd 7580 07be c825 13be

fc.6.weight f4 [2, 16]
0.038997505 0.09939017 -0.3592183 -0.117991894 -0.13499597 0.2334313 0.2537131 0.03685001
-0.11960748 0.29746518 0.1326423 0.3269202 -0.12733226 0.32568482 -0.10096976 -0.25590006
0.22253068 -0.31995842 0.075857736 0.32196298 0.16892992 -0.106043525 -0.2442882 0.20853767
0.11613174 0.043387644 0.1848028 0.16656548 0.018068919 -0.03218584 -0.0922884 0.056486197
00000000: d9bb 1f3d 138d cb3d 76eb b7be bca5 f1bd
00000010: 623c 0abe 9d08 6f3e afe6 813e 09f0 163d
00000020: c4f4 f4bd 5b4d 983e 62d3 073e 1662 a73e
00000030: 6363 02be 29c0 a63e 3cc9 cebd 5505 83be
00000040: 15df 633e 97d1 a3be 4d5b 9b3d 55d8 a43e
00000050: f7fb 2c3e 592d d9bd b026 7abe e68a 553e
00000060: 7ad6 ed3d 3eb7 313d f23c 3d3e 2490 2a3e
00000070: 4505 943c 4dd5 03bd b301 bdbd 125e 673d

fc.6.bias f4 [2]
-0.21827367 -0.051840305
00000000: 2283 5fbe 8056 54bd
