DQN/ckpt/CartPole-v1_episode_217_reward_476.pth (torch, 72726 bytes, 6 tensors)

fc.0.weight f4 [128, 4]
0.007843771 -0.4967673 -0.15358439 -0.19439022 0.28525123 0.20306875 0.43765044 0.4749716
0.083043166 0.41708055 0.15965085 0.4736506 0.28833303 0.2089046 0.20182951 -0.01835515
0.24265245 0.23436075 0.64631134 -0.08218287 -0.088715605 -0.56309044 -0.6178209 -0.3564377
-0.12981683 0.2557898 0.19183642 0.18596974 -0.17521743 -0.19088854 -0.3475369 -0.24800003
-0.1780053 0.11063925 -0.23941888 -0.3299693 0.19175129 -0.35508958 -0.859036 -0.43155137
0.123056136 -0.37727675 -0.6303906 0.0445053 -0.05817361 0.11308133 -0.8526839 -0.37182093
-0.53461885 0.4545841 0.686985 0.41770867 0.37523603 -0.08516471 -0.16687481 -0.36154342
-0.16631952 -0.39980558 -0.8501489 -0.23457555 0.11614651 0.5260561 0.12328218 0.33162597
-0.45080867 0.30468497 0.2787762 0.047094442 -0.1208402 -0.23917481 -0.74035054 0.33939692
0.29084963 -0.40392727 -0.14246766 -0.5172777 -0.035141155 0.14023426 0.051742937 -0.014719441
-0.16474718 -0.025409289 -0.106176704 -0.09958668 -0.011935028 -0.5280495 0.029354338 0.116588406
-0.043399952 0.1656465 0.1942318 0.2873528 0.1912757 -0.250194 -0.08320856 0.20912454
-0.15250434 0.506035 -0.039252155 -0.10843385 -0.10779666 -0.11227455 -0.11016727 -0.1950822
0.056503817 0.2704158 0.9556169 0.38739836 0.13111028 -0.3658839 0.24479517 0.22594158
0.11039962 -0.031978697 -0.25360954 -0.3862366 -0.21808122 0.13761105 0.16177417 0.10522212
0.09580865 0.43025514 0.43984136 0.114380784 0.3522005 -0.27266026 0.23490153 0.0853508
0.30711704 -0.14851275 0.3243207 0.09730246 0.36088622 0.19497208 0.3996672 -0.2532158
0.27607715 0.15822934 0.65732163 0.02625446 0.55063194 -0.12909317 -0.047019865 -0.31061998
0.20231105 0.33621195 -0.008389114 -0.42431486 0.3906083 -0.01981556 0.22135699 -0.27447826
0.04445958 0.18449108 0.18544304 0.3491281 -0.29598895 0.10269928 -0.61208963 -0.34968242
0.250608 0.1893145 0.025721956 -0.25023535 0.41825998 0.098898835 0.006153556 -0.13965131
-0.37856236 -0.040807262 0.17849964 -0.29982117 -0.25247267 0.1254294 0.8570098 0.39008033
0.57753104 -0.28627354 -0.05185591 -0.41690272 0.49730644 0.27761167 -0.40005404 -0.7508329
-0.037346024 0.13324733 -0.53572464 -0.25414988 0.43831062 0.31504014 0.042841267 0.4199578
0.11490788 0.0651756 0.80277115 0.33286768 -0.105152905 0.324583 -0.38018772 0.19350837
0.23997678 0.1501804 0.71869355 0.18388307 -0.27051648 0.30372643 0.19431163 -0.19799376
0.60847646 -0.6827904 -0.52836293 -0.3669626 0.55320925 -0.4431844 -0.35005072 -0.29682493
0.3141304 0.4341755 -0.3613032 0.21774684 -0.044781193 0.17657422 0.6785117 0.21041958
-0.60520416 -0.03710236 0.22542429 0.21918392 -0.22237518 -0.3738865 -0.15981157 -0.20930058
0.23198502 -0.25589702 0.09697202 0.099553786 -0.12178573 -0.22102998 -0.2804927 -0.30882594
-0.24679662 0.19020067 -0.08679202 -0.48583087 0.16212216 0.07128721 -0.64019054 -0.13350682
0.15217069 -0.40438572 -0.07177363 -0.17526187 0.30636683 0.43255526 -0.37639254 0.35746756
00000000: 2983 003c 4958 febe 3a45 1dbe 3b0e 47be
00000010: 730c 923e 41f1 4f3e b813 e03e 7a2f f33e
00000020: 8912 aa3d 958b d53e 837b 233e 5582 f23e
00000030: 63a0 933e 16eb 553e 65ac 4e3e 8a5d 96bc
00000040: e279 783e 44fc 6f3e a974 253f 7e4f a8bd
00000050: 87b0 b5bd b226 10bf 8329 1ebf 017f b6be
00000060: b4ee 04be e1f6 823e c470 443e da6e 3e3e
00000070: 336c 33be 4978 43be 5bf0 b1be b8f3 7dbe
00000080: 0547 36be d596 e23d 392a 75be bcf1 a8be
00000090: 735a 443e 4dce b5be c9e9 5bbf 4df4 dcbe
000000a0: db04 fc3d 6b2a c1be 4761 21bf 304b 363d
000000b0: 7447 6ebd 2f97 e73d 7e49 5abf 505f bebe
000000c0: c8dc 08bf 3fbf e83e 40de 2f3f e9dd d53e
000000d0: f01e c03e d66a aebd 3be1 2abe 381c b9be
000000e0: aa4f 2abe 51b3 ccbe 5ca3 59bf 9334 70be
000000f0: 39de ed3d 9dab 063f 5e7b fc3d e1ca a93e
00000100: 65d0 e6be abff 9b3e c1bb 8e3e 1ae6 403d
00000110: 117b f7bd 3eea 74be 9d87 3dbf 6fc5 ad3e
00000120: 3eea 943e 8ecf cebe 0be3 11be 506c 04bf
00000130: 2cf0 0fbd 9299 0f3e 67f0 533d cf29 71bc
00000140: 7cb3 28be 2427 d0bc 2c73 d9bd 1af4 cbbd
00000150: 238b 43bc 412e 07bf 8278 f03c e7c5 ee3d
00000160: 26c4 31bd 3c9f 293e b3e4 463e e81f 933e
00000170: c7dd 433e 6e19 80be 4069 aabd be24 563e
00000180: 192a 1cbe 828b 013f dec6 20bd 9112 debd
00000190: 7fc4 dcbd 33f0 e5bd 619f e1bd a1c3 47be
000001a0: 8c70 673d f173 8a3e 4fa3 743f 1459 c63e
000001b0: c641 063e 2255 bbbe 96ab 7a3e 3b5d 673e
000001c0: 3219 e23d 18fc 02bd 1cd9 81be cec0 c5be
000001d0: af50 5fbe e9e9 0c3e 21a8 253e b27e d73d
000001e0: 5337 c43d 674a dc3e e332 e13e 7940 ea3d
000001f0: a053 b43e 209a 8bbe 078a 703e 66cc ae3d
00000200: 723e 9d3e ba13 18be 5d0d a63e 8346 c73d
00000210: 14c6 b83e c3a6 473e 2ea1 cc3e 80a5 81be
00000220: fc59 8d3e df06 223e 3b46 283f 9813 d73c
00000230: 37f6 0c3f 0031 04be e797 40bd 9509 9fbe
00000240: a12a 4f3e f923 ac3e 7f72 09bc cc3f d9be
00000250: d0fd c73e 3e54 a2bc 68ab 623e 6a88 8cbe
00000260: 401b 363d 3beb 3c3e c8e4 3d3e ebc0 b23e
00000270: dd8b 97be 0054 d23d e8b1 1cbf 9309 b3be
00000280: b14f 803e a9db 413e dab6 d23c d91e 80be
00000290: 2c26 d63e 798b ca3d c5a3 c93b c100 0fbe
000002a0: edd2 c1be 8425 27bd 9cc8 363e 2982 99be
000002b0: 1944 81be 9170 003e ff64 5b3f 9cb8 c73e
000002c0: 13d9 133f 7292 92be dd66 54bd 4674 d5be
000002d0: f39e fe3e 1e23 8e3e e2d3 ccbe 9636 40bf
000002e0: 25f8 18bd fd71 083e 4025 09bf ef1f 82be
000002f0: 406a e03e f14c a13e 537a 2f3d b504 d73e
00000300: d354 eb3d c97a 853d 6982 4d3f a26d aa3e
00000310: 685a d7bd be2f a63e f7a7 c2be 0f27 463e
00000320: 79bc 753e e4c8 193e 4dfc 373f d84b 3c3e
00000330: 2381 8abe 0882 9b3e a1f9 463e e0be 4abe
00000340: 1dc5 1b3f 5acb 2ebf cb42 07bf 86e2 bbbe
00000350: 1f9f 0d3f 11e9 e2be d939 b3be 70f9 97be
00000360: b3d5 a03e 404c de3e bcfc b8be 07f9 5e3e
00000370: 7c6c 37bd dfcf 343e f1b2 2d3f 3b78 573e
00000380: a9ee 1abf a5f8 17bd a0d5 663e c071 603e
00000390: 52b6 63be 0d6e bfbe a5a5 23be e452 56be
000003a0: 7b8d 6d3e ef04 83be 4499 c63d dbe2 cb3d
000003b0: cc6a f9bd af55 62be bd9c 8fbe 6f1e 9ebe
000003c0: 41b8 7cbe f7c3 423e 04c0 b1bd d3be f8be
000003d0: 5a03 263e 07ff 913d 87e3 23bf 03b6 08be
000003e0: a2d2 1b3e a50b cfbe 0efe 92bd d977 33be
000003f0: 1ddc 9c3e e277 dd3e 86b6 c0be fd05 b73e

fc.0.bias f4 [128]
0.26776078 -0.40444148 0.6077655 -0.4628681 -0.5617037 -0.29315692 0.44344082 -0.5291859
0.13467538 -0.41302872 0.58439815 0.59783477 0.14241783 -0.50529116 0.18663596 0.33143982
0.38648817 0.39583027 0.5929819 0.44522765 -0.654847 0.22298685 -0.34151876 0.57022506
-0.4300829 0.46306488 0.071278855 0.62632436 -0.34562483 -0.17711411 -0.2622652 0.3850072
0.612307 0.63642657 0.30518293 0.565988 -0.23242714 0.31407177 0.69532824 0.47594684
-0.39192995 0.63591087 -0.58681566 -0.62612265 -0.14293733 0.05532352 0.19130664 0.65125906
-0.35948014 0.23214808 -0.41507325 0.5149963 0.010695992 -0.122190006 0.64779305 -0.41509807
-0.1804961 0.41745976 -0.350732 0.5527875 0.29395542 0.35254687 0.45420766 0.62873316
-0.37544242 -0.046730842 -0.6078118 -0.5818029 0.39169148 0.35006887 -0.23581907 0.49782738
0.5152289 -0.6549824 -0.23732734 -0.104702525 0.57311124 -0.5089988 -0.28101507 -0.2618651
-0.24596064 0.29105118 -0.23013629 0.59999293 0.6307273 0.52533144 0.301185 -0.38971317
0.6297771 0.25592276 0.4833634 0.4855654 0.43430355 0.24182981 -0.2829602 0.56208086
0.20947003 -0.17916793 -0.23601522 -0.3462611 -0.15519375 0.20765111 -0.21431829 0.6240221
-0.46828943 -0.22482191 0.64196426 0.507594 -0.55403954 0.46053448 0.59663767 -0.16336742
-0.33525297 -0.29115868 -0.3655859 0.565817 0.36104363 0.33487576 -0.11607559 0.3057162
0.33644998 -0.68980956 0.41036052 -0.43862385 0.37148178 -0.47033688 -0.45165235 0.6822858
00000000: f117 893e f412 cfbe 8596 1b3f 0cfd ecbe
00000010: d0cb 0fbf aa18 96be ad0a e33e ba78 07bf
00000020: 58e8 093e 8078 d3be 1e9b 153f b30b 193f
00000030: fbd5 113e c35a 01bf 7f1d 3f3e 7bb2 a93e
00000040: c7e1 c53e 44aa ca3e a9cd 173f e1f4 e33e
00000050: 0ea4 27bf aa56 643e 8cdb aebe 45fa 113f
00000060: d333 dcbe d716 ed3e a6fa 913d cb56 203f
00000070: bdf5 b0be 675d 35be a047 86be aa1f c53e
00000080: 27c0 1c3f daec 223f f040 9c3e 97e4 103f
00000090: 6101 6ebe 04ce a03e 0801 323f 4eaf f33e
000000a0: 0bab c8be 0ecb 223f 8d39 16bf 9349 20bf
000000b0: 2a5e 12be ea9a 623d e3e5 433e eab8 263f
000000c0: c80d b8be 3ab8 6d3e 7b84 d4be ccd6 033f
000000d0: 3e3e 2f3c c13e fabd c4d5 253f bc87 d4be
000000e0: f8d3 38be 49bd d53e 2593 b3be 7b83 0d3f
000000f0: 5381 963e 0681 b43e e88d e83e a8f4 203f
00000100: fd39 c0be d768 3fbd 8e99 1bbf 09f1 14bf
00000110: c98b c83e 3a3c b33e 8e7a 71be 3be3 fe3e
00000120: 0be6 033f edac 27bf f005 73be 476e d6bd
00000130: 6bb7 123f bf4d 02bf 35e1 8fbe 2f13 86be
00000140: 1bdd 7bbe a904 953e d9a8 6bbe 2399 193f
00000150: 5877 213f 1f7c 063f ec34 9a3e 7c88 c7be
00000160: 1239 213f 4f08 833e 687b f73e 079c f83e
00000170: 095d de3e 3ca2 773e 29e0 90be 88e4 0f3f
00000180: 507f 563e cc77 37be f9ad 71be 2349 b1be
00000190: 1ceb 1ebe 7ea2 543e 4176 5bbe eabf 1f3f
000001a0: a2c3 efbe b737 66be c557 243f aef1 013f
000001b0: 89d5 0dbf 2dcb eb3e 3fbd 183f ca49 27be
000001c0: 47a6 abbe c012 95be 132e bbbe 62d9 103f
000001d0: b6da b83e d674 ab3e 0ab9 edbd d586 9c3e
000001e0: 2c43 ac3e 5c97 30bf c61a d23e 4e93 e0be
000001f0: dc32 be3e ffcf f0be fa3e e7be 48aa 2e3f

fc.2.weight f4 [128, 128]
-0.19034648 0.27455008 0.023162758 0.07145112 0.186365 0.039059553 -0.09877722 0.014044459
-0.16411476 0.083372146 -0.06329648 -0.30761266 -0.011172741 0.060991857 -0.28183892 0.007755872
-0.13342951 -0.13939781 -0.33980706 -0.13027118 0.13101177 -0.062477395 0.31037378 -0.026789924
-0.023228742 -0.21457118 0.035242468 -0.036562085 0.015469637 0.27780193 0.1617956 -0.03859939
-0.08577005 -0.14483266 0.032974485 -0.21166606 0.041964117 -0.22627221 -0.10749278 -0.27286786
0.063841574 -0.06471631 0.11890044 0.40054402 -0.11142321 0.010453683 -0.13912743 -0.099019274
0.30525425 0.00037428658 0.26816308 -0.14344151 -0.003473382 -0.0038018387 -0.089534566 0.37160096
0.15760262 -0.150114 0.22455162 -0.29447663 -0.06277446 -0.24620426 0.0058751376 -0.06174202
0.16817889 -0.09610746 0.08977745 0.06764351 -0.21745536 -0.05416205 0.061294004 -0.080224924
-0.24524708 0.100005165 0.04408937 0.09206106 -0.011736937 0.18258227 0.19105983 0.19190857
0.17379059 -0.28614795 0.33686626 -0.48733404 -0.108467184 -0.21392411 -0.36026213 0.284543
-0.0851728 0.070327125 -0.014668874 -0.1639565 -0.16171053 -0.33371228 0.31357187 -0.3353078
-0.07814204 0.31074232 0.26793766 0.08695369 0.13683929 -0.22339998 0.065456904 -0.46784386
0.022867218 -0.020545492 -0.025078496 -0.385514 0.14890648 -0.24040374 -0.033788383 0.13520892
0.09731064 0.02542851 0.2801696 -0.5995104 -0.28073937 -0.24196485 0.16377337 -0.35641322
0.00040261337 0.038564257 -0.029375955 -0.03797402 0.04015522 0.051718235 0.13047591 -0.121052705
0.016687442 -0.23209584 0.19281264 0.010063383 -0.052243788 -0.009597405 -0.017149577 -0.11497577
0.121339545 -0.11332251 0.008924747 0.30897444 -0.10627819 0.045425918 0.22015657 0.008803756
-0.029033788 0.009889668 0.47441193 0.061419718 -0.097185284 -0.006620011 -0.42538399 -0.00018710797
0.04141593 0.16501461 -0.0041664923 0.019896619 0.008802533 -0.22633319 -0.1374594 0.076692514
0.0009823208 0.20632224 0.016858537 0.20383558 -0.028882734 0.15757148 0.13090456 0.3361569
0.008412271 0.18324243 -0.08996541 -0.40809017 0.086819164 0.020264534 0.13160041 0.0918667
-0.26284087 0.16807483 -0.34066513 0.21581343 0.03452877 0.1253886 0.16313651 -0.36709166
-0.16058499 0.14846179 -0.114811294 0.28239748 0.11430324 0.34546238 0.014884656 0.015620302
-0.3235536 0.11520366 -0.12245987 -0.1339511 0.15230593 0.09422095 -0.16415672 -0.04885159
0.21295425 -0.0070704133 -0.10342621 -0.11711087 0.007152436 -0.19845659 -0.13655731 -0.10920497
-0.17983635 0.20625198 -0.2682304 0.48108315 0.10910049 0.15267347 0.22198497 -0.25111604
0.2267501 -0.046206657 0.047290348 0.21322769 0.18869412 0.32304913 -0.23180391 0.24310581
0.26987046 -0.19424184 -0.3746642 -0.16080527 -0.05928141 0.33449453 -0.020781076 0.4834594
-0.10337942 -0.027240435 0.13204253 0.2626969 -0.050732177 0.1889822 0.039278597 -0.111677505
-0.076741725 -0.021383097 -0.46827465 0.43153456 0.14118117 0.2496988 -0.07420522 0.16854453
0.016689014 -0.13369629 0.08767938 -0.022243159 0.10405781 -0.021980094 -0.10984534 0.1135091
00000000: 30ea 42be d491 8c3e d3bf bd3c f754 923d
00000010: 77d6 3e3e e9fc 1f3d b64b cabd bb1a 663c
00000020: b30d 28be 04bf aa3d 96a1 81bd 687f 9dbe
00000030: df0d 37bc 99d2 793d 314d 90be f824 fe3b
00000040: bfa1 08be 4dbe 0ebe 31fb adbe cf65 05be
00000050: f327 063e 4ce8 7fbd 50e9 9e3e 8b76 dbbc
00000060: 344a bebc 8cb8 5bbe 685a 103d 20c2 15bd
00000070: 5c74 7d3c 0e3c 8e3e bfad 253e 651a 1ebd
00000080: 35a8 afbd 034f 14be 4110 073d fdbe 58be
00000090: 91e2 2b3d e7b3 67be 2d25 dcbd 56b5 8bbe
000000a0: 5fbf 823d fc89 84bd 1382 f33d 1b14 cd3e
000000b0: da31 e4bd ed45 2b3c 6c77 0ebe 9eca cabd
000000c0: 494a 9c3e e53b c439 ac4c 893e 55e2 12be
000000d0: aea1 63bb 4528 79bb e65d b7bd 7b42 be3e
000000e0: 9562 213e 7cb7 19be dcf0 653e a4c5 96be
000000f0: e58f 80bd f81c 7cbe 3a84 c03b 33e5 7cbd
00000100: 1637 2c3e fdd3 c4bd 3ddd b73d ae88 8a3d
00000110: 9eac 5ebe 07d9 5dbd 6c0f 7b3d f74c a4bd
00000120: 0d22 7bbe 82cf cc3d 0e97 343d 828a bc3d
00000130: 484c 40bc d9f6 3a3e 30a5 433e ae83 443e
00000140: 29f6 313e fc81 92be bc79 ac3e d983 f9be
00000150: 0b24 debd ec0e 5bbe 4774 b8be 9faf 913e
00000160: 146f aebd ab07 903d b855 70bc 36e4 27be
00000170: 7297 25be 56dc aabe 7e8c a03e 77ad abbe
00000180: ef08 a0bd 9e19 9f3e 202f 893e c714 b23d
00000190: 991f 0c3e f7c2 64be 450e 863d 3b89 efbe
000001a0: 0854 bb3c 054f a8bc 6b71 cdbc 1762 c5be
000001b0: f17a 183e 662c 76be b065 0abd 3574 0a3e
000001c0: cd4a c73d 734f d03c 6472 8f3e 8379 19bf
000001d0: 12bd 8fbe a2c5 77be 35b4 273e cb7b b6be
000001e0: da15 d339 8ef5 1d3d d8a5 f0bc a58a 1bbd
000001f0: cd79 243d 80d6 533d 7a9b 053e 7bea f7bd
00000200: 1ab4 883c 88aa 6dbe ad70 453e e3e0 243c
00000210: 95fd 55bd 6f3e 1dbc 457d 8cbc 6b78 ebbd
00000220: de80 f83d a215 e8bd 1a39 123c e631 9e3e
00000230: 61a8 d9bd 8710 3a3d b970 613e a13d 103c
00000240: 44d8 edbc 4608 223c 1fe6 f23e 3e93 7b3d
00000250: 1409 c7bd adec d8bb eecb d9be 6a32 44b9
00000260: c0a3 293d 97f9 283e 1287 88bb 3cfe a23c
00000270: 8038 103c e3c3 67be 28c2 0cbe f710 9d3d
00000280: 37c1 803a 2346 533e ea1a 8a3c 46ba 503e
00000290: 7c9b ecbc 6b5a 213e d80b 063e c21c ac3e
000002a0: 9fd3 093c e7a3 3b3e c93f b8bd 32f1 d0be
000002b0: 3fce b13d cf01 a63c 42c2 063e 9c24 bc3d
000002c0: 1493 86be cf1b 2c3e a96b aebe 32fe 5c3e
000002d0: 0a6e 0d3d df65 003e 420d 273e 70f3 bbbe
000002e0: 6470 24be 5e06 183e 2f22 ebbd 6796 903e
000002f0: d117 ea3d 72e0 b03e c6de 733c 4cec 7f3c
00000300: d1a8 a5be e6ef eb3d 3ecc fabd 7a2a 09be
00000310: 16f6 1b3e eaf6 c03d b318 28be 9b18 48bd
00000320: ae10 5a3e edae e7bb 1fd1 d3bd d3d7 efbd
00000330: fb5e ea3b 3438 4bbe aed5 0bbe dba6 dfbd
00000340: 0527 38be b833 533e 7f55 89be 8850 f63e
00000350: 1470 df3d 6f56 1c3e 0750 633e 4892 80be
00000360: 2e31 683e 3143 3dbd 86b3 413d 5c58 5a3e
00000370: 0839 413e b266 a53e 015e 6dbe bbf0 783e
00000380: 762c 8a3e 55e7 46be fcd3 bfbe 23aa 24be
00000390: 10d1 72bd de42 ab3e 133d aabc fe87 f73e
000003a0: 97b8 d3bd 5527 dfbc 2836 073e 3580 863e
000003b0: 8bcc 4fbd 8d84 413e 98e2 203d 2db7 e4bd
000003c0: c42a 9dbd 9b2b afbc b2c1 efbe 19f2 dc3e
000003d0: cc91 103e 0bb1 7f3e e8f8 97bd f096 2c3e
000003e0: 66b7 883c aee7 08be 3f91 b33d 4937 b6bc
000003f0: 431c d53d 990f b4bc 98f6 e0bd 7677 e83d

fc.2.bias f4 [128]
-0.022847543 0.08661943 0.09768696 0.016316395 0.09881315 -0.034983914 -0.13657737 -0.026783902
-0.11639824 -0.11659781 0.111107476 -0.07019442 -0.0545365 0.04540543 0.1016227 -0.011335362
-0.021631526 -0.09108684 -0.12668295 -0.021058671 -0.0033116215 0.15062317 0.039115965 -0.0020027556
-0.003417948 0.13353166 -0.07738269 -0.11254589 -0.12301214 0.14322267 -0.09287654 0.1151081
0.004679457 -0.07048699 -0.05034955 0.15916955 0.14553444 -0.07917107 0.16567585 0.06669277
0.098457694 0.14067641 0.14786126 -0.08305902 0.088486835 -0.11771094 -0.13023652 0.10299572
0.13327245 0.13500738 0.11796545 0.07042246 0.06537714 -0.0836563 -0.12650535 -0.17503151
0.13745964 0.0026900927 -0.058769505 0.0072594844 0.021550454 -0.058815453 -0.022051642 -0.068910174
-0.15201022 -0.04195476 0.15440445 0.066500485 0.013920818 0.0152596785 0.106477536 0.0067214128
-0.13904198 -0.008850821 -0.005286504 -0.05259835 -0.08171817 0.015558614 -0.020612627 0.034561105
0.11206598 0.18641818 0.08225615 0.09077623 -0.13094689 -0.01292084 0.11439776 0.09097302
0.106222846 -0.06924814 0.054229602 -0.12786299 -0.048036657 0.10702428 -0.122589275 0.016069002
0.06449573 -0.08339472 -0.09314573 0.14800733 0.15167938 -0.0100510465 -0.091225885 0.11557572
0.079812534 0.09007555 -0.12700117 0.14978234 0.011368373 0.05866582 0.038128622 0.024517713
-0.08536009 0.11315673 0.009793167 -0.08004666 0.09497401 0.07346584 -0.12279515 -0.057277896
-0.11194371 -0.14869367 -0.10475644 -0.1373406 -0.041827746 0.083821975 0.020530982 -0.11158229
00000000: c52a bbbc 8765 b13d 1a10 c83d f6a9 853c
00000010: 8c5e ca3d 4b4b 0fbd f0da 0bbe ea69 dbbc
00000020: 3362 eebd d5ca eebd 518c e33d 18c2 8fbd
00000030: aa61 5fbd 0bfb 393d 901f d03d f4b7 39bc
00000040: 9934 b1bc bd8b babd 2db9 01be 3c83 acbc
00000050: ca07 59bb f63c 1a3e 1038 203d aa40 03bb
00000060: a7ff 5fbb 86bc 083e d17a 9ebd 767e e6bd
00000070: caed fbbd f7a8 123e 0e36 bebd ccbd eb3d
00000080: 2156 993b 7c5b 90bd 543b 4ebd 58fd 223e
00000090: fb06 153e 7124 a2bd eea6 293e 3896 883d
000000a0: 30a4 c93d 7a0d 103e f168 173e d91a aabd
000000b0: 9638 b53d 6f12 f1bd b95c 05be 6cef d23d
000000c0: 9378 083e 603f 0a3e df97 f13d a739 903d
000000d0: 73e4 853d ff53 abbd 9e8a 01be 763b 33be
000000e0: 38c2 0c3e 444c 303b 4bb8 70bd f8e0 ed3b
000000f0: 948a b03c 79e8 70bd a5a5 b4bc c720 8dbd
00000100: 91a8 1bbe c1d8 2bbd 331c 1e3e 6831 883d
00000110: 2514 643c bb03 7a3c e510 da3d 4c3f dc3b
00000120: 0561 0ebe 0903 11bc 693a adbb 5e71 57bd
00000130: db5b a7bd 8fe9 7e3c d0db a8bc f28f 0d3d
00000140: d982 e53d 68e4 3e3e ea75 a83d e3e8 b93d
00000150: f116 06be eeb1 53bc 5f49 ea3d 1050 ba3d
00000160: 5d8b d93d f8d1 8dbd dc1f 5e3d 84ee 02be
00000170: 16c2 44bd 8c2f db3d 1610 fbbd 24a3 833c
00000180: 5616 843d daca aabd 30c3 bebd 3c8f 173e
00000190: d751 1b3e 25ad 24bc a3d4 babd f7b2 ec3d
000001a0: c174 a33d 8879 b83d 980c 02be 8b60 193e
000001b0: 6a42 3a3c 924b 703d c22c 1c3d 5fd9 c83c
000001c0: 45d1 aebd b7be e73d 8573 203c 81ef a3bd
000001d0: bc81 c23d 4275 963d 067c fbbd 3a9c 6abd
000001e0: be42 e5bd 2743 18be 8b8a d6bd 04a3 0cbe
000001f0: 9253 2bbd dbaa ab3d 9730 a83c 4185 e4bd

fc.4.weight f4 [2, 128]
-0.67978513 0.5542787 0.5348267 0.64228773 0.7332184 -0.58962375 -0.4794548 -0.6036924
-0.9652591 -0.8725188 0.65215665 -0.7378149 -0.6925939 0.5382426 0.40378898 -0.6480033
-0.86389583 -0.6149919 -0.54727554 -0.70488256 -0.6205907 0.77363163 0.6366971 0.8613733
0.765212 0.8682967 -0.86836654 -0.7488309 -0.6504116 0.6327718 -0.7502182 0.82194614
-0.6718449 -0.77939516 -0.66499174 0.6946285 0.72817117 -0.8941524 0.5102958 0.8074154
0.6012255 0.60988754 0.853732 -0.76212704 0.761435 -0.78065646 -0.59516734 0.5805749
0.7303435 0.8204044 0.48734695 0.6752003 1.1281602 -0.8836044 -0.7731784 -0.6443766
0.65526056 -0.7821887 -0.6284719 0.7344428 -0.8199646 -0.6793701 -0.68505776 -0.69895357
-0.7542159 0.83847684 0.6085457 0.7121536 0.72207624 0.8258239 0.864793 0.7579357
-0.7803926 0.8377843 -0.83436924 -0.63432264 -0.6975202 -0.76718354 -0.81648713 0.56732935
0.7894931 0.4329136 0.81379956 0.7213699 -0.7431096 -0.6261389 0.6973429 0.6802841
0.6484319 -0.91900927 0.620707 -0.47718534 -0.73688096 0.66303104 -0.6232078 0.64841735
0.7294417 -0.6020892 -0.68085015 0.692328 0.5479563 -0.65990734 -0.75725096 0.55073917
0.5160455 0.8169459 -0.7648592 0.86471486 0.77217776 0.67491275 -0.85888475 -0.68493444
-0.58917457 0.877697 0.71259665 -0.67408276 0.71566415 0.7404335 -0.6400755 -0.6007254
-0.5952892 -0.6809965 -0.7216213 -0.63048023 -0.6852647 0.6167858 -0.8055585 -0.6888613
-0.6402046 0.80397046 0.78001714 0.67477846 0.8217141 -0.7067945 -0.7433066 -0.75243896
-0.19678171 -0.77017164 0.77508837 -0.63932246 -0.7264364 0.7859472 0.7482469 -0.64933074
-0.14884749 -0.7538549 -0.81154794 -0.6489415 -0.83380574 0.7204981 0.71827394 0.75990874
0.6406819 0.7664222 -0.37462366 -0.8007675 -0.6737134 0.8238198 -0.80287355 0.72567356
-0.7037441 -0.6300282 -0.66754067 0.8184834 0.7721688 -0.7869141 0.77379197 0.6277008
0.7782647 0.747256 0.8261964 -0.61254925 0.72070765 -0.76754093 -0.8179207 0.64871824
0.7092608 0.7207355 0.80550337 0.773184 0.22460173 -0.6825218 -0.82695806 -0.7962636
0.7825225 -0.71318364 -0.7494032 0.7041076 -0.75048393 -0.85597914 -0.745243 -0.74445355
-0.7092135 -0.13144755 0.70911896 0.7908935 0.6467241 0.8201835 0.730141 0.73411006
-0.7423899 0.6334178 -0.75461346 -0.66222095 -0.63686806 -0.7015853 -0.77656543 0.7763895
0.7632253 0.72845376 0.70739377 0.5431554 -0.70569056 -0.7608087 0.6045433 0.8326689
0.70357513 -0.6840467 0.74745333 -0.75603503 -0.72160316 0.6516002 -0.6485974 0.76787865
0.7939725 -0.735463 -0.75270563 0.800505 0.69375396 -0.72141296 -0.6239067 0.84499496
0.773486 0.75863963 -0.6552213 0.4940933 0.68563175 0.73096 -0.10217063 -0.7488691
-0.7517735 0.6607114 0.69168454 -0.79405755 0.61407346 0.55791104 -0.7220627 -0.7374532
-0.74949384 -0.7493195 -0.7743999 -0.74148023 -0.728187 0.72418964 -0.82923347 -0.690099
00000000: 6606 2ebf 35e5 0d3f 67ea 083f f86c 243f
00000010: 33b4 3b3f 95f1 16bf 197b f5be 968b 1abf
00000020: 381b 77bf 645d 5fbf bdf3 263f 70e1 3cbf
00000030: d54d 31bf 44ca 093f 6ebd ce3e 8be3 25bf
00000040: 4728 5dbf 1c70 1dbf 401a 0cbf 2f73 34bf
00000050: 08df 1ebf b90c 463f 95fe 223f f682 5c3f
00000060: efe4 433f b148 5e3f 454d 5ebf 62b3 3fbf
00000070: 6081 26bf 55fd 213f 4d0e 40bf 106b 523f
00000080: 07fe 2bbf 7186 47bf e63c 2abf 2cd3 313f
00000090: 6d69 3a3f 2ce7 64bf bfa2 023f c7b2 4e3f
000000a0: eae9 193f 9721 1c3f 2e8e 5a3f c21a 43bf
000000b0: 67ed 423f 1ad9 47bf e35c 18bf 8fa0 143f
000000c0: cbf7 3a3f 0606 523f 8a85 f93e edd9 2c3f
000000d0: 8e67 903f e633 62bf 05ef 45bf ddf5 24bf
000000e0: 28bf 273f 853d 48bf 89e3 20bf 7104 3c3f
000000f0: 33e9 51bf 33eb 2dbf f25f 2fbf 9fee 32bf
00000100: 4b14 41bf 6ba6 563f a7c9 1b3f b34f 363f
00000110: fdd9 383f 3269 533f 1363 5d3f 1308 423f
00000120: cfc7 47bf 0879 563f 3999 55bf f862 22bf
00000130: af90 32bf 2466 44bf 4d05 51bf 7f3c 113f
00000140: 381c 4a3f daa6 dd3e 2b55 503f b3ab 383f
00000150: 6e3c 3ebf a44a 20bf 1085 323f 1927 2e3f
00000160: a2ff 253f 3144 6bbf a7e6 1e3f a351 f4be
00000170: 3ba4 3cbf 67bc 293f 8c8a 1fbf aefe 253f
00000180: b1bc 3a3f 8522 1abf 324c 2ebf 683c 313f
00000190: dd46 0c3f b0ef 28bf 33db 41bf 3efd 0c3f
000001a0: 8f1b 043f 5e23 513f d0cd 43bf f45d 5d3f
000001b0: 71ad 453f 15c7 2c3f dfdf 5bbf dd57 2fbf
000001c0: 25d4 16bf c0b0 603f bc6c 363f b090 2cbf
000001d0: c435 373f 0d8d 3d3f fddb 23bf 24c9 19bf
000001e0: df64 18bf c955 2ebf 2cbc 38bf 2767 21bf
000001f0: 826d 2fbf ade5 1d3f 1539 4ebf 3759 30bf
00000200: 73e4 23bf 02d1 4d3f 34af 473f 48be 2c3f
00000210: db5b 523f 7cf0 34bf 5749 3ebf d79f 40bf
00000220: 2581 49be f829 45bf 316c 463f a3aa 23bf
00000230: bcf7 39bf d633 493f 1c8d 3f3f 8a3a 26bf
00000240: 7a6b 18be a2fc 40bf 9bc1 4fbf 0821 26bf
00000250: 4b74 55bf 9072 383f cde0 373f 6189 423f
00000260: bb03 243f 3f34 443f acce bfbe 19ff 4cbf
00000270: 7b78 2cbf dbe5 523f 1f89 4dbf bec5 393f
00000280: 9328 34bf 8749 21bf f2e3 2abf 2188 513f
00000290: dbac 453f 3473 49bf 3b17 463f 00b1 203f
000002a0: 5b3c 473f 2b4c 3f3f 9b81 533f 07d0 1cbf
000002b0: 4c80 383f 907d 44bf 4063 51bf 6612 263f
000002c0: 1e92 353f 1f82 383f 7835 4e3f 63ef 453f
000002d0: fffd 653e c0b9 2ebf 86b3 53bf eed7 4bbf
000002e0: 6553 483f 3493 36bf e3d8 3fbf 6540 343f
000002f0: b71f 40bf 7321 5bbf 3fc8 3ebf 8294 3ebf
00000300: 048f 35bf 309a 06be d288 353f ff77 4a3f
00000310: b68f 253f 8cf7 513f 85ea 3a3f a3ee 3b3f
00000320: 440d 3ebf ab27 223f 592e 41bf 5087 29bf
00000330: c909 23bf 189b 33bf fecc 46bf 76c1 463f
00000340: bc62 433f f27b 3a3f c217 353f 3b0c 0b3f
00000350: 23a8 34bf 5cc4 42bf 5ac3 1a3f ca29 553f
00000360: 801d 343f af1d 2fbf 1a59 3f3f 838b 41bf
00000370: fcba 38bf 45cf 263f 7b0a 26bf b293 443f
00000380: c841 4b3f 4e47 3cbf 51b1 40bf e5ed 4c3f
00000390: dc99 313f 85ae 38bf 59b8 1fbf 9751 583f
000003a0: 2e03 463f 3536 423f 95bc 27bf ccf9 fc3e
000003b0: 9085 2f3f 3220 3b3f d63e d1bd e3b5 3fbf
000003c0: 3a74 40bf 6224 293f 3d12 313f 5b47 4bbf
000003d0: eb33 1d3f 42d3 0e3f 1ad9 38bf bcc9 3cbf
000003e0: d4de 3fbf 67d3 3fbf 123f 46bf a6d1 3dbf
000003f0: 776a 3abf 7e64 393f a548 54bf 54aa 30bf

fc.4.bias f4 [2]
0.42671233 0.6603455
00000000: 0a7a da3e 670c 293f
